Assets/Ai/newAgent 3.onnx (onnx, 935464 bytes, 15 tensors)

network_body.observation_encoder.processors.0.normalizer.running_mean f4 [55]
5.802669 6.946125 1.6393806 0.0 3.912127 1.9427586 4.498782 2.3265054
0.79522204 1.6637583 0.467159 1.3779298 4.1878 1.0096325 4.1806183 1.1081817
0.037927583 0.0012766566 -0.010685508 0.032242227 0.006909613 -0.006334883 -0.032995917 -0.004118341
-0.007340466 0.036960267 -0.00238578 0.008958713 -0.02211868 -0.0015536338 -0.021091592 0.006567641
-0.002153015 0.012475451 0.01314407 -0.0054202634 0.010222601 0.043291785 -0.0060348725 -0.0008380173
0.013690504 0.004830237 0.008708277 -0.015067573 -0.004801303 -0.0059874044 -0.094595574 0.004864406
0.009919311 -0.0032261044 -0.0012901013 0.02205271 -0.009339932 -0.003997554 -0.00917328
00000000: 77af b940 a846 de40 39d7 d13f 0000 0000
00000010: 4a60 7a40 50ac f83f 06f6 8f40 77e5 1440
00000020: ac93 4b3f 08f6 d43f 772f ef3e 0160 b03f
00000030: 7502 8640 a33b 813f a0c7 8540 e6d8 8d3f
00000040: f459 1b3d 7d55 a73a 4512 2fbc 6d10 043d
00000050: 096a e23b da94 cfbb ba26 07bd 26f3 86bb
00000060: 4b88 f0bb a663 173d bf5a 1cbb 91c7 123c
00000070: 3c32 b5bc 4da3 cbba 46c8 acbc 5e35 d73b
00000080: 9919 0dbb d665 4c3c 3a5a 573c 779c b1bb
00000090: b27c 273c ba52 313d 2ec0 c5bb 64ae 5bba
000000a0: 234e 603c f746 9e3b 29ad 0e3c fbdd 76bc
000000b0: 4054 9dbb fd31 c4bb 53bb c1bd 9865 9f3b
000000c0: 9b84 223c 0d6d 53bb 9e18 a9ba e3a7 b43c
000000d0: 8406 19bc eafd 82bb 864b 16bc

network_body._body_endoder.seq_layers.0.weight f4 [256, 55]
-0.12179181 -0.042493682 0.15949978 0.07461412 0.06239502 -0.13092406 0.16233847 -0.16532433
-0.2513294 -0.10798404 -0.25584513 -0.03429707 -0.15123111 -0.168117 0.10806892 -0.0809753
-0.05704666 0.009628337 -0.07378289 -0.15738173 -0.045968965 0.25621566 0.1155218 -0.04189422
-0.27174324 0.17644835 0.14620665 0.27218136 -0.04755949 0.18161258 0.105269395 0.107185125
-0.25626057 0.08625103 0.025682254 0.06813127 -0.06736569 -0.15408027 -0.37114662 0.008027758
-0.25330198 0.14793162 -0.016947689 0.0875755 0.26664355 0.026289655 -0.1868289 -0.0058381464
-0.18643594 -0.22649525 -0.11715335 -0.20139521 -0.1183485 0.06222135 -0.059326455 0.13130918
-0.16722202 -0.00033895386 -0.20772393 0.04415937 0.030555638 0.3387115 -0.20528686 0.21343441
0.081288114 -0.12189751 0.14217092 -0.13853365 -0.03169891 -0.10235296 -0.09673595 0.11624309
0.06359847 -0.11063147 0.07704579 0.10744402 -0.054477606 -0.019162413 -0.18062441 -0.05678176
-0.015193814 -0.0556631 -0.024711281 -0.3394742 0.1677848 -0.017535876 0.15881515 0.13261805
-0.0070027295 -0.23104735 0.17207576 -0.20011096 -0.060091943 0.14712168 -0.20843862 -0.06421935
-0.07529972 -0.20816804 0.06300365 0.1914662 0.062005233 -0.06060713 0.0945482 -0.2027073
0.065452866 0.1017455 0.128072 0.13012795 -0.0131594725 0.3049906 -0.017044801 -0.0021091828
0.28485733 -0.06805415 0.06884045 0.2383254 0.07985518 -0.07233772 -0.14897712 -0.14326347
0.12623668 -0.13320945 0.11404002 -0.13076936 -0.18157431 -0.12668408 -0.3238601 0.06809664
-0.049427114 -0.003504565 -0.21869738 -0.03650421 -0.15525055 -0.18284677 -0.10625013 -0.14202587
-0.013078845 0.114076726 -0.23349139 -0.1955197 0.055588663 0.03247531 0.43395278 -0.017663963
0.1963631 -0.023338515 0.06614647 -0.117536254 0.057719093 0.120086 0.2770793 0.040696107
0.20626597 -0.1421077 -0.1548144 -0.28372237 -0.096423216 -0.09337488 -0.18310262 0.09478614
-0.019554041 0.0060469364 0.13153696 -0.11994321 0.04914003 0.2890464 -0.106159605 -0.2859267
0.12211204 0.03687278 0.07277038 0.01511326 0.018276203 -0.060329545 0.005682918 0.07629273
0.18624368 0.2036485 0.23202543 -0.24802883 0.07650658 0.13278987 0.13239929 0.1942326
-0.14023337 0.023732936 0.06065554 -0.2863942 -0.03469783 -0.17259821 0.022080474 0.17068152
-0.10869327 -0.014342474 0.20519957 -0.004204067 -0.18988003 0.13536441 0.01835095 0.07587032
-0.14704213 -0.08708308 -0.07383826 0.107399836 0.016031748 0.35368535 0.10124312 0.105892435
-0.027577352 -0.06284701 0.23597203 0.012250888 0.24028157 0.132436 0.17828684 -0.027550302
-0.012073226 -0.08740452 0.18107487 0.067965955 -0.017750219 -2.5845897e-05 0.043868236 -0.045554824
0.14117117 -0.015401844 0.092976496 0.047039147 -0.19914027 0.036516152 -0.18353346 -0.15341654
0.0585361 -0.062324297 -0.006109996 0.20850474 0.11450983 0.09814623 -0.03474398 -0.048911307
0.26706892 0.0045715277 0.062479306 -0.08535668 0.10183375 0.13423462 -0.12659793 0.2436113
0.25352627 0.21397479 -0.037839185 0.035289604 -0.16421242 0.073283605 0.054711424 -0.05721416
00000000: fc6d f9bd db0d 2ebd e953 233e 4acf 983d
00000010: ec91 7f3d f510 06be 0e3c 263e c84a 29be
00000020: 3fae 80be bd26 ddbd 22fe 82be 167b 0cbd
00000030: 54dc 1abe dd26 2cbe 3d53 dd3d 61d6 a5bd
00000040: c2a9 69bd 2cc0 1d3c 7c1b 97bd ad28 21be
00000050: f449 3cbd b32e 833e b296 ec3d 4699 2bbd
00000060: ee21 8bbe e0ae 343e 32b7 153e 5b5b 8b3e
00000070: bdcd 42bd a6f8 393e 7b97 d73d e083 db3d
00000080: 9634 83be 61a4 b03d 9763 d23c 6888 8b3d
00000090: 06f7 89bd 38c7 1dbe ee06 bebe dc86 033c
000000a0: ccb0 81be 637b 173e e1d5 8abc c95a b33d
000000b0: 8185 883e 675d d73c 1350 3fbe ec4d bfbb
000000c0: 10e9 3ebe 5fee 67be 18ee efbd 8c3a 4ebe
000000d0: b360 f2bd d0db 7e3d 4c00 73bd ea75 063e
000000e0: 403c 2bbe 9eb5 b1b9 95b5 54be 75e0 343d
000000f0: d14f fa3c 986b ad3e b836 52be 8d8e 5a3e
00000100: 627a a63d 67a5 f9bd 4195 113e c4db 0dbe
00000110: b7d6 01bd 6e9e d1bd 7f1d c6bd db10 ee3d
00000120: ea3f 823d c192 e2bd 2fca 9d3d 9c0b dc3d
00000130: e923 5fbd 7efa 9cbc 9bf5 38be fe93 68bd
00000140: 7aef 78bc fefe 63bd 506f cabc 90cf adbe
00000150: c7cf 2b3e 66a7 8fbc 70a0 223e 07cd 073e
00000160: 2777 e5bb ad97 6cbe a134 303e e3e9 4cbe
00000170: f822 76bd 11a7 163e ef70 55be 6f85 83bd
00000180: bd36 9abd 012a 55be 0f08 813d b70f 443e
00000190: 33f9 7d3d 2f3f 78bd 7da2 c13d 8192 4fbe
000001a0: 270c 863d f25f d03d 4e25 033e 4340 053e
000001b0: d49a 57bc ba27 9c3e 8aa1 8bbc 373a 0abb
000001c0: d2d8 913e f95f 8bbd 39fc 8c3d 930b 743e
000001d0: 1d8b a33d cc25 94bd 758d 18be a9b3 12be
000001e0: 3044 013e 0f68 08be d08d e93d 67e8 05be
000001f0: 9eee 39be 79b9 01be fed0 a5be 4076 8b3d
00000200: 1674 4abd d8ac 65bb 35f2 5fbe 7085 15bd
00000210: 00fa 1ebe 2f3c 3bbe ab99 d9bd 3b6f 11be
00000220: a748 56bc 0fa1 e93d 5e18 6fbe 5136 48be
00000230: f0b0 633d d504 053d 0f2f de3e 04b4 90bc
00000240: 6913 493e 6a30 bfbc cd77 873d d9b6 f0bd
00000250: db6a 6c3d a6ef f53d 57dd 8d3e f6b0 263d
00000260: 6337 533e ae84 11be ab87 1ebe 0f44 91be
00000270: 8979 c5bd 543b bfbd 417f 3bbe 3c1f c23d
00000280: cc2f a0bc 6125 c63b a0b1 063e c9a4 f5bd
00000290: 0e47 493d e4fd 933e 356a d9bd fc64 92be
000002a0: e115 fa3d ea07 173d a308 953d 9b9d 773c
000002b0: fab7 953c 1d1c 77bd c537 ba3b 5d3f 9c3d
000002c0: aab6 3e3e 3b89 503e 1398 6d3e 45fb 7dbe
000002d0: 7baf 9c3d 11fa 073e ae93 073e e9e4 463e
000002e0: 5699 0fbe 936b c23c f271 783d 43a2 92be
000002f0: 501f 0ebd 96bd 30be 1ce2 b43c 23c7 2e3e
00000300: 949a debd b2fc 6abc d61f 523e 45c2 89bb
00000310: e96f 42be f89c 0a3e bb54 963c e661 9b3d
00000320: 3692 16be 9d58 b2bd 8338 97bd 72f4 db3d
00000330: 0355 833c 3f16 b53e 8e58 cf3d 22de d83d
00000340: e6e9 e1bc efb5 80bd a7a2 713e f3b7 483c
00000350: 5f0c 763e 4e9d 073e d390 363e 2cb1 e1bc
00000360: c8ce 45bc 2401 b3bd b16b 393e bc31 8b3d
00000370: e868 91bc a4cf d8b7 2eaf 333d b297 3abd
00000380: 2d8f 103e 0458 7cbc 766a be3d 1fac 403d
00000390: 6deb 4bbe f691 153d 32f0 3bbe 3a19 1dbe
000003a0: 8dc3 6f3d c347 7fbd 5c36 c8bb 4482 553e
000003b0: 2184 ea3d e400 c93d b44f 0ebd 3957 48bd
000003c0: 42bd 883e c1cc 953b 4dea 7f3d 7ccf aebd
000003d0: 378e d03d cd74 093e e3a2 01be 3e75 793e
000003e0: 32ce 813e 351c 5b3e 43fd 1abd d58b 103d
000003f0: 4d27 28be b715 963d 1619 603d 6559 6abd

network_body._body_endoder.seq_layers.0.bias f4 [256]
-0.0101221595 0.018287396 -0.028030721 -0.0010447536 -0.03760699 0.040931527 -0.0050917133 0.030868312
0.02159125 0.035553478 -0.011613257 -0.0289287 0.017124569 -0.0044392673 -0.035221066 0.0210586
0.04264982 -0.026588803 -0.0034235334 -0.018158272 0.006799175 -0.039189458 0.021363191 -0.006495559
0.0039902288 -0.002116573 0.03529452 0.0061919247 0.013787652 0.08751606 0.037604067 0.043533795
0.075551435 0.0016440441 -0.014612939 0.10016136 0.079005726 0.01268997 -0.054925602 0.0039552418
-0.03113457 -0.04491625 0.0031655421 0.01427493 0.042687304 0.03908917 0.031151403 0.048592173
0.022740072 0.041231006 -0.0010275223 0.0443903 0.03183125 -0.018012093 0.013941861 -0.041988827
-0.028051883 -0.037155125 -0.023251142 0.009627607 0.0073501575 0.0038219467 -0.029936425 0.006621714
0.014725845 0.054191045 -0.047927015 0.04964432 -0.022239098 -0.003713416 0.048822697 0.015560046
-0.0040562893 -0.03457372 0.046871975 -0.011967667 0.019052088 -0.052965064 0.00940026 0.011063569
0.012164416 0.028286284 0.022385944 -0.032780197 0.028698511 0.041770194 -0.041032583 -0.017303145
0.025063593 0.050972655 0.019263022 0.0135978265 0.05233932 -0.0044744057 0.012548909 -0.0012996837
0.012354602 -0.047124967 0.0589415 -0.04339833 -0.027167166 -0.017525965 -0.068083055 -0.0056508943
0.049731072 -0.021178467 0.04042123 -0.039847944 -0.018194903 0.010104573 0.081266694 0.0019447906
0.0071137873 0.03153154 -0.010790818 0.018699165 -0.016041536 -0.07122021 0.016741911 -0.029640906
0.015538716 -0.07155233 -0.008879674 0.048001315 0.043803424 -0.033725522 0.06924178 -0.06093586
0.05830445 0.007861464 0.007046705 0.060125757 0.015896525 -0.015913524 0.038079504 -0.03954963
-0.04627415 0.013884228 -0.022474602 0.0059502167 0.053662274 -0.035297528 0.055028502 0.049119163
-0.011072108 -0.029936085 -0.02158077 -0.053428352 0.033770684 -0.022423115 0.018222876 -0.027233332
-1.0152376e-05 -0.020465266 0.04879812 -0.00052956317 0.07819316 -0.060285315 0.0034715747 -0.025861096
-0.02900687 0.06657438 0.02248848 0.027926948 0.026467439 -0.004122045 0.03643932 -0.032033015
-0.03678236 -0.012745457 -0.05474505 -0.0024575472 -0.007900618 -0.04363211 -0.01649211 -0.021518933
0.016102428 0.028970944 -0.015883261 0.0073975306 -0.015939243 0.114956595 0.013495822 0.0058974656
-0.082605414 -0.029453121 -0.0031201 -0.06631454 0.031161653 0.028907256 -0.0009351353 -0.04924001
-0.07883274 0.08180781 -0.008517929 -0.045345187 -0.034221485 0.028919915 0.015470429 -0.009520647
-0.0027670888 0.022689283 0.03665828 -0.0012544751 0.08371771 0.0092438515 -0.041498397 -0.008474445
0.09359677 -0.02033601 0.08987786 0.048151556 -0.031591978 -0.005371164 0.022197187 -0.0005504221
0.09068703 0.0200516 0.00022569705 0.0070015523 0.013232764 0.09661636 0.039607577 0.039254677
0.0037035793 0.013076056 -0.0038612639 0.04376975 0.039783 -0.02014112 -0.05012419 -0.06964861
-0.010832171 0.014779681 0.02177717 -0.014535686 -0.010139683 0.031814486 -0.044930123 -0.02627614
0.03462505 -0.0269692 0.03990118 -0.015795292 -0.0017686506 -0.0023603856 0.00090381963 0.030929271
-0.04169862 -0.022599515 0.008150829 -0.08525355 0.00046341214 -0.020121355 0.016467623 -0.009498164
00000000: 6ad7 25bc 73cf 953c afa0 e5bc 1df0 88ba
00000010: ca09 1abd d1a7 273d 63d8 a6bb 8bdf fc3c
00000020: 22e0 b03c 86a0 113d 8845 3ebc e2fb ecbc
00000030: d348 8c3c 4677 91bb f743 10bd 1683 ac3c
00000040: 94b1 2e3d c3d0 d9bc 5c5d 60bb a8c0 94bc
00000050: 9dcb de3b 2085 20bd dc01 af3c b3d8 d4bb
00000060: 77c0 823b 34b6 0abb fd90 103d a1e5 ca3b
00000070: 9be5 613c 9f3b b33d b906 1a3d 7e50 323d
00000080: b6ba 9a3d f77c d73a 1c6b 6fbc 6621 cd3d
00000090: c1cd a13d 98e9 4f3c abf9 60bd f99a 813b
000000a0: ed0d ffbc 1afa 37bd fc74 4f3b 65e1 693c
000000b0: e2d8 2e3d f71b 203d 3a31 ff3c 9608 473d
000000c0: 6349 ba3c d8e1 283d edad 86ba 9ad2 353d
000000d0: 7c61 023d 198e 93bc 676c 643c 7afc 2bbd
000000e0: 10cd e5bc f92f 18bd 2e79 bebc 1cbd 1d3c
000000f0: 97d9 f03b a079 7a3b 3c3d f5bc f7fa d83b
00000100: ac44 713c 6ef7 5d3d 1e4f 44bd d857 4b3d
00000110: c52e b6bc c85c 73bb 4ffa 473d 90ef 7e3c
00000120: 9fea 84bb 2c9d 0dbd d4fc 3f3d 0914 44bc
00000130: 2013 9c3c e5f1 58bd 8c03 1a3c f943 353c
00000140: 424d 473c a3b8 e73c ba62 b73c 8744 06bd
00000150: 2419 eb3c 3917 2b3d c811 28bd 53bf 8dbc
00000160: 2a52 cd3c b4c8 503d 7ccd 9d3c 6bc9 5e3c
00000170: c161 563d 099e 92bb f099 4d3c 265a aaba
00000180: f56a 4a3c 1c06 41bd a46c 713d 73c2 31bd
00000190: ad8d debc 9d92 8fbc 216f 8bbd 232b b9bb
000001a0: cfb2 4b3d 777e adbc bb90 253d 9937 23bd
000001b0: 7a0d 95bc a78d 253c 276f a63d 58e8 fe3a
000001c0: c61a e93b 3727 013d f9cb 30bc fe2e 993c
000001d0: 8a69 83bc e7db 91bd 5526 893c 7cd1 f2bc
000001e0: 1996 7e3c 078a 92bd 0d7c 11bc 079d 443d
000001f0: 386b 333d c623 0abd a2ce 8d3d e197 79bd
00000200: a6d0 6e3d 5fcd 003c 0ce8 e63b 6d46 763d
00000210: 6e39 823c 145d 82bc 41f9 1b3d cbfe 21bd
00000220: f789 3dbd ac7a 633c a81c b8bc 09fa c23b
00000230: f9cc 5b3d 2494 10bd 9165 613d 2d31 493d
00000240: c967 35bc 853c f5bc 28ca b0bc b0d7 5abd
00000250: 2153 0a3d aeb0 b7bc 2448 953c 7018 dfbc
00000260: 1f54 2ab7 c6a6 a7bc 8ae0 473d 62d2 0aba
00000270: bc23 a03d bced 76bd 5c83 633b a6da d3bc
00000280: d19f edbc 2658 883d c339 b83c 0ec7 e43c
00000290: 3ed2 d83c 3812 87bb 6541 153d 0d35 03bd
000002a0: 1aa9 16bd 52d2 50bc 583c 60bd cd0e 21bb
000002b0: 9871 01bc 95b7 32bd 761a 87bc 7948 b0bc
000002c0: 3de9 833c 7954 ed3c 9d1d 82bc fc66 f23b
000002d0: 0493 82bc 5d6e eb3d 951d 5d3c 873f c13b
000002e0: 072d a9bd ac47 f1bc 977a 4cbb ebcf 87bd
000002f0: b946 ff3c e9ce ec3c de23 75ba e5af 49bd
00000300: 0f73 a1bd da8a a73d c98e 0bbc e0bb 39bd
00000310: d42b 0cbd 75e9 ec3c af77 7d3c 7dfc 1bbc
00000320: 0c58 35bb e0de b93c fe26 163d 336d a4ba
00000330: 3174 ab3d 8673 173c 39fa 29bd 66d8 0abc
00000340: aaaf bf3d b497 a6bc e211 b83d 913a 453d
00000350: 9766 01bd 9700 b0bb e0d6 b53c 344a 10ba
00000360: 1fba b93d 4143 a43c 17a9 6c39 476d e53b
00000370: 3cce 583c ccde c53d 8e3b 223d 83c9 203d
00000380: c0b7 723b f43c 563c 420d 7dbb e947 333d
00000390: 80f3 223d fdfe a4bc 064f 4dbd eea3 8ebd
000003a0: 6b79 31bc 7a26 723c 0966 b23c 1627 6ebc
000003b0: ea20 26bc e84f 023d a608 38bd 0f41 d7bc
000003c0: ffd2 0d3d 83ee dcbc 6b6f 233d 2165 81bc
000003d0: 11d2 e7ba b3b0 1abb 4fee 6c3a 625f fd3c
000003e0: 2ccc 2abd 9e22 b9bc 0e8b 053c 6a99 aebd
000003f0: 20f6 f239 8ad5 a4bc 1ce7 863c 309e 1bbc

network_body._body_endoder.seq_layers.2.weight f4 [256, 256]
0.012553759 -0.061384536 -0.082060315 0.1520406 0.011248248 -0.081902884 0.0285593 0.0053015477
-0.008853624 -0.09991739 0.008623801 0.13866569 -0.23229647 -0.05326946 -0.057484206 -0.06337238
-0.021797646 -0.07027614 -0.16504705 0.007523521 0.07832908 0.06805199 -0.0057270736 -0.042870644
-0.073791906 0.11482284 -0.011667164 -0.08341436 0.17310803 -0.10316312 0.044333465 0.007876787
0.08149155 -0.0021179235 0.014925678 -0.08029898 -0.09139027 0.05806329 0.08582788 -0.047968507
-0.015483414 0.102040164 -0.067149885 -0.012115344 -0.050120443 0.008373934 -0.031194622 -0.10757718
-0.1215372 0.023585504 -0.05196444 0.11477093 0.059504166 -0.020192232 -0.06628772 0.060777877
0.007447701 0.01237561 0.014523538 0.0679257 -0.060951315 -0.002711654 0.033927217 -0.06573669
-0.021812093 0.0772615 -0.16962299 -0.013251191 -0.064931564 -0.022490777 0.06592621 -0.014058636
0.02919486 -0.019582069 0.010154616 -0.010692777 0.058956224 -0.03335046 -0.08807597 0.13969533
0.005642199 -0.019136345 0.05295311 0.011089433 -0.17241797 0.08831732 0.03218887 -0.12687793
0.05848204 0.18098207 0.09466475 0.120884985 0.008503047 -0.055171043 -0.06761902 0.074776724
-0.22734444 0.047614142 0.10933355 0.10184002 0.048891045 0.073337466 -0.05403033 -0.055107288
0.056782763 -0.15649487 0.027453268 0.047580764 -0.14031689 -0.016171074 -0.2107942 -0.08018486
-0.05726967 0.0034532454 0.16847233 0.008572631 0.038704246 0.18663646 -0.13509409 -0.06641565
-0.14322847 -0.13651592 0.0015966131 0.20810312 0.011504132 -0.06307199 0.011152139 -0.12125725
-0.20115575 -0.082286395 -0.04202474 -0.09900978 -0.012635467 0.109534554 0.019657554 -0.05298499
-0.070946895 0.07000301 0.00656476 0.060602117 -0.0365173 0.017445177 0.06789929 -0.084858045
-0.10007045 0.02826339 0.017424896 0.01917882 -0.038535785 0.048644394 0.042664334 -0.13731194
-0.038985766 0.08931675 0.14308389 0.019918209 0.0797945 -0.06506628 -0.07740671 -0.055558905
0.00029181154 -0.24665381 -0.0961763 0.08005 -0.11811638 -0.10328827 0.041566398 0.04682427
-0.008850905 0.032637592 0.009885422 -0.005733878 0.08756371 0.12028414 -0.052709 -0.16733463
-0.034873042 0.113809615 -0.12301864 -0.07284077 0.030864205 0.0192081 0.072110936 0.15252328
-0.056277856 0.14001073 0.07227672 -0.055517543 0.12191282 -0.016877556 0.041163 0.04620102
0.0034677712 0.040291745 0.02869119 0.031014653 0.20435363 -0.038188238 0.14970833 -0.03513182
0.13778579 0.063249834 -0.03427953 -6.784255e-05 -0.07242707 0.059782773 0.13149448 0.23848706
0.05988363 0.046755895 -0.024914388 -0.05292278 0.042524565 -0.05492354 -0.10560566 -0.06650459
-0.052661348 -0.02102257 0.040168006 0.04948568 -0.062692136 0.060232118 0.2047019 -0.08869347
-0.0022838397 -0.013984585 -0.12637226 -0.09820074 0.22575411 0.08977655 0.03915908 0.020904666
0.070611045 -0.0060804216 -0.08664506 -0.20424499 0.04096358 -0.006315715 -0.02195051 -0.13110815
0.056480635 0.04897966 0.026933571 0.09781216 -0.03534966 -0.059292346 -0.14547175 0.07727017
-0.054559622 0.10042685 0.095991254 0.021451028 0.03819421 0.08862929 -0.008341874 -0.0083987275
00000000: 48ae 4d3c 5a6e 7bbd 3d0f a8bd 88b0 1b3e
00000010: 924a 383c b3bc a7bd 31f5 e93c 9bb8 ad3b
00000020: ca0e 11bc 7da1 ccbd d84a 0d3c 61fe 0d3e
00000030: 20df 6dbe 1431 5abd 8f74 6bbd 61c9 81bd
00000040: fa90 b2bc f0ec 8fbd 1802 29be de87 f63b
00000050: ff6a a03d d75e 8b3d 2daa bbbb 2199 2fbd
00000060: 3620 97bd 3d28 eb3d a227 3fbc 26d5 aabd
00000070: 3b43 313e 3047 d3bd 0297 353d a40d 013c
00000080: 0be5 a63d dccc 0abb d58a 743c cb73 a4bd
00000090: d22a bbbd c6d3 6d3d 87c6 af3d a07a 44bd
000000a0: 25ae 7dbc 6ffa d03d e185 89bd 707f 46bc
000000b0: 184b 4dbd d332 093c dd8b ffbc 6d51 dcbd
000000c0: 7fe8 f8bd 6336 c13c aad8 54bd 050d eb3d
000000d0: a4ba 733d 2e6a a5bc dbc1 87bd 39f2 783d
000000e0: d80b f43b 12c3 4a3c 22f4 6d3c a11c 8b3d
000000f0: 16a8 79bd 01b6 31bb 44f7 0a3d f5a0 86bd
00000100: 46af b2bc 473b 9e3d a6b1 2dbe 861b 59bc
00000110: d7fa 84bd 943e b8bc 5204 873d 3156 66bc
00000120: 0f2a ef3c 936a a0bc 8c5f 263c c230 2fbc
00000130: 157c 713d 7e9a 08bd 2d61 b4bd 4b0c 0f3e
00000140: 32e2 b83b d3c3 9cbc 5ce5 583d 74b0 353c
00000150: 568e 30be b6df b43d 7ad8 033d 4aec 01be
00000160: dd8a 6f3d 5d53 393e 98df c13d 8c92 f73d
00000170: 5d50 0b3c 08fb 61bd d77b 8abd 8a24 993d
00000180: fbcc 68be 0c07 433d 45ea df3d 8091 d03d
00000190: fa41 483d f431 963d e84e 5dbd 2eb8 61bd
000001a0: 0b95 683d 3140 20be ade5 e03c 0ce4 423d
000001b0: 3baf 0fbe 3379 84bc 6fda 57be f637 a4bd
000001c0: 9a93 6abd d84f 623b 0384 2c3e 3874 0c3c
000001d0: 5888 1e3d a11d 3f3e 1b56 0abe ee04 88bd
000001e0: 7caa 12be d4ca 0bbe 7245 d13a fc18 553e
000001f0: d47b 3c3c e32b 81bd 76b7 363c b955 f8bd
00000200: c6fb 4dbe c585 a8bd 2222 2cbd a4c5 cabd
00000210: fd04 4fbc a753 e03d e108 a13c ca06 59bd
00000220: 9b4c 91bd bd5d 8f3d 331d d73b ed39 783d
00000230: 2a93 15bd 30e9 8e3c c80e 8b3d 0eca adbd
00000240: bcf1 ccbd a088 e73c a8be 8e3c e71c 9d3c
00000250: b3d7 1dbd 583f 473d ccc0 2e3d 809b 0cbe
00000260: 8aaf 1fbd b3eb b63d 9584 123e 832b a33c
00000270: 4c6b a33d 7841 85bd 6987 9ebd bc91 63bd
00000280: 48fe 9839 d192 7cbe 14f8 c4bd 41f1 a33d
00000290: 00e7 f1bd cd88 d3bd 8741 2a3d ceca 3f3d
000002a0: 6303 11bc ffae 053d 77f6 213c 41e3 bbbb
000002b0: 9a54 b33d 8857 f63d 64e5 57bd c559 2bbe
000002c0: 09d7 0ebd 0415 e93d 32f1 fbbd 8b2d 95bd
000002d0: eed6 fc3c 4e5a 9d3c e6ae 933d 102f 1c3e
000002e0: 9c83 66bd f95e 0f3e d105 943d 5d66 63bd
000002f0: 6ead f93d cd42 8abc 899a 283d 483d 3d3d
00000300: 8c43 633b f508 253d c909 eb3c 7112 fe3c
00000310: 1442 513e 456b 1cbd 244d 193e 62e6 0fbd
00000320: b817 0d3e 2189 813d b168 0cbd b146 8eb8
00000330: a554 94bd c8de 743d 7da6 063e f435 743e
00000340: 8a48 753d 1c83 3f3d 4219 ccbc 8fc5 58bd
00000350: 3d2e 2e3d 82f7 60bd c847 d8bd 8f33 88bd
00000360: 6db3 57bd 8637 acbc 3587 243d 7fb1 4a3d
00000370: bc64 80bd f4b5 763d 609d 513e eca4 b5bd
00000380: 79ac 15bb 9a1f 65bc bb67 01be 781d c9bd
00000390: 162c 673e c5dc b73d 4565 203d 4340 ab3c
000003a0: 869c 903d 463e c7bb f772 b1bd 9925 51be
000003b0: 6dc9 273d 0ff4 cebb 8ed1 b3bc 3741 06be
000003c0: 3d58 673d e59e 483d cba3 dc3c be51 c83d
000003d0: ceca 10bd 88dc 72bd 8cf6 14be d33f 9e3d
000003e0: e979 5fbd 98ac cd3d 1097 c43d 11ba af3c
000003f0: 8871 1c3d 4683 b53d 5bac 08bc d19a 09bc

network_body._body_endoder.seq_layers.2.bias f4 [256]
-0.012137325 0.025599869 0.0052740537 -0.024462253 -0.0020649405 -0.022348076 -0.02293763 -0.0009679318
-0.03414359 -0.028089361 -0.010429507 0.032700874 0.03767712 -0.0010809307 -0.011009379 -0.020326996
0.045820277 0.010215518 -0.015470257 -0.023200901 -0.0064333174 0.002321757 0.03849735 0.0066249524
0.028100194 0.010936533 -0.04267477 -0.01628891 0.03779453 -0.021557739 0.047523916 0.010380987
-0.013667319 -0.019044878 -0.011459318 0.0041070115 -0.027804596 -0.00031052943 -0.020230073 0.0012363938
0.0059435046 0.021267734 -7.51506e-05 -0.013725825 -0.0032189004 0.010319732 0.030703627 0.024099652
0.0127609875 0.01744152 0.03453628 -0.045650274 0.0072248117 -0.008236311 -0.03149074 -0.008251307
-0.019240791 -0.037799362 -0.023482917 -0.013710988 -0.007935601 -0.013172231 0.013168224 0.00497408
-0.044347636 -0.009460999 0.018274693 -0.01836403 -0.001490443 0.0133414995 -0.0073272837 -0.053490214
0.040064517 -0.0051548607 7.742821e-05 0.0055870605 0.023803407 0.043723628 0.052035995 -0.011272348
-0.055056687 0.005726071 -0.028071662 -0.02319407 -0.0057449327 0.021975527 0.0040165074 0.0034285616
0.026508281 -0.03232643 0.02796765 -0.046505194 -0.062246427 -0.010653972 -0.026128212 -0.0298327
0.012435958 -0.015131816 -0.0034317514 0.003216984 -0.012769801 0.086361825 0.0011475905 -0.028349716
-0.052708805 0.021097144 0.038344078 -0.017151536 0.0040911613 0.006095634 0.04934983 0.007036284
-0.029092258 0.008762879 0.026597166 0.0017257533 0.010679707 -0.002020767 0.028725734 0.0139659345
-0.0036845068 0.0043106186 0.017794603 -0.04151771 0.0007423369 0.007339633 -0.0015535498 -0.046690024
-0.0344893 0.035421308 0.012020755 0.010247405 0.042681783 0.003966479 -0.0016347042 0.01747106
-0.024008919 0.0322328 -0.027942257 -0.017119396 0.04601005 0.03944765 -0.022988126 -0.04028934
-0.0054806164 -0.011770772 0.02038549 -0.00028794052 0.03949578 0.002898966 -0.007273447 0.04429065
0.0032962502 0.014601387 -0.034209047 0.04517969 0.007203553 0.022948332 0.019377137 -0.019840632
-0.012817619 -0.0098232925 0.0111336615 -0.0073476713 0.032560445 -0.0030329782 0.004873047 0.024341693
0.010323911 -0.04297745 -0.002044492 -0.04006725 0.008703774 -0.018205393 0.03500275 0.043227293
-0.0037200071 0.011626502 0.038855776 -0.011569311 0.033640336 0.018590238 0.0064639086 -0.02538255
0.04714008 -0.014316466 0.00023484707 -0.017662795 0.040061824 -0.0062234374 -0.0064023645 -0.014098713
-0.0291055 0.010667008 0.021474835 -0.015997376 -0.017132003 0.0020844762 -0.028685506 -0.043906726
0.007088099 -0.033792157 0.033235133 0.027067311 0.03180952 -0.024374656 0.014601257 0.03601429
-0.0010854846 -0.0070303814 -0.06078077 -0.046979357 -0.023830984 0.002036279 -0.0013914856 -0.009591689
-0.0028213775 -0.019884007 0.004557182 0.022646295 0.008199738 -0.011981787 0.016017852 -0.026756423
-0.00894782 -0.005956876 -0.03946782 0.013113414 0.0011288512 -0.032678667 0.0028963157 0.017963013
0.0032177905 0.012978519 0.017746309 0.0103389425 -0.011369004 -0.019163394 0.0177923 0.011399782
0.005343826 -0.019365404 0.0035997403 -0.035623558 -0.005263312 -0.021837307 0.0048655164 -0.028977873
-0.02408345 -0.042721022 -0.047655914 0.027647411 -0.009492031 0.018061751 0.020535883 0.019590413
00000000: a1db 46bc d1b6 d13c f8d1 ac3b 1065 c8bc
00000010: f453 07bb 5013 b7bc b2e7 bbbc cebc 7dba
00000020: 26da 0bbd a91b e6bc 86e0 2abc 5af1 053d
00000030: 5353 1a3d 04ae 8dba af60 34bc cd84 a6bc
00000040: 0bae 3b3d fd5e 273c f676 7dbc d10f bebc
00000050: 94ce d2bb 9e28 183b 66af 1d3d 2116 d93b
00000060: 6132 e63c 252f 333c bdcb 2ebd 5270 85bc
00000070: 70ce 1a3d db99 b0bc 70a8 423d 0415 2a3c
00000080: e4ec 5fbc 0104 9cbc ddbf 3bbc 1c94 863b
00000090: 77c6 e3bc 8ece a2b9 8ab9 a5bc 7e0e a23a
000000a0: bbc1 c23b ac39 ae3c 2c9a 9db8 48e2 60bc
000000b0: 30f4 52bb 1814 293c 2c86 fb3c a26c c53c
000000c0: 7613 513c 85e1 8e3c ea75 0d3d c8fb 3abd
000000d0: 1dbe ec3b 98f1 06bc 6ffc 00bd 7d30 07bc
000000e0: dd9e 9dbc 81d3 1abd 3f5f c0bc 0da4 60bc
000000f0: 5304 02bc 57d0 57bc 89bf 573c 9bfd a23b
00000100: dea5 35bd 4e02 1bbc cfb4 953c 2a70 96bc
00000110: f85a c3ba 4e96 5a3c b619 f0bb 8e18 5bbd
00000120: b11a 243d 1bea a8bb f460 a238 a913 b73b
00000130: 5dff c23c 8c17 333d b223 553d a8af 38bc
00000140: 1f83 61bd c4a1 bb3b 8bf6 e5bc 7e01 bebc
00000150: fd3f bcbb 0506 b43c e89c 833b b8b1 603b
00000160: e527 d93c b868 04bd 6a1c e53c 3b7c 3ebd
00000170: 1cf6 7ebd ff8d 2ebc d50a d6bc b563 f4bc
00000180: 30c0 4b3c 70eb 77bc 3ce7 60bb 09d4 523b
00000190: 6d38 51bc 78de b03d bf6a 963a aa3d e8bc
000001a0: 30e5 57bd ebd3 ac3c ae0e 1d3d 6181 8cbc
000001b0: 260f 863b e2bd c73b 0c23 4a3d a190 e63b
000001c0: e352 eebc 2e92 0f3c 4de2 d93c ac32 e23a
000001d0: f0f9 2e3c d86e 04bb 3b52 eb3c 60d1 643c
000001e0: c477 71bb 1740 8d3b fdc5 913c 790e 2abd
000001f0: 6399 423a 4e81 f03b 7ba0 cbba 0a3e 3fbd
00000200: a744 0dbd ef15 113d b3f2 443c bbe4 273c
00000210: 18d3 2e3d 3df9 813b 9243 d6ba 781f 8f3c
00000220: 5aae c4bc 8a06 043d 29e7 e4bc fa3d 8cbc
00000230: 0975 3c3d dc93 213d 9851 bcbc 6f06 25bd
00000240: be96 b3bb 32da 40bc 79ff a63c b9f6 96b9
00000250: 54c6 213d 94fc 3d3b 1856 eebb 1d6a 353d
00000260: e705 583b a83a 6f3c c91e 0cbd 570e 393d
00000270: c80b ec3b 24fe bb3c cdbc 9e3c d288 a2bc
00000280: fe00 52bc e0f1 20bc f669 363c bcc4 f0bb
00000290: 1a5e 053d eec4 46bb 15ae 9f3b 3b68 c73c
000002a0: 9f25 293c 1f09 30bd e2fc 05bb 8f1d 24bd
000002b0: 469a 0e3c 7a23 95bc 0b5f 0f3d 1a0f 313d
000002c0: 5dcb 73bb 157d 3e3c 3c27 1f3d 358d 3dbc
000002d0: 73ca 093d 8e4a 983c 32cf d33b 11ef cfbc
000002e0: f515 413d 9c8f 6abc 4841 7639 91b1 90bc
000002f0: de17 243d faed cbbb edca d1bb 4afe 66bc
00000300: a86e eebc adc4 2e3c feeb af3c ee0c 83bc
00000310: 6a58 8cbc b59b 083b defd eabc 8ad7 33bd
00000320: 4943 e83b a569 0abd 9021 083d 44bc dd3c
00000330: b34a 023d 5cad c7bc 1c3a 6f3c b883 133d
00000340: d246 8eba 1d5f e6bb 42f5 78bd 6d6d 40bd
00000350: 3239 c3bc 1873 053b 8262 b6ba 7626 1dbc
00000360: dce6 38bb c9e3 a2bc 6a54 953b b984 b93c
00000370: 3258 063c 424f 44bc df37 833c 4930 dbbc
00000380: e199 12bc e631 c3bb 02a9 21bd a5d9 563c
00000390: f6f5 933a 11da 05bd 1dd0 3d3b 2b27 933c
000003a0: 91e1 523b dba3 543c b560 913c ab64 293c
000003b0: 0f45 3abc 8dfc 9cbc 28c1 913c 27c6 3a3c
000003c0: 431b af3b 32a4 9ebc 9fe9 6b3b 02ea 11bd
000003d0: dc77 acbb 27e4 b2bc e96e 9f3b 0163 edbc
000003e0: a84a c5bc 3dfc 2ebd d932 43bd d37c e23c
000003f0: 7784 1bbc 3df6 933c de3a a83c 137c a03c

network_body._body_endoder.seq_layers.4.weight f4 [256, 256]
-0.055030573 0.12523593 0.06799984 0.12807295 -0.1995945 0.005536473 0.08949811 -0.025134517
0.11972532 0.035644036 -0.25555527 0.13637333 -0.06423411 -0.022345388 -0.030801112 -0.048959747
0.0459794 0.034149323 -0.1556149 -0.023829056 -0.05301682 -0.03956944 0.03161014 -0.031109363
0.16868311 -0.14269373 0.14551017 -0.010263489 0.038340975 0.032641184 -0.02568832 0.083241075
-0.11279711 0.037004728 -0.01046298 -0.16861753 0.12946466 0.05162664 -0.00038933975 -0.035855148
-0.05529639 -0.046385877 0.049360424 0.043396614 0.031644233 0.09889069 -0.097380936 -0.06771626
-0.043289755 0.020451605 0.036042575 0.14237869 0.111962736 0.035098966 -0.017622204 0.08170463
0.047106262 0.09174206 -0.14525363 0.057884235 -0.03433021 0.055553865 -0.10406587 0.08142764
-0.08902803 0.034190983 0.06921225 -0.17526013 -0.021353163 -0.15313011 0.027738418 -0.101584025
-0.07165151 0.0014018374 -0.07684555 0.017601736 -0.07430349 0.01940164 -0.044546854 0.068952
-0.017216599 -0.057221178 0.008486184 0.030227106 -0.14123465 0.10328669 0.011844691 0.051953647
-0.030901466 0.024593767 -0.0030230372 0.073082715 -0.0869065 -0.13596739 0.11052135 0.0047802036
-0.037988044 -0.0141594 -0.14153795 0.05047915 0.0016706632 0.04383216 -0.042780254 0.04769736
0.01393178 -0.091076136 -0.16812201 -0.10834127 0.0038808866 0.07247702 -0.036383092 -0.025150541
0.021319296 0.008465225 -0.071656406 0.017450124 -0.044134274 -0.007439438 -0.13985388 -0.19647259
-0.005725059 0.047942087 0.19545275 -0.05799978 0.14797746 -0.022349266 -0.04207028 -0.058774546
0.0065142163 0.006845808 -0.036212005 0.24703942 -0.010618616 0.01082711 -0.044246618 -0.04619093
-0.089435376 -0.053544175 0.045060035 0.17710823 -0.09600193 -0.11335802 0.14483634 0.06481167
0.08255369 0.006362572 0.101999946 -0.089438796 -0.15557529 -0.044475008 0.08026528 -0.17011991
-0.012086985 -0.17800069 0.022045976 -0.051259562 -0.20038974 0.08405923 0.024421668 0.16590928
0.20474593 -0.07750932 -0.25622445 0.12948793 -0.16570091 0.093259916 -0.08945164 0.018306337
-0.012222817 0.13129424 -0.15748805 -0.25850454 -0.04776538 -0.00849237 -0.16840328 -0.07372149
-0.050739046 0.0020886224 0.0023624073 0.12726626 -0.0416929 -0.11729613 0.010129256 -0.0067692096
0.062334064 -0.03022415 -0.18501817 -0.021427663 0.10313014 0.1059411 0.029358895 0.007388546
0.046250887 0.2057322 -0.037938252 0.108823374 -0.0161703 0.01137936 0.0026444725 0.014332819
0.16032998 -0.036498267 -0.24939783 0.053087484 -0.09208746 -0.08340719 0.14443462 -0.13039349
-0.12769541 0.044273347 0.121835954 -0.018538056 0.08160832 0.041922383 -0.06097566 0.02490518
0.109977104 0.013933066 0.098540105 0.066254415 -0.06411112 0.06433845 -0.046810634 -0.1741988
-0.11142004 -0.08463338 0.11784297 0.11513146 -0.05145795 -0.19029336 -0.030549504 0.17085987
0.07302064 -0.0973016 0.021050587 -0.23832712 0.034652214 0.15323837 0.17990145 0.0040571885
0.049030393 -0.13360278 -0.17527707 0.052533753 -0.03118496 -0.09907993 0.050815843 -0.056803208
0.105891384 -0.10965673 -0.17069897 0.079415694 -0.12527499 -0.03442513 -0.046202186 0.11494329
00000000: bd67 61bd d93d 003e 8043 8b3d 8e25 033e
00000010: 8062 4cbe 4d6b b53b c94a b73d e7e6 cdbc
00000020: 8c32 f53d 7bff 113d 24d8 82be 73a5 0b3e
00000030: 2c8d 83bd ad0d b7bc 9d52 fcbc 048a 48bd
00000040: e554 3c3d 29e0 0b3d 8359 1fbe 2735 c3bc
00000050: 2a28 59bd 9113 22bd a279 013d 10d9 febc
00000060: 44bb 2c3e 4e1e 12be 9e00 153e 3128 28bc
00000070: 6d0b 1d3d c3b2 053d 5070 d2bc 4c7a aa3d
00000080: 2c02 e7bd 4592 173d eb6c 2bbc 13aa 2cbe
00000090: 6292 043e 7576 533d 4c20 ccb9 d9dc 12bd
000000a0: 787e 62bd 1eff 3dbd 282e 4a3d a6c0 313d
000000b0: 629d 013d 3487 ca3d a86f c7bd d3ae 8abd
000000c0: 9950 31bd 208a a73c 61a1 133d b8cb 113e
000000d0: b84c e53d efc3 0f3d 715c 90bc c254 a73d
000000e0: 7ff2 403d 43e3 bb3d 5ebd 14be 0518 6d3d
000000f0: d69d 0cbd 738c 633d 7d20 d5bd 89c3 a63d
00000100: 5454 b6bd d80b 0c3d 27bf 8d3d 6477 33be
00000110: d4ec aebc 24ce 1cbe ae3b e33c 490b d0bd
00000120: 07be 92bd dcbd b73a 3361 9dbd 8431 903c
00000130: 6e2c 98bd 30f0 9e3c c376 36bd b536 8d3d
00000140: d309 8dbc c160 6abd a309 0b3c d69e f73c
00000150: d19f 10be f987 d33d 3c10 423c 59cd 543d
00000160: 1225 fdbc de78 c93c 261e 46bb 64ac 953d
00000170: 09fc b1bd 093b 0bbe 0459 e23d 41a3 9c3b
00000180: 5a99 1bbd d4fc 67bc 53ef 10be 3ac3 4e3d
00000190: 28fa da3a 5a89 333d 593a 2fbd 4f5e 433d
000001a0: 1f42 643c 2086 babd 2d28 2cbe 07e2 ddbd
000001b0: 7956 7e3b d56e 943d 7006 15bd 8208 cebc
000001c0: cea5 ae3c bab1 0a3c 98c0 92bd 90f3 8e3c
000001d0: 24c6 34bd 87c6 f3bb db35 0fbe 1c30 49be
000001e0: 4799 bbbb ec5e 443d c424 483e 2d91 6dbd
000001f0: 6787 173e cf15 b7bc e351 2cbd 94bd 70bd
00000200: 3575 d53b cd52 e03b 0a53 14bd e7f7 7c3e
00000210: b4f9 2dbc 3164 313c f13b 35bd b332 3dbd
00000220: e529 b7bd 2351 5bbd df90 383d dc5b 353e
00000230: a99c c4bd 4028 e8bd fa4f 143e fbbb 843d
00000240: e911 a93d 1f7d d03b 59e5 d03d b02b b7bd
00000250: 214f 1fbe 6d2b 36bd 2062 a43d ea33 2ebe
00000260: 7d08 46bc d045 36be c399 b43c 8cf5 51bd
00000270: f832 4dbe 3f27 ac3d f30f c83c 1fe4 293e
00000280: eba8 513e 35bd 9ebd da2f 83be 7c98 043e
00000290: 80ad 29be 0eff be3d 6c32 b7bd 2cf7 953c
000002a0: 3642 48bc ff71 063e 8c44 21be b55a 84be
000002b0: a2a5 43bd 9523 0bbc e971 2cbe 4bfb 96bd
000002c0: bfd3 4fbd 45e1 083b 9ed2 1a3b 1652 023e
000002d0: 2dc6 2abd f438 f0bd 2ef5 253c 3fd0 ddbb
000002e0: 0152 7f3d a398 f7bc 6775 3dbe 1189 afbc
000002f0: e535 d33d a6f7 d83d 1182 f03c 9e1b f23b
00000300: 9271 3d3d 76ab 523e 2465 1bbd cade de3d
00000310: 9477 84bc 7f70 3a3c e34e 2d3b 33d4 6a3c
00000320: 8b2d 243e 357f 15bd 2562 7fbe 4372 593d
00000330: 5a98 bcbd 64d1 aabd abe6 133e df85 05be
00000340: 96c2 02be f857 353d 2185 f93d 1fdd 97bc
00000350: 4322 a73d ceb6 2b3d 9dc1 79bd f305 cc3c
00000360: ad3b e13d 8447 643c 65cf c93d 65b0 873d
00000370: b14c 83bd e1c3 833d 82bc 3fbd 2c61 32be
00000380: 3130 e4bd 4454 adbd a857 f13d 0bca eb3d
00000390: 92c5 52bd 43dc 42be f442 fabc e4f5 2e3e
000003a0: d88b 953d 1046 c7bd 4872 ac3c 060c 74be
000003b0: 7bef 0d3d 85ea 1c3e 1638 383e 2af2 843b
000003c0: 18d4 483d 2bcf 08be d57b 33be a22d 573d
000003d0: 9a77 ffbc 6bea cabd 4624 503d 7baa 68bd
000003e0: 95dd d83d b593 e0bd b6cb 2ebe b2a4 a23d
000003f0: 1648 00be 5d01 0dbd 813e 3dbd 6367 eb3d

network_body._body_endoder.seq_layers.4.bias f4 [256]
-0.0047325306 0.013031921 -0.044496253 0.025991846 0.027060144 0.0008274097 -0.0049499376 0.012935517
-0.014554061 -0.003187384 -0.012561728 -0.00058763317 0.010270879 0.011375065 -0.0354922 0.02673762
0.050185986 0.024703637 -0.003142965 0.034495384 0.026605627 0.008945867 -0.03197336 0.03777063
0.011110351 0.011937837 -0.012606259 0.0014074534 -0.0027774475 0.023729531 0.010545411 -0.013026421
0.008344524 0.005571038 0.012864589 -0.021545496 -0.026209591 0.04954455 -0.026459096 0.015942419
0.014863223 0.024924334 0.018807538 -0.032726094 0.025457414 -0.0022913662 0.054825496 0.034667484
0.007918873 0.014800687 0.02282619 0.006908513 -0.0035925994 -0.020516345 -0.005930136 0.00035819426
-0.023365073 0.0045987545 0.003916958 0.0038989598 -0.00043953155 0.006351793 0.019912347 -9.886015e-05
-0.008615846 0.010772942 -0.0092955725 0.011012401 -0.01584951 0.015596131 -0.007620273 0.05608397
0.033356525 0.011687703 0.04664497 0.0062041185 0.04970836 -0.03740695 0.020615166 0.008406908
0.024644613 -0.007310305 0.01373202 0.009584198 -0.04937548 0.044993762 -0.00042574486 0.03870681
0.004255762 0.05902011 -0.09417978 0.0033764294 0.058864206 -0.008854408 0.021541607 -0.03755115
0.033661097 0.013507973 0.019058239 -0.033010002 0.012919456 0.0071852114 0.030594403 -0.022511657
0.021001555 -0.03352317 -0.021464748 0.004781913 0.029623855 -0.00082900666 0.023255307 0.016513612
0.008735534 0.017030854 0.017158838 -0.017572476 0.035280194 0.015639428 0.011112515 -0.025173737
0.013652659 -0.032452933 -0.020503715 0.06448176 -0.014440313 -0.008057452 -0.006273061 -0.02424564
0.0050916807 0.03115453 0.014836674 0.015553315 0.046872135 0.0019082248 0.03868738 0.06414976
0.042078514 0.020456146 0.030020846 0.043084428 0.027202811 -0.016388653 0.028304381 -0.03465259
-0.023939613 0.014635171 0.006166317 0.02813297 -0.038543142 0.030198114 0.0060855886 0.030408537
0.02623007 -0.0019447126 -0.020245407 -0.047421418 0.017730046 0.007897571 0.012229356 -0.026681852
-0.0038770214 -0.03924641 0.08318522 0.0014765711 -0.0016003149 0.023848314 -0.029498026 0.009436375
-0.012827468 -0.0286171 0.0018230074 0.027674258 -0.01382969 0.0034635402 0.020073432 0.015169493
0.01380417 0.06998288 -0.0018688419 -0.01940747 0.043721035 -0.024314767 0.012787567 0.020172454
0.031431377 -0.031088164 0.018469725 -0.018923385 -0.005429954 0.008242235 -0.028946498 -0.013961315
0.006786413 -0.0044686543 -0.019080637 0.030457545 0.03867144 0.008894229 -0.0048907534 -0.019497158
-0.008851968 -0.0049277623 0.015870523 0.010325714 0.032150455 0.013341542 -0.0012345386 0.046153937
0.041839745 -0.00856293 0.013029737 -0.0029968186 -0.013270628 0.03281224 0.015557213 -0.093059026
0.017567927 -0.024504052 0.011118878 0.012725686 0.021972615 0.0039051918 0.0216376 0.008999449
-0.04384479 0.0076086083 0.05620651 -0.013640846 -0.014593098 0.009451533 0.021409607 0.0024316146
-0.017184682 0.022073178 -0.03129108 -0.03217168 0.045780547 -0.0040005324 -0.02976337 0.046380542
0.019366294 -0.011951515 0.024682062 0.0285148 -0.0026314277 0.03401993 -0.029482907 0.010258693
-0.027476618 0.030868461 0.006880053 0.013078786 0.021856759 -0.003946009 0.027138133 0.00091428944
00000000: 5813 9bbb d783 553c b441 36bd daec d43c
00000010: 3cad dd3c 86e6 583a 1633 a2bb 7eef 533c
00000020: 2874 6ebc 6ee3 50bb b5cf 4dbc 650b 1aba
00000030: 3047 283c 7b5e 3a3c 4560 11bd da08 db3c
00000040: d28f 4d3d 485f ca3c 34fa 4dbb 084b 0d3d
00000050: 0bf4 d93c b091 123c 7ff6 02bd 60b5 1a3d
00000060: 3108 363c eb96 433c 7c8a 4ebc 4d7a b83a
00000070: d605 36bb 6f64 c23c a9c6 2c3c c56c 55bc
00000080: 78b7 083c 418d b63b ffc5 523c 2e80 b0bc
00000090: 7fb5 d6bc 3aef 4a3d bfc0 d8bc ad99 823c
000000a0: e084 733c 1e2e cc3c 4412 9a3c cc0b 06bd
000000b0: 118c d03c bf2a 16bb b390 603d 7eff 0d3d
000000c0: 29be 013c 957e 723c fdfd ba3c cf60 e23b
000000d0: d171 6bbb e511 a8bc 9651 c2bb 05cc bb39
000000e0: 1c68 bfbc 26b1 963b d359 803b b185 7f3b
000000f0: ed70 e6b9 b422 d03b 381f a33c 2453 cfb8
00000100: 7a29 0dbc fe80 303c 754c 18bc 5c6d 343c
00000110: d5d6 81bc ea86 7f3c 7cb3 f9bb 4eb8 653d
00000120: daa0 083d c87d 3f3c cc0e 3f3d eb4b cb3b
00000130: fe9a 4b3d 0838 19bd 23e1 a83c 21bd 093c
00000140: 80e3 c93c 488b efbb 44fc 603c 0a07 1d3c
00000150: f13d 4abd 614b 383d 8236 dfb9 088b 1e3d
00000160: eb73 8b3b 12bf 713d 54e1 c0bd 1647 5d3b
00000170: 981b 713d 1412 11bc 0678 b03c 3ccf 19bd
00000180: 38e0 093d 8c50 5d3c 0620 9c3c 7f35 07bd
00000190: 20ac 533c ec71 eb3b 1da1 fa3c 5e6a b8bc
000001a0: 740b ac3c 974f 09bd d7d6 afbc 98b1 9c3b
000001b0: baad f23c b251 59ba ea81 be3c 8e47 873c
000001c0: 7c1f 0f3c 4a84 8b3c b190 8c3c 27f4 8fbc
000001d0: f781 103d 421e 803c 4411 363c 2739 cebc
000001e0: 67af 5f3c 5eed 04bd 68f7 a7bc 030f 843d
000001f0: 1097 6cbc 6703 04bc 408e cdbb cb9e c6bc
00000200: 1dd8 a63b c937 ff3c 8515 733c 55d3 7e3c
00000210: fffc 3f3d 661d fa3a a876 1e3d f360 833d
00000220: 855a 2c3d a693 a73c 47ee f53c 4c79 303d
00000230: 6ed8 de3c 7f41 86bc 97de e73c e0ef 0dbd
00000240: 021d c4bc 5bc8 6f3c d10e ca3b 1d77 e63c
00000250: 6adf 1dbd 0962 f73c 9e69 c73b 531b f93c
00000260: 72e0 d63c bae5 feba b2d9 a5bc f63c 42bd
00000270: 9a3e 913c d064 013c a35d 483c e693 dabc
00000280: a015 7ebb d8c0 20bd 035d aa3d 8189 c13a
00000290: a8c1 d1ba 8a5d c33c d8a5 f1bc 079b 1a3c
000002a0: 4d2a 52bc 696e eabc faf1 ee3a 20b5 e23c
000002b0: ed95 62bc 90fc 623b 0a71 a43c 7789 783c
000002c0: e32a 623c 2f53 8f3d eef3 f4ba 6afc 9ebc
000002d0: d414 333d c32f c7bc f282 513c b440 a53c
000002e0: 30be 003d 9bac febc d24d 973c 3705 9bbc
000002f0: c1ed b1bb 700a 073c 3521 edbc 00be 64bc
00000300: 8f60 de3b ca6d 92bb ff4e 9cbc 1a82 f93c
00000310: f265 1e3d 1ab9 113c 9d42 a0bb 81b8 9fbc
00000320: d807 11bc 1179 a1bb e602 823c 2f2d 293c
00000330: 32b0 033d 7c96 5a3c 3ed0 a1ba e90b 3d3d
00000340: 2760 2b3d 884b 0cbc ae7a 553c 4666 44bb
00000350: 0c6d 59bc 2166 063d aee3 7e3c bb95 bebd
00000360: 9dea 8f3c b9bc c8bc f42b 363c 657f 503c
00000370: eaff b33c 3fee 7f3b 5641 b13c 6d72 133c
00000380: 9896 33bd a251 f93b cc38 663d db7d 5fbc
00000390: e417 6fbc 9ada 1a3c 3363 af3c b95b 1f3b
000003a0: e4c6 8cbc cfd2 b43c 132b 00bd 74c6 03bd
000003b0: 6284 3b3d e616 83bb 50d2 f3bc 86f9 3d3d
000003c0: 10a6 9e3c 4ad0 43bc 0932 ca3c df97 e93c
000003d0: 0874 2cbb 7b58 0b3d 2386 f1bc 1414 283c
000003e0: a516 e1bc dbdf fc3c 1172 e13b 6848 563c
000003f0: f20c b33c 864d 81bb ca50 de3c edac 6f3a

action_model._continuous_distribution.log_sigma f4 [1, 39]
-0.0086820815 1.2141926 1.1501256 0.26153052 0.30670485 0.9765015 -0.7626747 1.2156303
1.1649253 -0.14698973 1.028477 0.8492465 -0.33799055 0.74934584 -1.2960033 -0.18851152
0.8036479 -0.9917749 0.18940754 1.1219808 -0.44725326 -0.38544926 0.9624424 -0.23387532
-0.40024337 0.9096286 -0.80989397 -0.77001256 0.41750813 -1.18176 -0.2745954 0.9663439
1.16959 0.16242942 0.45731172 0.36142716 -0.2538758 0.9140592 0.3394469
00000000: 4a3f 0ebc aa6a 9b3f 5137 933f 54e7 853e
00000010: 6b08 9d3e 01fc 793f a63e 43bf c699 9b3f
00000020: 461c 953f 7a84 16be 22a5 833f 3868 593f
00000030: 190d adbe 21d5 3f3f 70e3 a5bf 2a09 41be
00000040: debb 4d3f f6e4 7dbf 0df4 413e 119d 8f3f
00000050: 61fe e4be 9b59 c5be a062 763f 037d 6fbe
00000060: b3ec ccbe 6cdd 683f 3655 4fbf 8b1f 45bf
00000070: a0c3 d53e e943 97bf c597 8cbe 5062 773f
00000080: 20b5 953f e653 263e c324 ea3e fb0c b93e
00000090: 02fc 81be c9ff 693f fccb ad3e

action_model._continuous_distribution.mu.weight f4 [39, 64]
0.17011994 -0.009134534 -0.10327647 -0.19317117 0.1407043 0.09516948 -0.1280351 0.15044676
-0.102123044 0.2921069 -0.03348691 0.14248553 0.12032555 -0.24466473 -0.07928837 0.038864616
-0.14330076 -0.27975518 0.042870052 0.14673367 0.17029224 0.27179143 0.0287527 0.14059806
0.05890318 0.11369567 -0.27424365 0.1451446 0.20063154 -0.09728556 -0.36632946 -0.1754518
0.19283625 0.121151246 -0.03636045 0.1767368 0.114242174 -0.024166144 0.055929124 -0.074931666
-0.1329674 0.09900343 -0.007056186 -0.20915474 -0.20301455 0.036334656 0.045342695 -0.014835011
-0.09727911 0.16779217 0.0581509 0.2284644 -0.29392612 0.15967788 -0.08521127 0.06549952
-0.027364023 -1.1899025e-05 0.22529858 -0.15334363 -0.19897906 0.20001948 -0.1996577 0.13904604
-0.0023681629 0.011907525 -0.032593235 0.1958924 -0.027478596 -0.1653882 0.0401263 0.058708053
0.29794493 -0.1819006 0.14647171 -0.024766147 -0.01345372 0.0058257123 0.04042893 0.16632539
0.11851853 -0.09111826 -0.026112126 0.21207625 0.08634958 0.060584474 -0.32252547 0.10448256
-0.062146936 0.0013733337 -0.031135604 -0.15530363 -0.11021966 0.010112994 -0.07056773 -0.13108283
-0.17112173 0.18614942 -0.096840754 0.20243827 0.19874625 -0.0039452524 0.03435092 -0.0012509193
-0.018205851 0.20041098 0.056045596 0.012436198 -0.086305454 -0.05955977 -0.19762954 -0.07297026
-0.24070625 -0.0018036169 -0.059237592 0.15878114 -0.12437542 0.02224338 0.053987186 -0.086938694
-0.09140757 -0.18124229 0.007904957 -0.1420649 0.023196712 -0.090970874 -0.06713187 -0.02471116
-0.026436877 0.054483134 0.03481355 -0.12924242 -0.06969601 0.043722417 0.06787779 -0.10872871
0.22368342 0.08726547 -0.046221465 0.086529054 -0.13896088 0.2597537 0.09235882 -0.15858012
0.23989838 0.021124378 -0.10617961 -0.20714572 0.036897663 -0.016531033 -0.15521443 -0.2051357
-0.11498696 -0.099242 -0.014663186 -0.029834513 0.08179028 0.17281677 0.096624695 -0.07811168
-0.09424615 -0.022533389 0.07104683 -0.0024759714 0.07244217 -0.019061605 -0.15240021 -0.04936438
-0.016258402 -0.031372182 -0.1770552 0.01624121 0.08263688 0.28680903 -0.06835471 0.01815552
0.0818167 -0.0497416 0.13927586 -0.072979465 -0.005745016 0.03128834 -0.15471438 -0.15330347
0.1791976 0.08495014 -0.1736786 -0.107991256 -0.041309282 -0.06408146 0.042013634 0.07820913
0.07294861 0.15695114 -0.21831982 -0.13425937 0.27836084 0.1700629 -0.06493877 0.025907794
-0.08831742 0.22700171 0.10649126 0.09929321 0.09592208 -0.31546488 -0.28328258 0.26472
-0.19122714 -0.23145542 -0.011825896 0.16891535 0.09662404 0.18817174 0.18965942 0.13881749
-0.06369026 0.15571211 -0.16952403 -0.20535363 0.03506693 -0.022804137 -0.22013521 -0.023029897
0.048504416 0.0067313137 0.037694562 0.16535236 0.11289866 0.11812727 0.18569455 0.11849821
-0.14395985 0.12215285 -0.031688042 -0.09749793 -0.2030145 -0.15747543 0.09911329 -0.08592302
-0.07095497 0.14820783 0.058141872 0.13652362 0.026339266 0.10260293 -0.07165304 -0.0935197
-0.2048035 0.09126787 0.07015316 -0.15378428 -0.25285503 0.17796454 -0.105858386 0.23242892
00000000: ec33 2e3e 03a9 15bc 9d82 d3bd aace 45be
00000010: ca14 103e 37e8 c23d a21b 03be b70e 1a3e
00000020: e325 d1bd 098f 953e 9229 09bd bae7 113e
00000030: 3e6d f63d 6489 7abe f161 a2bd 8130 1f3d
00000040: 6fbd 12be 123c 8fbe 8298 2f3d 5a41 163e
00000050: 1761 2e3e 3f28 8b3e c88a eb3c f0f8 0f3e
00000060: 7644 713d 47d9 e83d aa69 8cbe c9a0 143e
00000070: 5b72 4d3e a73d c7bd 898f bbbe a3a9 33be
00000080: de76 453e 251e f83d b2ee 14bd 7efa 343e
00000090: cdf7 e93d 14f8 c5bc f015 653d c675 99bd
000000a0: 9b28 08be 4fc2 ca3d 9437 e7bb a92c 56be
000000b0: 0ce3 4fbe a6d3 143d 43b9 393d 8c0e 73bc
000000c0: 453a c7bd b6d1 2b3e a32f 6e3d 92f2 693e
000000d0: 7c7d 96be 9982 233e 3f83 aebd 9d24 863d
000000e0: 842a e0bc eca1 47b7 acb4 663e 1d06 1dbe
000000f0: 2bc1 4bbe e8d1 4c3e 1173 4cbe 1662 0e3e
00000100: 2e33 1bbb c817 433c 7c80 05bd 0498 483e
00000110: cb1a e1bc 865b 29be 7a5b 243d db77 703d
00000120: 3d8c 983e 2744 3abe aefc 153e 60e2 cabc
00000130: fe6c 5cbc 9ee5 be3b ce98 253d 3451 2a3e
00000140: d8b9 f23d 369c babd 19e9 d5bc 842a 593e
00000150: 0cd8 b03d 6d27 783d 0f22 a5be f4fa d53d
00000160: c98d 7ebd 6f01 b43a 1810 ffbc ea07 1fbe
00000170: d8ba e1bd f9b0 253c d085 90bd 943a 06be
00000180: 893a 2fbe f49d 3e3e 7254 c6bd fa4b 4f3e
00000190: 2384 4b3e 2d47 81bb 8db3 0c3d e3f5 a3ba
000001a0: 7024 95bc 8938 4d3e 1190 653d 32c1 4b3c
000001b0: eac0 b0bd f2f4 73bd 665f 4abe 6f71 95bd
000001c0: b37b 76be 5767 ecba 1ea3 72bd 8697 223e
000001d0: 8ab8 febd c037 b63c ab21 5d3d ea0c b2bd
000001e0: e433 bbbd 9497 39be cb83 013c 7679 11be
000001f0: 0807 be3c f04e babd 6f7c 89bd 0f6f cabc
00000200: 2692 d8bc b529 5f3d a798 0e3d 2058 04be
00000210: c8bc 8ebd 4716 333d 8303 8b3d 28ad debd
00000220: 440d 653e 3db8 b23d b852 3dbd 2536 b13d
00000230: c34b 0ebe 70fe 843e 9f26 bd3d d462 22be
00000240: eca7 753e 080d ad3c b274 d9bd 021e 54be
00000250: 0122 173d 176c 87bc 88f0 1ebe 180f 52be
00000260: 497e ebbd 643f cbbd dc3d 70bc 8267 f4bc
00000270: aa81 a73d e1f6 303e 2be3 c53d 04f9 9fbd
00000280: 2004 c1bd f197 b8bc 0081 913d e843 22bb
00000290: 8f5c 943d 1527 9cbc cd0e 1cbe 4e32 4abd
000002a0: 5730 85bc 1e80 00bd f54d 35be 490c 853c
000002b0: 863d a93d a2d8 923e 8efd 8bbd e3ba 943c
000002c0: 848f a73d d9bd 4bbd 559e 0e3e 4276 95bd
000002d0: b040 bcbb 3428 003d 726d 1ebe 96fb 1cbe
000002e0: 937f 373e 57fa ad3d ced8 31be 852a ddbd
000002f0: ec33 29bd 243d 83bd 7d16 2c3d 1c2c a03d
00000300: 1566 953d cdb7 203e 3b8f 5fbe 4a7b 09be
00000310: 5085 8e3e f824 2e3e 9efe 84bd 953c d43c
00000320: c3df b4bd 2373 683e 1718 da3d 3d5a cb3d
00000330: cc72 c43d 9d84 a1be 6a0a 91be 6189 873e
00000340: 0cd1 43be a602 6dbe 67c1 41bc 25f8 2c3e
00000350: d3e2 c53d 18b0 403e 1436 423e 2c26 0e3e
00000360: 0a70 82bd ff72 1f3e b597 2dbe 3948 52be
00000370: 57a2 0f3d becf babc 206b 61be 32a9 bcbc
00000380: 91ac 463d 5a92 dc3b 9d65 1a3d 2152 293e
00000390: 6a37 e73d b6ec f13d b626 3e3e 31af f23d
000003a0: 366a 13be 462b fa3d 52cb 01bd ffac c7bd
000003b0: 08e3 4fbe 3d41 21be e9fb ca3d 69f8 afbd
000003c0: d750 91bd cbc3 173e 2c26 6e3d d9cc 0b3e
000003d0: 72c5 d73c 7c21 d23d d4be 92bd 4287 bfbd
000003e0: 02b8 51be a6ea ba3d 76ac 8f3d a079 1dbe
000003f0: 3776 81be 563c 363e 48cc d8bd d901 6e3e

action_model._continuous_distribution.mu.bias f4 [39]
0.09782507 0.14107624 -0.017787173 0.011229098 0.17747165 -0.033296995 -0.11364302 -0.05607226
-0.032214858 0.014721773 -0.017216934 0.04397141 -0.05776364 -0.12689708 -0.06723964 -0.006136383
-0.038868155 0.02187635 -0.12617317 -0.117644005 0.03377722 0.0336542 -0.13906835 0.025167584
0.040104266 0.10263248 0.062035993 -0.049151298 -0.083056964 -0.08533264 -0.029131541 0.028941205
0.05879811 0.096947245 0.020222157 0.057037193 -0.0626345 0.027493166 0.05324309
00000000: 8358 c83d 4a76 103e 68b6 91bc 40fa 373c
00000010: 21bb 353e 6e62 08bd acbd e8bd 07ac 65bd
00000020: baf3 03bd 9733 713c 870a 8dbc 5d1b 343d
00000030: 9199 6cbd 4ff1 01be f0b4 89bd b613 c9bb
00000040: 3734 1fbd 0836 b33c 8a33 01be 57ef f0bd
00000050: fb59 0a3d fdd8 093d ef67 0ebe 402c ce3c
00000060: 5f44 243d fa30 d23d 7419 7e3d df52 49bd
00000070: c519 aabd e1c2 aebd 45a5 eebc 1b16 ed3c
00000080: 49d6 703d 478c c63d f0a8 a53c d59f 693d
00000090: 8446 80bd 5939 e13c 6d15 5a3d

action_model._discrete_distribution.branches.0.weight f4 [1, 64]
-0.004113904 0.00071199576 -0.0051657576 0.0015973317 -0.0065309117 -0.001616102 0.011617805 -0.016663967
0.005229845 0.012121913 -0.016139751 0.015688295 -0.012818404 -0.0152499005 -7.1622155e-05 -0.0054149493
-0.0033758727 0.00178129 -0.024873162 0.001676265 0.026273174 -0.016352545 -0.0039732563 0.0033378222
0.000550392 0.0010921917 0.0035488398 -0.02398147 -0.005343237 0.0023545858 -0.0012934417 0.002343998
0.0036374338 0.0040603518 0.013676986 0.012185408 -0.024799243 -0.019117353 -0.003917329 -0.0043205237
-0.00089129567 -0.014314321 0.030757422 0.011156903 0.011079212 -0.003995079 -0.011435932 -0.00910015
-0.016477073 -0.009116074 -0.0055999435 0.0064051687 0.030806864 -0.01960803 -0.013445168 -0.008546233
-0.015625594 -0.009319595 0.00013782659 0.0063163596 -0.0032314998 0.006405165 0.0050996025 -0.028529871
00000000: eecd 86bb 3aa5 3a3a 8445 a9bb 8f5d d13a
00000010: 4201 d6bb 62d3 d3ba 9b58 3e3c df82 88bc
00000020: 1f5f ab3b fd9a 463c 8337 84bc bd84 803c
00000030: 4804 52bc b8da 79bc da33 96b8 e36f b1bb
00000040: bf3d 5dbb 2d7a e93a cdc2 cbbc 1fb6 db3a
00000050: d73a d73c c6f5 85bc 1732 82bb 5dbf 5a3b
00000060: 2f48 103a df27 8f3a a793 683b ca74 c4bc
00000070: 5216 afbb 654f 1a3b b488 a9ba c39d 193b
00000080: 0362 6e3b b30c 853b 7015 603c 4ea5 473c
00000090: c827 cbbc ff9b 9cbc f05c 80bb 2e93 8dbb
000000a0: d7a5 69ba 9d86 6abc fdf6 fb3c 71cb 363c
000000b0: 9585 353c 27e9 82bb c65d 3bbc cc18 15bc
000000c0: edfa 86bc 965b 15bc bb7f b7bb 73e2 d13b
000000d0: ad5e fc3c 05a1 a0bc 1f49 5cbc 8005 0cbc
000000e0: 3f01 80bc 37b1 18bc 8b85 1039 77f9 ce3b
000000f0: 92c7 53bb 6be2 d13b 911a a73b 7ab7 e9bc
