Assets/Ai/newAgent-final.onnx (onnx, 935464 bytes, 15 tensors)

network_body.observation_encoder.processors.0.normalizer.running_mean f4 [55]
5.18645 5.908744 1.6956639 0.0 3.795333 2.3528857 4.5492926 3.0868459
0.64833856 1.4050145 0.3573753 1.16818 4.1799054 1.2234457 4.1423054 1.6342204
0.043862037 0.0038460614 -0.0046240594 0.030585205 0.009757112 0.0029595774 -0.043147266 -0.0037088492
-0.008637919 0.028531529 -0.0035966171 0.008551671 -0.02818563 -0.0029652037 -0.020411015 0.019404527
-0.004404632 0.011484406 0.0072927116 -0.0055406233 0.0074580074 0.039313316 -0.0062880814 0.0024123674
0.014641506 0.005963282 0.0097116 -0.013921283 -0.0031826512 -0.0071761142 -0.09810954 0.0023911307
0.010766372 0.01172232 -0.0002285662 0.026802192 -0.02782801 -0.0027123017 -0.006158849
00000000: 66f7 a540 6e14 bd40 840b d93f 0000 0000
00000010: bce6 7240 ae95 1640 ce93 9140 e28e 4540
00000020: 84f9 253f 84d7 b33f e5f9 b63e ec86 953f
00000030: c9c1 8540 de99 9c3f c48d 8440 222e d13f
00000040: aea8 333d 340e 7c3b 6c85 97bb d38d fa3c
00000050: 4bdc 1f3c 78f5 413b 30bb 30bd 2a10 73bb
00000060: 0f86 0dbc f4ba e93c 39b5 6bbb 4f1c 0c3c
00000070: 8de5 e6bc dd53 42bb 0035 a7bc 3ef6 9e3c
00000080: bb54 90bb 1729 3c3c b3f7 ee3b 1e8e b5bb
00000090: 4d62 f43b 0007 213d 400c cebb cf18 1e3b
000000a0: ede2 6f3c a367 c33b 671d 1f3c 1816 64bc
000000b0: 0794 50bb 9c25 ebbb a8ed c8bd 84b4 1c3b
000000c0: 7065 303c f90e 403c 46ab 6fb9 4590 db3c
000000d0: 91f7 e3bc dfc0 31bb 2cd0 c9bb

network_body._body_endoder.seq_layers.0.weight f4 [256, 55]
-0.07625992 -0.03475071 0.18482372 0.07461412 0.038076334 -0.13093404 0.16561267 -0.17565191
-0.22250117 -0.097447634 -0.19953859 -0.025173731 -0.13445273 -0.14700975 0.16597483 -0.08837347
-0.03410321 -0.03797397 -0.10142813 -0.13968924 -0.014932403 0.24504216 0.15989912 -0.05263605
-0.37786284 0.17060074 0.18728314 0.25904843 0.0070376894 0.21767399 0.104132615 0.08980852
-0.2637378 0.0626019 0.030846607 0.05348812 -0.0632053 -0.16883193 -0.37455937 0.037275534
-0.29490104 0.108454965 0.015925137 0.06914312 0.24919303 -0.0051813405 -0.15474519 0.009461734
-0.24029762 -0.25425234 -0.040774144 -0.21131904 -0.1010727 -0.0013592183 -0.0679944 0.12223769
-0.19622543 0.022487108 -0.20772393 0.053122267 0.07632538 0.40904102 -0.21116117 0.18585202
0.05230157 -0.13009714 0.1158841 -0.14447756 0.010495867 -0.04034808 -0.116601154 0.11001188
0.053704754 -0.1033493 0.07601608 0.094525784 -0.08631528 -0.012045255 -0.30296218 -0.054029904
-0.039920967 -0.068635285 0.03684038 -0.3737563 0.17255601 -0.016128916 0.07626481 0.11527929
-0.058718737 -0.2652865 0.13232996 -0.20966874 -0.08818647 0.13137878 -0.18290937 -0.061668992
-0.032569144 -0.24888004 0.06722922 0.22455442 0.036116716 -0.021731911 0.060174964 -0.17888272
0.038233582 0.039559353 0.14899682 0.13396811 -0.022731695 0.35610968 -0.03886938 0.0012300573
0.27571422 -0.06805415 0.0709547 0.2319787 0.13421786 -0.074871905 -0.16721879 -0.13971962
0.056318972 -0.12959212 0.10310087 -0.1339518 -0.19021076 -0.121967286 -0.34111726 0.069960706
-0.020999761 -0.024272779 -0.24885195 -0.014409914 -0.17904972 -0.21793617 -0.054291125 -0.162546
0.0017567824 0.09410752 -0.22940175 -0.20260194 0.057900712 0.08961602 0.45830762 -0.0034167331
0.18634409 0.028153012 0.17112553 -0.136261 -0.05122507 0.09792341 0.31973964 0.06547878
0.21643834 -0.12742297 -0.1941283 -0.28392047 -0.106007695 -0.080918424 -0.17763127 0.050359245
-0.010097185 -0.008277444 0.11730544 -0.11402583 0.054778505 0.30477738 -0.090685844 -0.24358104
0.12211204 0.07585018 0.049894646 0.011367708 0.024341146 -0.039006773 0.020488482 0.08711005
0.19766387 0.19628237 0.219469 -0.21682155 0.0915736 0.1092528 0.1450478 0.21828733
-0.16002916 0.03975753 -0.0073074372 -0.27932274 -0.13357778 -0.22743496 0.01546361 0.13804556
-0.07746151 -0.028002 0.16084419 -0.03380991 -0.24542204 0.09146133 0.0039009482 0.07672101
-0.056099482 -0.18852052 -0.050909527 0.051562946 -0.0077857715 0.33605376 0.12587018 0.10165972
-0.024921784 -0.04405086 0.2793846 0.03413318 0.29366007 0.08848871 0.19324283 -0.029869724
-0.08391525 -0.048321124 0.20121324 0.070532694 0.023388932 0.049812317 -0.0055197543 -0.045554824
0.1577556 -0.01044828 0.039114024 0.0044708997 -0.15291479 0.0872292 -0.17597029 -0.104489
0.030281404 -0.060679283 0.05386559 0.1702686 0.15377147 -0.019652875 -0.07962047 -0.014282999
0.2826722 0.015425975 0.05387882 -0.0890177 0.047569796 0.08857012 -0.114483625 0.3017204
0.27208507 0.22072105 -0.06533663 0.0006619731 -0.1296408 0.11076714 0.12880167 -0.04197726
00000000: 292e 9cbd c356 0ebd 6e42 3d3e 4acf 983d
00000010: eef5 1b3d 9313 06be 5e96 293e 18de 33be
00000020: 59d7 63be a092 c7bd d853 4cbe 2439 cebc
00000030: faad 09be b989 16be 4ef5 293e 26fd b4bd
00000040: cfaf 0bbd 988a 1bbd 8db9 cfbd b20a 0fbe
00000050: 0aa7 74bc 55ec 7a3e 98bc 233e e698 57bd
00000060: 3d77 c1be f6b1 2e3e 27c7 3f3e ffa1 843e
00000070: 6b9c e63b eee5 5e3e 7b43 d53d 88ed b73d
00000080: a408 87be 6d35 803d 06b2 fc3c 5c16 5b3d
00000090: c871 81bd 47e2 2cbe 3fc6 bfbe 3bae 183d
000000a0: 45fd 96be a31d de3d 6f75 823c e89a 8d3d
000000b0: 752c 7f3e 3cc8 a9bb 8675 1ebe 6405 1b3c
000000c0: 9410 76be 5d2d 82be ca02 27bd 0564 58be
000000d0: 34ff cebd cc27 b2ba a640 8bbd c157 fa3d
000000e0: 52ef 48be e236 b83c 95b5 54be bc96 593d
000000f0: 7b50 9c3d d36d d13e a23a 58be fe4f 3e3e
00000100: 2c3a 563d 2f38 05be a554 ed3d edf1 13be
00000110: dbf6 2b3c 0744 25bd 96cc eebd e94d e13d
00000120: 84f9 5b3d cca8 d3bd 52ae 9b3d bc96 c13d
00000130: 11c6 b0bd 7659 45bc dc1d 9bbe 764e 5dbd
00000140: 2b84 23bd a890 8cbd f0e5 163d fc5c bfbe
00000150: 86b2 303e ca20 84bc ba30 9c3d 8c17 ec3d
00000160: 0f83 70bd a2d3 87be 8181 073e 67b3 56be
00000170: 1c9b b4bd 2988 063e 984c 3bbe a098 7cbd
00000180: 3967 05bd 69da 7ebe 79af 893d 98f1 653e
00000190: 1fef 133d 1f07 b2bc 067a 763d 082d 37be
000001a0: d19a 1c3d fd08 223d 9f92 183e f02e 093e
000001b0: d237 babc 0254 b63e 8035 1fbd e039 a13a
000001c0: 6a2a 8d3e f95f 8bbd b350 913d d38b 6d3e
000001d0: 6870 093e 7156 99bd 673b 2bbe a912 0fbe
000001e0: b9ae 663d ccb3 04be 8d26 d33d a92a 09be
000001f0: 9cc6 42be fcc9 f9bd eca6 aebe 8f47 8f3d
00000200: b107 acbc b5d7 c6bc 0cd3 7ebe 8f17 6cbc
00000210: cf58 37be a92a 5fbe 5f60 5ebd 7572 26be
00000220: d643 e63a 72bb c03d 4be8 6abe e276 4fbe
00000230: 4c29 6d3d 9b88 b73d 4ca7 ea3e 45eb 5fbb
00000240: fcd0 3e3e 25a1 e63c 883b 2f3e 0188 0bbe
00000250: 61d1 51bd 128c c83d eab4 a33e bd19 863d
00000260: 03a2 5d3e 2b7b 02be 92c9 46be 065e 91be
00000270: 901a d9bd 8fb8 a5bd f9e4 35be 7f45 4e3d
00000280: aa6e 25bc 1e9e 07bc d63d f03d 6086 e9bd
00000290: 6d5f 603d c80b 9c3e 80b9 b9bd 4f6d 79be
000002a0: e115 fa3d 5757 9b3d 545e 4c3d a03f 3a3c
000002b0: 1567 c73c 91c5 1fbd 76d7 a73c c166 b23d
000002c0: 6668 4a3e 3ffe 483e 7bbc 603e 7806 5ebe
000002d0: f18a bb3d efbf df3d 6987 143e b786 5f3e
000002e0: afde 23be cbd8 223d 3a73 efbb 6403 8fbe
000002f0: 9dc8 08be b6e4 68be 155b 7d3c d15b 0d3e
00000300: 24a4 9ebd 7364 e5bc 57b4 243e 437c 0abd
00000310: ea4f 7bbe 1450 bb3d 0da7 7f3b e81f 9d3d
00000320: 92c8 65bd 860b 41be 8286 50bd ab33 533d
00000330: c91f ffbb 3d0f ac3e 1de4 003e f932 d03d
00000340: c528 ccbc ad6e 34bd 800b 8f3e 3ccf 0b3d
00000350: 9d5a 963e 9239 b53d 73e1 453e 5ab1 f4bc
00000360: c2db abbd 5fec 45bd d80a 4e3e 7273 903d
00000370: 259a bf3c 0008 4c3d 0edf b4bb b297 3abd
00000380: af8a 213e 432f 2bbc 0736 203d a080 923b
00000390: b295 1cbe 39a5 b23d 8e31 34be 54fe d5bd
000003a0: b510 f83c d78a 78bd 2aa2 5c3d e45a 2e3e
000003b0: 4576 1d3e 11ff a0bc 0f10 a3bd 3d03 6abc
000003c0: 69ba 903e 3bbd 7c3c 0ab0 5c3d e94e b6bd
000003d0: 8cd8 423d 4064 b53d 6476 eabd 197b 9a3e
000003e0: bc4e 8b3e b304 623e 36cf 85bd 4388 2d3a
000003f0: 8fc0 04be e2d9 e23d 96e4 033e 59f0 2bbd

network_body._body_endoder.seq_layers.0.bias f4 [256]
-0.026869189 0.031027533 -0.03747948 -0.030822566 -0.073098145 0.056169573 -0.027000077 0.026514154
0.03091129 0.040989265 -0.039674353 -0.022502404 -3.6410896e-05 -0.016782297 -0.021745808 0.005032999
0.06717494 -0.040898923 0.0006811066 0.020452932 0.0070482376 -0.0058958605 0.004393667 -0.043019272
0.004444273 -0.017841406 0.017462054 -0.005707027 0.031538136 0.07803197 0.055213884 0.0374042
0.099283546 0.017635498 -0.016208187 0.119044006 0.05926153 -0.030440392 -0.06608979 0.0028296285
-0.042452004 -0.06850671 0.051177368 0.011586374 0.037820365 0.031962838 0.039581005 0.054682817
0.002056577 0.040696852 -0.031681325 0.032248393 0.018329835 -0.029225307 -3.8468454e-05 -0.052744966
-0.018176036 -0.03152793 -0.030069817 0.016752636 0.03201251 -0.03332358 -0.04333059 0.020664284
0.0011238634 0.0715468 -0.0990547 0.026545344 -0.049144715 0.0033075216 0.04254834 0.030949386
0.007085877 -0.03475986 0.062699944 -0.009609384 0.017045673 -0.06894392 -0.007219199 -0.00682043
0.03161397 0.019538898 0.0066685304 -0.02159834 0.030092211 0.038252957 -0.0705505 -0.040211987
0.022441434 0.0449178 0.05160101 0.007612953 0.036638796 -0.0022829697 -0.015536 0.005100055
0.0019044976 -0.042086445 0.051383935 -0.025822125 -0.047749143 -0.007952088 -0.079220876 -0.03086213
0.04168133 0.00014327407 0.021931741 -0.05377144 -0.02170112 0.00777117 0.07407369 0.009733561
0.012272293 0.010328455 -0.048404187 0.022152646 -0.01827731 -0.054494884 -0.017429039 -0.042610444
0.020416588 -0.12760758 -0.0019707987 0.0454572 0.043194987 -0.05910697 0.0650688 -0.10910372
0.056941427 -0.021727623 -0.021251531 0.06163185 -0.0051680286 -0.018695744 0.055690818 -0.057699613
-0.05873717 0.028789738 -0.039871015 -0.013922924 0.046085507 -0.066284075 0.0436804 0.061166678
-0.004279332 -0.021203985 -0.031607363 -0.06965872 0.03505701 -0.044222716 0.0014959514 -0.0073438203
-0.033812337 -0.028566128 0.04397684 -0.025087006 0.0738573 -0.08974385 -0.016669717 -0.0218753
-0.011322516 0.052532844 0.037491024 0.031863715 0.04228715 -0.026262004 0.020602437 -0.051157642
-0.02606476 -0.029908951 -0.06826714 -0.025646241 -0.0073664277 -0.035973188 -0.03898657 -0.045992866
0.0056351465 0.023726061 -0.027309002 0.0279287 -0.026389733 0.10699015 0.012817339 -0.022698838
-0.104819156 -0.030083286 -0.016777387 -0.11387929 0.029992772 0.022179931 -0.023638504 -0.03138738
-0.11102905 0.09994448 -0.021255009 -0.03686912 -0.03789579 0.039954808 0.018533919 -0.026360098
-0.0030469638 0.032831885 0.04626078 -0.0234628 0.10691435 0.012585816 -0.062157672 -0.010723997
0.07752189 -0.03776572 0.08069993 0.042334765 -0.058969606 -0.03737894 0.0019390015 -0.004988354
0.09837648 0.0073430277 -0.003317065 -0.013929032 0.005442842 0.12950112 0.039605528 0.04953083
-0.029037429 0.03340092 -0.039028388 0.03418345 0.022102822 -0.03530572 -0.054585 -0.07156446
0.036417153 0.036029357 0.012263036 -0.0062973513 -0.018121846 -0.005480918 -0.03969896 -0.056481745
0.0440245 -0.027746491 0.046642583 -0.014319962 0.034400452 -0.0039519346 0.03957375 0.019913103
-0.06649221 -0.031918135 0.014984789 -0.07284794 -0.02085502 -0.026506757 0.0052272473 -0.006714939
00000000: c61c dcbc 742d fe3c 1584 19bd 9b7f fcbc
00000010: 7bb4 95bd 1112 663d 442f ddbc 3634 d93c
00000020: ac39 fd3c 5ce4 273d 9381 22bd f656 b8bc
00000030: e7b7 18b8 077b 89bc 4424 b2bc dbeb a43b
00000040: 0493 893d a185 27bd 4a8c 323a e88c a73c
00000050: e7f4 e63b 1032 c1bb c0f8 8f3b fa34 30bd
00000060: 44a1 913b 2428 92bc 950c 8f3c 0302 bbbb
00000070: 222e 013d 3acf 9f3d f427 623d 2535 193d
00000080: 2c55 cb3d 5278 903c 08c7 84bc 58cd f33d
00000090: 38bc 723d 215e f9bc 155a 87bd 4a71 393b
000000a0: 27e2 2dbd 3f4d 8cbd 5c9f 513d c6d4 3d3c
000000b0: 87e9 1a3d 77eb 023d b11f 223d 17fb 5f3d
000000c0: a3c7 063b beb1 263d 47c4 01bd e416 043d
000000d0: 7328 963c e969 efbc 3059 21b8 1b0b 58bd
000000e0: e9e5 94bc 6e23 01bd fa54 f6bc d33c 893c
000000f0: 8d1f 033d 4e7e 08bd 6b7b 31bd 2548 a93c
00000100: 994e 933a 2187 923d 31dd cabd 9f75 d93c
00000110: f84b 49bd 01c3 583b 2b47 2e3d 9189 fd3c
00000120: a530 e83b 5b60 0ebd d468 803d ae70 1dbc
00000130: 5ea3 8b3c 7832 8dbd 088f ecbb ea7d dfbb
00000140: a67d 013d 0a10 a03c b083 da3b 00ef b0bc
00000150: f183 f63c 22af 1c3d c87c 90bd 53b5 24bd
00000160: 19d7 b73c bafb 373d 955b 533d 1476 f93b
00000170: 9012 163d e09d 15bb b58a 7ebc 5d1e a73b
00000180: 56a0 f93a d662 2cbd f677 523d ec88 d3bc
00000190: 9b94 43bd 7949 02bc 8e3e a2bd 94d2 fcbc
000001a0: 0bba 2a3d d73b 1639 32aa b33c 713f 5cbd
000001b0: 8cc6 b1bc 4da5 fe3b f2b3 973d 8479 1f3c
000001c0: ba11 493c ae38 293c 7843 46bd 7779 b53c
000001d0: 4cba 95bc 0736 5fbd 58c7 8ebc 4a88 2ebd
000001e0: b040 a73c 90ab 02be 8428 01bb 5431 3a3d
000001f0: 3aed 303d 261a 72bd ca42 853d c571 dfbd
00000200: 6a3b 693d 21fe b1bc b117 aebc ae71 7c3d
00000210: 9158 a9bb d127 99bc 0e1c 643d 6e56 6cbd
00000220: 6396 70bd 75d8 eb3c ca4f 23bd fa1c 64bc
00000230: 28c4 3c3d f2bf 87bd 38ea 323d e989 7a3d
00000240: a339 8cbb fbb3 adbc b976 01bd 3ba9 8ebd
00000250: f097 0f3d e122 35bd cd13 c43a 6ea4 f0bb
00000260: ce7e 0abd 8303 eabc 0f21 343d 4483 cdbc
00000270: 7f42 973d a0cb b7bd ee8e 88bc d433 b3bc
00000280: 1382 39bc ae2c 573d 3090 193d 8783 023d
00000290: 4a35 2d3d 6a23 d7bc 71c6 a83c ad8a 51bd
000002a0: c385 d5bc 9e03 f5bc a4cf 8bbd 1118 d2bc
000002b0: 1362 f1bb 9f58 13bd 62b0 1fbd 0463 3cbd
000002c0: 09a7 b83b 285d c23c 21b7 dfbc bbca e43c
000002d0: 482f d8bc a71d db3d d1ff 513c eaf2 b9bc
000002e0: 6dab d6bd 3971 f6bc bb70 89bc 8c39 e9bd
000002f0: 67b3 f53c b0b2 b53c 89a5 c1bc 0e90 00bd
00000300: 3363 e3bd b1af cc3d fc1e aebc 1304 17bd
00000310: 9e38 1bbd a7a7 233d 72d4 973c 22f1 d7bc
00000320: 92af 47bb ba7a 063d f27b 3d3d 0f35 c0bc
00000330: e9f5 da3d bd34 4e3c 0b99 7ebd b4b3 2fbc
00000340: ccc3 9e3d 3ab0 1abd 0146 a53d 3867 2d3d
00000350: 1d8a 71bd a91a 19bd 1826 fe3a 5975 a3bb
00000360: 9c79 c93d c89d f03b 1e63 59bb 9836 64bc
00000370: de59 b23b f19b 043e 6839 223d d7e0 4a3d
00000380: e7df edbc 67cf 083d 3bdc 1fbd f203 0c3d
00000390: fa10 b53c bb9c 10bd 8594 5fbd 6390 92bd
000003a0: 272a 153d 8593 133d e7ea 483c 035a cebb
000003b0: 4474 94bc 4699 b3bb 609b 22bd 6759 67bd
000003c0: 0953 343d 9c4c e3bc 4b0c 3f3d 469e 6abc
000003d0: 7de7 0c3d 3b7f 81bb 1618 223d ce20 a33c
000003e0: 112d 88bd 97bc 02bd c382 753c 4d31 95bd
000003f0: 26d8 aabc b324 d9bc 5449 ab3b fe08 dcbb

network_body._body_endoder.seq_layers.2.weight f4 [256, 256]
-0.080128096 -0.07441327 -0.016781278 0.10044357 -0.081754945 -0.04607611 0.107237585 -0.027490532
-0.07384956 -0.116214864 -0.06890973 0.15443158 -0.26672816 -0.0904294 -0.08521406 -0.072988994
-0.013072164 -0.079807736 -0.14295071 -0.044453494 0.060498465 0.07362227 -0.024774808 -0.029057981
-0.09115043 0.09030892 0.021453783 -0.10095494 0.16888443 -0.0401855 0.013796567 0.023724802
0.22341739 -0.0022127007 0.02013321 -0.1314611 -0.094713144 0.14989108 0.061190344 0.0005582423
0.0077289646 0.063154966 0.02895905 -0.0049769375 -0.13203065 -0.044824507 -0.090610676 -0.086423665
-0.12162136 -0.037335448 0.02578757 0.18049827 -0.011244992 -0.029736962 -0.12634495 0.031494707
0.019739062 0.019806668 -0.020146858 0.0361225 -0.25498283 -0.060053688 -0.030441565 -0.030502295
-0.023311006 0.06286466 -0.21320644 -0.025394851 -0.110521786 -0.01753903 0.028308645 -6.409424e-05
0.0033802595 -0.068701304 0.017979575 -0.066485114 -0.043390185 -0.054708365 -0.0652513 0.15434383
-0.0038376036 -0.008054399 0.02623949 -0.07561301 -0.23220134 0.03837982 0.03454996 -0.17246091
0.063259356 0.16566826 0.105171 0.12868124 -0.03688579 -0.03519767 -0.12534079 0.046518385
-0.30548918 -0.04923335 0.11033995 0.12515618 0.051686957 -0.02658785 0.048681777 -0.14671148
0.07779307 -0.10945301 0.06015531 0.05935705 -0.08952655 -0.05517901 -0.13103907 -0.1801026
-0.06830543 -0.015041174 0.20044659 0.05200417 0.021820905 0.15222374 -0.19696808 -0.036350146
-0.13684928 -0.07304631 -0.010550116 0.16532351 -0.02740287 -0.037781414 0.032713886 -0.22214818
-0.28616843 -0.075131476 -0.06526616 -0.10139658 -0.03452397 0.09382952 0.084975824 -0.021340793
-0.07142373 0.14505975 0.010740221 0.019567955 -0.07795145 -0.027195713 0.10881267 -0.14505416
-0.13929248 -0.06889909 -0.04378328 -0.007221416 -0.05949426 0.020589884 0.017526915 -0.14796443
0.0047027892 0.055564463 0.06231225 -0.00065948046 0.09621056 -0.07942214 -0.15974553 -0.094211526
0.021976948 -0.33813864 -0.016528482 0.15112607 -0.14123201 -0.07288384 -0.001002177 0.02457109
-0.03998674 0.094165266 0.07249513 0.00974819 -0.037216265 0.13791506 -0.0041847774 -0.24010223
-0.03507127 0.16328238 -0.07510673 -0.18251243 0.01507759 0.044145647 0.031787667 0.16455472
-0.07611556 0.15707742 0.052876417 0.00462667 0.031563547 -0.07000756 0.005305321 0.09010633
-0.0072095036 0.02879069 -0.025356645 0.0065295803 0.16303217 -0.07115439 0.13247919 0.04664788
0.007836382 0.07974404 -0.027745321 -0.023003584 -0.0038262685 0.05298323 0.15521976 0.29662016
0.07010136 0.047810804 -0.045775246 -0.0369854 0.005877972 -0.05851371 -0.024436412 -0.06841167
-0.11570409 -0.046554476 0.024600826 0.0065816906 -0.012975062 -0.0005846652 0.12560706 -0.05052887
-0.002216297 -0.016882647 -0.15887834 -0.1521037 0.33786342 0.044823006 -0.016354926 0.039308622
0.03858829 -0.050413754 -0.10917152 -0.23763038 0.004609236 -0.061085332 -0.059599392 -0.08814704
0.08432364 -0.0015766046 -0.024529183 0.05471022 -0.007002943 -0.11179046 -0.21163563 -0.0003690946
-0.036813367 0.101176225 0.08242162 0.04950337 0.05957915 -0.009432139 -0.032013055 -0.008949478
00000000: 331a a4bd fc65 98bd e478 89bc 5cb5 cd3d
00000010: 236f a7bd 4eba 3cbd 619f db3d d333 e1bc
00000020: 703e 97bd 0f02 eebd 8b20 8dbd 5023 1e3e
00000030: 9890 88be 0d33 b9bd b684 aebd 417b 95bd
00000040: a12c 56bc 3d72 a3bd ac61 12be de14 36bd
00000050: 3dcd 773d 46c7 963d 8af4 cabc 010b eebc
00000060: 14ad babd e2f3 b83d d8bf af3c 77c1 cebd
00000070: 0af0 2c3e 8d99 24bd ff0a 623c 845a c23c
00000080: 87c7 643e f502 11bb 67ee a43c bd9d 06be
00000090: f7f8 c1bd 0c7d 193e baa2 7a3d 0257 123a
000000a0: 4143 fd3b 6457 813d 883b ed3c 9415 a3bb
000000b0: 0b33 07be e799 37bd 1792 b9bd e4fe b0bd
000000c0: 9f14 f9bd 0eed 18bd 7440 d33c 8ad4 383e
000000d0: ea3c 38bc ee9a f3bc 9260 01be 9800 013d
000000e0: d0b3 a13c 9841 a23c 060b a5bc 30f5 133d
000000f0: 1c8d 82be dbfa 75bd 9760 f9bc f3df f9bc
00000100: b9f6 bebc 30bf 803d ca52 5abe dd08 d0bc
00000110: 3f59 e2bd 03ae 8fbc 88e7 e73c 556a 86b8
00000120: 5887 5d3b 45b3 8cbd e749 933c 5929 88bd
00000130: e8b9 31bd e115 60bd 79a2 85bd 4f0c 1e3e
00000140: 4e80 7bbb 99f6 03bc 33f4 d63c feda 9abd
00000150: 30c6 6dbe 2834 1d3d 4284 0d3d 9899 30be
00000160: 1f8e 813d f1a4 293e e563 d73d 04c5 033e
00000170: 8e15 17bd 6f2b 10bd 5659 00be 108a 3e3d
00000180: 1469 9cbe e9a8 49bd e9f9 e13d f128 003e
00000190: b4b5 533d c3ce d9bc 8b66 473d 893b 16be
000001a0: f951 9f3d e628 e0bd 6a65 763d 6120 733d
000001b0: b259 b7bd 6303 62bd 1b2f 06be d16c 38be
000001c0: b8e3 8bbd 426f 76bc df41 4d3e 5302 553d
000001d0: c1c1 b23c 8ae0 1b3e 00b2 49be e4e3 14bd
000001e0: 3822 0cbe 4e99 95bd 65da 2cbc 914a 293e
000001f0: fc7b e0bc afc0 1abd fffe 053d d07a 63be
00000200: ab84 92be 88de 99bd 44aa 85bd 03a9 cfbd
00000210: 0269 0dbd b129 c03d ce07 ae3d e3d2 aebc
00000220: 9b46 92bd 8b8a 143e c0f7 2f3c fa4c a03c
00000230: 03a5 9fbd 8bc9 debc 2dd9 de3d 1489 14be
00000240: b0a2 0ebe f71a 8dbd 1956 33bd a1a1 ecbb
00000250: 41b0 73bd 1eac a83c 9b94 8f3c fd83 17be
00000260: db19 9a3b 9097 633d 213b 7f3d fce0 2cba
00000270: 0b0a c53d 13a8 a2bd 5594 23be f9f1 c0bd
00000280: 0009 b43c 8220 adbe bd66 87bc cbc0 1a3e
00000290: 209f 10be 1f44 95bd 7b5b 83ba 4f49 c93c
000002a0: 23c9 23bd b8d9 c03d 5478 943d dfb6 1f3c
000002b0: 1570 18bd 9b39 0d3e 7520 89bb 5cdd 75be
000002c0: e4a6 0fbd 7f33 273e 8fd1 99bd 8ae4 3abe
000002d0: ff07 773c 11d2 343d c933 023d 0881 283e
000002e0: 7ae2 9bbd e7d8 203e f194 583d 529b 973b
000002f0: c748 013d 2060 8fbd 42d8 ad3b ab89 b83d
00000300: b33d ecbb 74da eb3c bdb8 cfbc 17f6 d53b
00000310: e8f1 263e 65b9 91bd a0a8 073e d911 3f3d
00000320: 2b64 003c d850 a33d 284a e3bc 0372 bcbc
00000330: 22c2 7abb f204 593d eef1 1e3e 99de 973e
00000340: 4d91 8f3d 43d5 433d d37e 3bbd 017e 17bd
00000350: 019c c03b 12ac 6fbd df2e c8bc 6b1b 8cbd
00000360: 44f6 ecbd e8af 3ebd ac87 c93c 39ab d73b
00000370: 5b95 54bc 3844 19ba 239f 003e 5cf7 4ebd
00000380: 4b3f 11bb 7a4d 8abc 01b1 22be 13c1 1bbe
00000390: 6ffc ac3e 5498 373d c4fa 85bc 1402 213d
000003a0: c10e 1e3d a77e 4ebd 5195 dfbd 6155 73be
000003b0: 1309 973b 9d34 7abd 7e1e 74bd 6f86 b4bd
000003c0: dfb1 ac3d 12a6 ceba 6df1 c8bc d317 603d
000003d0: f278 e5bb 66f2 e4bd 03b7 58be 0a83 c1b9
000003e0: 9dc9 16bd 7b35 cf3d abcc a83d 0cc4 4a3d
000003f0: 4409 743d 4289 1abc 1f20 03bd d5a0 12bc

network_body._body_endoder.seq_layers.2.bias f4 [256]
-0.046453997 -0.0009826089 -0.020185575 -0.024521066 -0.025181727 0.012188602 -0.03969335 -0.020046819
-0.025165455 -0.03348308 -0.021792416 0.03447357 0.04602662 -0.014774851 -0.028533217 0.015737364
0.008740715 0.053040788 -0.011699773 -0.04810888 -0.0061040116 -0.0023627135 0.028847806 0.00041059442
0.024864068 0.015839232 -0.05156859 -0.033481296 0.016446339 -0.008189267 0.048524085 0.014034179
-0.021218376 -0.034888167 -0.0019941486 0.011566784 -0.061730113 0.008262511 -0.035899375 -0.019124115
-0.009179164 -0.014971931 0.002272178 -0.009387394 0.02635187 0.013868194 0.053724196 0.035956047
-0.0057263677 0.006443804 0.025078006 -0.026142295 -0.014127201 -0.009115334 -0.025798969 0.01656853
-0.024707807 -0.06802604 -0.031296268 -0.00803124 -0.003186965 -0.03980853 -0.012599677 0.006697817
-0.05063143 -0.008509651 0.04527857 -0.014602696 -0.0051483326 0.015801795 -0.019272277 -0.06270159
0.004988774 -0.0008380973 0.0020333119 -0.0035645287 0.023915444 0.06350021 0.03977075 -0.01302747
-0.056827165 -0.014221507 -0.044492293 -0.0026689016 0.004018918 -0.0250043 -0.027506327 -0.035718303
0.039460666 -0.044146124 0.014153304 -0.058594856 -0.04537606 -0.026903646 0.0026822966 -0.051052805
0.014746363 -0.044576954 -0.025934583 -0.011128154 -0.018492907 0.035562377 -0.0303471 -0.032017555
-0.064830616 0.019889072 0.04033347 -0.026498603 0.0038843264 -0.004721579 0.03215714 0.0018080161
-0.08875139 0.007285866 0.033649646 -0.0039435695 -0.009412928 -0.0062291026 0.042177252 -0.03516359
-0.0029008868 0.017725734 -0.010764979 -0.036900695 0.018176025 -0.005248885 -0.008321114 -0.045955162
-0.02465399 0.046179973 0.0054432605 0.0048209107 0.047401614 -0.021786949 0.00096103415 0.022476412
-0.01755241 0.0167328 -0.0015534592 -0.038615715 0.021520223 0.03938517 -0.030762026 -0.03863688
-0.029714027 -0.053618923 -0.0017646359 0.0114609115 0.048555885 -0.014848872 0.0069549 -0.019549588
-0.001068588 -0.007405544 -0.037192244 0.043700863 -0.01858052 0.011887647 -0.018967308 -0.042368308
-0.026123252 0.025517862 -0.018992154 -0.026292259 0.014464782 -0.03389502 -0.0046995087 0.024566568
0.031643342 -0.088411525 0.013698348 -0.028614234 -0.0060954923 -0.032318324 0.014683579 0.03331505
-0.01437696 -0.0033098748 0.06353707 -0.021897458 0.0020177376 0.008531568 0.031917736 -0.019741578
0.05012188 0.0005857658 0.005532953 -0.033742025 0.036890388 0.0076377513 -0.031015713 -0.01503059
-0.027060214 0.018656265 0.011967847 -0.007831676 -0.009449583 0.020948974 -0.010841061 -0.051284082
-0.004492084 -0.018013705 0.024622213 -0.004200681 0.0536105 0.0025910342 -0.0036470972 0.04234381
-0.012405793 -0.014315594 -0.08254287 -0.043348953 -0.04653724 0.020475471 -0.011085149 -0.01566448
-0.013416616 0.015634432 0.020415466 0.011750374 -0.008108362 0.008720948 0.023679044 -0.08035401
-0.04610014 -0.057671264 -0.029099248 -0.014453963 0.014861454 -0.020254252 -0.037072647 0.022800041
-0.0010942211 -0.009198496 -0.013743419 0.005408146 -0.020195171 -0.01800508 -0.002059866 0.0024924348
-0.0108156325 -0.0028329624 0.019968983 -0.055338092 -0.016814517 -0.032194093 0.005439392 -0.052864768
-0.049904864 -0.04411595 -0.06854521 0.01080598 0.0042469394 0.021812495 0.011701551 0.028274538
00000000: 8c46 3ebd e2ca 80ba 385c a5bc 67e0 c8bc
00000010: e949 cebc b4b2 473c 7f95 22bd 3a39 a4bc
00000020: c927 cebc 8e25 09bd 0286 b2bc 2834 0d3d
00000030: 6986 3c3d 3712 72bc 7ebe e9bc a5eb 803c
00000040: 3735 0f3c 4c41 593d 68b0 3fbc d10d 45bd
00000050: 2904 c8bb c1d7 1abb 3c52 ec3c 0d45 d739
00000060: bbaf cb3c 47c1 813c 9639 53bd af23 09bd
00000070: 79ba 863c 462c 06bc 31c1 463d 9def 653c
00000080: 29d2 adbc e5e6 0ebd 43b0 02bb 9c82 3d3c
00000090: b7d8 7cbd 7c5f 073c 390b 13bd 2daa 9cbc
000000a0: 3464 16bc d54c 75bc d2e8 143b 96cd 19bc
000000b0: e0df d73c 6c37 633c e70d 5c3d a646 133d
000000c0: 41a4 bbbb 8c26 d33b 6470 cd3c 5e28 d6bc
000000d0: c775 67bc 7b58 15bc 5c58 d3bc baba 873c
000000e0: 0768 cabc 3d51 8bbd 8430 00bd 7695 03bc
000000f0: 66dc 50bb 450e 23bd e06e 4ebc 5c79 db3b
00000100: e762 4fbd 106c 0bbc 0676 393d 2540 6fbc
00000110: 58b3 a8bb c472 813c e5e0 9dbc b169 80bd
00000120: df78 a33b c2b3 5bba 5041 053b de9a 69bb
00000130: 52ea c33c 660c 823d a7e6 223d 2b71 55bc
00000140: 9ac3 68bd 5301 69bc 8d3d 36bd bde8 2ebb
00000150: 21b1 833b d1d5 ccbc f354 e1bc 5b4d 12bd
00000160: 82a1 213d 91d2 34bd 42e3 673c 2901 70bd
00000170: 3fdc 39bd 0965 dcbc 78c9 2f3b bf1c 51bd
00000180: bb9a 713c 5396 36bd c374 d4bc dc52 36bc
00000190: 707e 97bc dba9 113d 7b9a f8bc d724 03bd
000001a0: eac5 84bd 68ee a23c b534 253d 9913 d9bc
000001b0: 2f90 7e3b 7ab7 9abb 35b7 033d f4fa ec3a
000001c0: 4ac3 b5bd 46be ee3b 36d4 093d 0f39 81bb
000001d0: ae38 1abc 801d ccbb 0ec2 2c3d b207 10bd
000001e0: ce1c 3ebb 8f35 913c 985f 30bc 2f25 17bd
000001f0: e3e5 943c d7fe abbb 4855 08bc 7b3b 3cbd
00000200: 2af7 c9bc 3627 3d3d 615d b23b bbf8 9d3b
00000210: 3228 423d 8b7a b2bc e9ed 7b3a 7420 b83c
00000220: 12ca 8fbc 3a13 893c 719d cbba 832b 1ebd
00000230: 2e4b b03c 5852 213d a500 fcbc b541 1ebd
00000240: d56a f3bc 849f 5bbd 5b4b e7ba 8cc6 3b3c
00000250: 89e2 463d af48 73bc eee5 e33b 7526 a0bc
00000260: dd0f 8cba 35aa f2bb e556 18bd adff 323d
00000270: 2d36 98bc 68c4 423c 5461 9bbc 648a 2dbd
00000280: 6e00 d6bc d60a d13c 6f95 9bbc dd62 d7bc
00000290: b1fd 6c3c 81d5 0abd 56fe 99bb d43f c93c
000002a0: 739c 013d 1a11 b5bd 096f 603c 6668 eabc
000002b0: b2bc c7bb 3860 04bd 6593 703c 5d75 083d
000002c0: 578d 6bbc 7cea 58bb b91f 823d 4c62 b3bc
000002d0: 053c 043b fdc7 0b3c 2cbc 023d 17b9 a1bc
000002e0: 9a4c 4d3d 148e 193a c64d b53b 1435 0abd
000002f0: 601a 173d 1a46 fa3b aa14 febc dd42 76bc
00000300: 62ad ddbc 06d5 983c ca14 443c 6e50 00bc
00000310: 6cd2 1abc 2f9d ab3c b59e 31bc 420f 52bd
00000320: 5532 93bb 7a91 93bc 86b4 c93c dea5 89bb
00000330: af96 5b3d 57ce 293b 2304 6fbb b470 2d3d
00000340: ab41 4bbc f48b 6abc 3c0c a9bd ac8e 31bd
00000350: d59d 3ebd 2dbc a73c 7c9e 35bc cc52 80bc
00000360: 5ed1 5bbc c813 803c 563e a73c a484 403c
00000370: efd8 04bc 4fe2 0e3c 8efa c13c a590 a4bd
00000380: 80d3 3cbd b438 6cbd 8c61 eebc 51d0 6cbc
00000390: 757d 733c 3fec a5bc 7dd9 17bd 27c7 ba3c
000003a0: f86b 8fba 4ab5 16bc 142c 61bc d136 b13b
000003b0: 5870 a5bc 647f 93bc d1fe 06bb 1e58 233b
000003c0: 0d34 31bc 39a9 39bb fe95 a33c 32aa 62bd
000003d0: 99be 89bc f4dd 03bd ed3c b23b ba88 58bd
000003e0: 0b69 4cbd edb2 34bd 6e61 8cbd 910b 313c
000003f0: e929 8b3b 1eb0 b23c ddb7 3f3c 01a0 e73c

network_body._body_endoder.seq_layers.4.weight f4 [256, 256]
0.022707636 0.19717346 0.08050622 0.1252986 -0.17143975 0.006315312 0.05864192 -0.033429697
0.12792557 0.03797663 -0.25698987 0.18479379 -0.07601117 -0.06087168 -0.01739813 -0.032311115
0.052434906 -0.019509615 -0.21273327 0.009282354 -0.05568195 -0.026906103 0.091150336 0.0020063955
0.17809302 -0.13377215 0.15691455 0.025362419 0.07147942 0.05645908 0.024430469 0.19726552
-0.08824629 0.028393261 -0.040996484 -0.17294848 0.16220419 0.070880175 -0.034556895 0.012222414
-0.021011889 0.015738815 0.058398362 0.08113895 0.04991775 0.2529268 -0.061135583 -0.026839675
-0.018444307 0.051708493 0.104413815 0.18089399 0.13546659 0.055979922 -0.011272068 0.081875116
0.06524491 0.08932434 -0.110880524 0.056531865 -0.053444553 0.02919192 -0.029480651 0.15194957
-0.06545491 -0.007639257 0.04602137 -0.11164386 -0.018044787 -0.17655335 0.050866604 -0.11904762
-0.0076454664 -0.01511373 -0.041934263 0.024409415 -0.015096644 0.051131684 -0.07286087 0.08222587
0.010571149 -0.050010607 0.08554488 0.05466391 -0.12602444 0.1310689 0.036319327 0.033215556
0.0051420326 0.11237895 -0.05735184 0.10138478 -0.055432215 -0.10039955 0.16881213 -0.0026121174
-0.0076078214 0.02635548 -0.1564268 0.055833973 0.031971008 0.14282736 -0.0144398855 0.059392024
0.0056088823 -0.06583379 -0.22134203 -0.06911636 0.029590813 0.09949264 0.010205687 0.05786211
0.057786204 -0.06020748 -0.05258972 0.11405702 -0.04127583 -0.06866348 -0.15209249 -0.23188578
0.01277226 0.01037656 0.25832087 -0.10267036 0.18544656 0.07044552 -0.071138896 -0.013074598
-0.017055005 0.08054762 -0.06355095 0.28014326 -0.016558938 0.08387129 -0.0031661703 -0.047511954
-0.0937799 -0.10935318 0.0150287915 0.17350285 -0.044863973 -0.084607795 0.15305938 0.042880867
0.07137713 -0.0075353985 0.12801898 -0.12774776 -0.14602035 0.00024922265 0.09541667 -0.07907576
0.018808613 -0.2553525 -0.0315238 -0.03759039 -0.2885372 0.017032882 0.057210814 0.123631336
0.20118959 -0.09469334 -0.20962746 0.14967775 -0.049181107 0.14083791 -0.079748 0.011562257
-0.017333044 0.09894602 -0.15492584 -0.22418588 -0.055084273 -0.004210697 -0.096742414 -0.052298594
-0.06684899 0.021481367 -0.014941843 0.17886391 -0.03548633 -0.09148814 0.062661156 -0.0887444
0.15982108 -0.054621823 -0.25966242 0.08898588 0.11677665 0.12437294 0.04544789 0.0017053675
0.10774641 0.22878754 0.0029776406 0.17759307 0.051200118 0.004164708 0.040155046 0.007472366
0.2111228 -0.046751067 -0.3015063 0.07233079 -0.10375869 -0.13590847 0.13694863 -0.13910612
-0.0958165 0.15436311 0.11548819 0.012890527 0.10325854 0.069809586 -0.048988894 0.037148505
0.13227934 -0.07535066 0.109275326 0.09250302 -0.04209915 -0.00090149534 -0.12992586 -0.17448424
-0.18111828 -0.04060822 0.11485859 0.105637394 -0.02687814 -0.19277889 -0.0632944 0.27345625
0.04295038 -0.050546553 0.05682874 -0.2229485 0.04166681 0.13599402 0.15884404 -0.018822517
0.015197074 -0.1217698 -0.1129429 0.1205228 -0.027576376 -0.103282735 0.026059978 -0.05756063
0.09122773 -0.05474599 -0.13417368 0.07694251 -0.14686476 -0.008141364 -0.011462902 0.08430626
00000000: 5d05 ba3c d7e7 493e 72e0 a43d 474e 003e
00000010: e78d 2fbe adf0 ce3b 8332 703d 94ed 08bd
00000020: ecfe 023e 628d 1b3d 2d94 83be 953a 3d3e
00000030: bfab 9bbd 9554 79bd 8686 8ebc a958 04bd
00000040: fcc5 563d a1d2 9fbc c0d6 59be 0415 183c
00000050: c212 64bd 306a dcbc 07ad ba3d bb7d 033b
00000060: 045e 363e 91fb 08be 35ae 203e d9c4 cf3c
00000070: cd63 923d a341 673d 6822 c83c f9ff 493e
00000080: 79ba b4bd fc98 e83c eeeb 27bd 6819 31be
00000090: db18 263e a029 913d 888b 0dbd 8540 483c
000000a0: 2021 acbc b0ee 803c 1f33 6f3d 2e2c a63d
000000b0: 8e76 4c3d 9f7f 813e 4e69 7abd e1de dbbc
000000c0: 8418 97bc 49cc 533d e9d6 d53d 463c 393e
000000d0: c1b7 0a3e 344b 653d 7bae 38bc 24ae a73d
000000e0: 209f 853d aeef b63d 5415 e3bd f58d 673d
000000f0: ade8 5abd e523 ef3c 6881 f1bc ab98 1b3e
00000100: 390d 86bd bb52 fabb e780 3c3d 89a5 e4bd
00000110: a9d2 93bc 67ca 34be 8059 503d 3dcf f3bd
00000120: d286 fabb 949f 77bc 43c3 2bbd 41f6 c73c
00000130: ea57 77bc 756f 513d 1438 95bd 0966 a83d
00000140: 9d32 2d3c ecd7 4cbd 2732 af3d 44e7 5f3d
00000150: 8d0c 01be ed36 063e 93c3 143d 090d 083d
00000160: 7f7e a83b ef26 e63d c3e9 6abd d3a2 cf3d
00000170: e40c 63bd 479e cdbd 16dd 2c3e 0f30 2bbb
00000180: 084b f9bb 73e7 d73c 592e 20be 2ab2 643d
00000190: 08f4 023d 5641 123e 4595 6cbc 0d45 733d
000001a0: b7ca b73b ded3 86bd 7ca7 62be e18c 8dbd
000001b0: 6f68 f23c ccc2 cb3d c135 273c d200 6d3d
000001c0: 3ab1 6c3d 1e9c 76bd 5168 57bd ba96 e93d
000001d0: d810 29bd 709f 8cbd 22be 1bbe 7773 6dbe
000001e0: be42 513c 7202 2a3c a242 843e d644 d2bd
000001f0: b4e5 3d3e be45 903d 45b1 91bd d736 56bc
00000200: f0b6 8bbc 27f6 a43d 0027 82bd f06e 8f3e
00000210: 9ca6 87bc b6c4 ab3d 867f 4fbb e59b 42bd
00000220: ad0f c0bd 8ff4 dfbd 523b 763c bbaa 313e
00000230: 49c3 37bd da46 adbd 99bb 1c3e d9a3 2f3d
00000240: 2c2e 923d 81eb f6bb 6817 033e 4fd0 02be
00000250: 5c86 15be 19aa 8239 d169 c33d 79f2 a1bd
00000260: 8514 9a3c 90bd 82be 1a1f 01bd 61f8 19bd
00000270: 26bb 93be 8b88 8b3c e355 6a3d 6d32 fd3d
00000280: a504 4e3e 95ee c1bd 95a8 56be 2045 193e
00000290: 2172 49bd d037 103e eb52 a3bd 9f6f 3d3c
000002a0: 07fe 8dbc 36a4 ca3d e1a4 1ebe fc90 65be
000002b0: 0ca0 61bd e3f9 89bb e320 c6bd 0d37 56bd
000002c0: 20e8 88bd b1f9 af3c a2ce 74bc 1a28 373e
000002d0: 1d5a 11bd 225e bbbd 7e54 803d a0bf b5bd
000002e0: 23a8 233e 22bb 5fbd 79f2 84be 3b3e b63d
000002f0: 9928 ef3d 3db7 fe3d 9127 3a3d a386 df3a
00000300: 26aa dc3d 4847 6a3e 8524 433b f5da 353e
00000310: 37b7 513d 1a78 883b 9e79 243d c0da f43b
00000320: 9330 583e 0c7e 3fbd 095f 9abe 2a22 943d
00000330: 707f d4bd 972b 0bbe 433c 0c3e d671 0ebe
00000340: 713b c4bd 5d11 1e3e 1285 ec3d ca32 533c
00000350: 3779 d33d 54f8 8e3d 94a8 48bd 0829 183d
00000360: 3c74 073e 7251 9abd becb df3d 3972 bd3d
00000370: 2970 2cbd 5452 6cba 490b 05be ffab 32be
00000380: 1277 39be ce54 26bd fb3a eb3d 6b58 d83d
00000390: 8c2f dcbc d467 45be 7fa0 81bd 7502 8c3e
000003a0: bdec 2f3d e709 4fbd 41c5 683d 9d4c 64be
000003b0: d1aa 2a3d 0442 0b3e 03a8 223e ae31 9abc
000003c0: 26fd 783c 7262 f9bd 9b4e e7bd a8d4 f63d
000003d0: dae7 e1bc e685 d3bd bc7b d53c b2c4 6bbd
000003e0: 9bd5 ba3d 553d 60bd d364 09be 0994 9d3d
000003f0: b763 16be 5b63 05bc e5ce 3bbc c3a8 ac3d

network_body._body_endoder.seq_layers.4.bias f4 [256]
0.013727057 -0.029234987 -0.03582657 -0.010911375 0.017176708 0.022917496 0.031040143 0.003192611
-0.020575257 -0.005805074 0.00568568 0.011908753 0.020365557 -0.029078415 -0.06182045 -0.008481935
0.025586689 0.030118402 -0.026518658 0.013544584 -0.012960759 -0.0058636223 -0.028242156 0.03127568
0.018508391 -0.03802259 -0.0006686654 0.021883994 0.0047276677 0.010824587 0.010150001 -0.016845318
-0.025834221 -0.029594881 0.0069492594 -0.015340824 -0.048237935 0.02296907 -0.062281407 0.010823147
-0.023486698 0.0068132156 -0.02890298 -0.03636574 0.01911344 -0.058966544 0.047492232 0.042840887
0.011884603 0.03125968 0.025282487 -0.009617841 0.011835216 -0.039626952 0.030694189 0.014019532
-0.023088709 0.0052019213 -0.011877805 0.03770448 0.002072524 0.028863698 -0.018560454 -0.05873571
-0.020938687 0.047688674 -0.052842237 0.002736596 -0.030134145 -0.039530735 -0.031466093 0.035065215
0.027416479 -0.04682472 0.03779288 0.019560196 0.0055815973 -0.062202137 -0.019700447 0.017654788
0.032692958 -0.009607898 -0.007963254 0.019698145 -0.054863557 0.034634456 -0.0049616573 0.02470078
0.03673508 0.06300937 -0.060406078 0.028088586 0.05230437 -0.0019317992 0.011409772 -0.022960354
0.04484348 -0.039009172 0.03460207 -0.0070477035 0.013902348 0.0047547906 0.021375451 -0.01915937
-0.0031393194 -0.00916565 -0.023271222 0.010078003 0.023402942 -0.025732111 0.00329222 -0.010484693
0.02320474 0.039701484 -0.012793503 -0.0076718978 0.021875435 0.022952575 0.041180354 -0.028878521
-0.01596875 -0.051996354 -0.00070026267 0.059578523 -0.059573114 -0.0024140785 -0.008520432 0.023714988
0.0134100085 -0.013356021 -0.023514478 0.011403059 0.022803985 0.0090467045 0.03976749 -0.021656228
0.034735274 0.038121246 0.014735307 0.055646673 0.036293488 -0.082892045 -0.028078211 -0.043671228
-0.040713646 0.02215588 0.013662804 0.03924342 -0.056602914 0.05018276 -0.034192253 0.006520346
-0.017429488 0.019251611 -0.019776365 -0.05855142 0.010589198 -0.016100721 -0.0022663847 -0.03875593
-0.02338258 -0.048723046 0.054843526 -0.009106092 -0.026885388 0.04231737 0.019925835 -0.0012016925
0.009709085 -0.029176703 0.013728469 0.03191317 -0.037876077 -0.0013568908 -0.01005834 0.0065207058
-0.019200629 0.07534337 0.016281676 -0.034694105 0.062442057 0.017377306 -0.010070697 0.004324561
0.056400478 -0.03959439 0.0040253233 -0.0410765 -0.0306566 -0.019445427 -0.06453211 -0.053717114
0.00908179 -0.009415512 -0.010693674 0.030007763 0.025408173 0.021151314 -0.013405 -0.027211195
-0.047527146 -0.0018758923 0.02392989 0.012248495 0.030483866 -0.011518388 -0.017633613 0.034257542
0.036597785 -0.00887599 -0.009147783 -0.015020009 -0.03153813 0.014833814 0.0068510193 -0.09239533
0.018599715 -0.009310902 0.020805955 -0.0057909614 0.030468913 -0.055098813 -0.025160171 -0.0155915655
-0.08262795 0.011272004 0.062425625 0.028001886 0.021599524 -0.002413719 0.015731506 0.0030859888
-0.04556432 0.08587305 -0.054330695 -0.03469408 0.04459759 -0.024017591 -0.025820037 0.023518546
0.023024386 -0.019649934 0.0008616859 0.0018107068 0.008307491 0.017776886 -0.07033782 -0.040894035
-0.046368998 0.011904653 0.02041958 0.020598844 0.031250075 -0.048158187 0.010510263 -0.031916652
00000000: 73e7 603c 367e efbc e2be 12bd a0c5 32bc
00000010: 2bb6 8c3c 79bd bb3c e647 fe3c 203b 513b
00000020: 718d a8bc 7d38 bebb f14e ba3b ee1c 433c
00000030: abd5 a63c db35 eebc 7137 7dbd d0f7 0abc
00000040: 2d9b d13c deba f63c a83d d9bc 1aea 5d3c
00000050: 5d59 54bc a123 c0bb 185c e7bc ed1a 003d
00000060: e99e 973c 93bd 1bbd 6049 2fba 1046 b33c
00000070: 8dea 9a3b 9c59 313c 314c 263c 31ff 89bc
00000080: 4aa2 d3bc f770 f2bc 9db6 e33b 1458 7bbc
00000090: 2495 45bd a229 bc3c ca1a 7fbd 9253 313c
000000a0: 2d67 c0bc 6541 df3b f1c5 ecbc 3ef4 14bd
000000b0: ca93 9c3c e786 71bd 3787 423d ed79 2f3d
000000c0: a3b7 423c 260a 003d 381d cf3c 2694 1dbc
000000d0: 7ee8 413c df4f 22bd 6172 fb3c 2eb2 653c
000000e0: 8824 bdbc e174 aa3b 209b 42bc 0370 1a3d
000000f0: 2fd3 073b 9073 ec3c 180c 98bc db94 70bd
00000100: 9c87 abbc 3355 433d 1a71 58bd 7658 333b
00000110: e2db f6bc fbea 21bd 97e2 00bd 8ba0 0f3d
00000120: 8698 e03c 47cb 3fbd b5cc 1a3d b43c a03c
00000130: d5e5 b63b abc7 7ebd d562 a1bc c6a0 903c
00000140: 0de9 053d 726a 1dbc 4f78 02bc 015e a13c
00000150: 9cb8 60bd dcdc 0d3d 6695 a2bb 4a59 ca3c
00000160: 8677 163d 0e0b 813d 5d6c 77bd 091a e63c
00000170: 1b3d 563d 6d34 fdba 0df0 3a3c 5a17 bcbc
00000180: ccad 373d 15c8 1fbd e6ba 0d3d 6cf0 e6bb
00000190: acc6 633c 13ce 9b3b 921b af3c 1cf4 9cbc
000001a0: 0abd 4dbb 862b 16bc 4aa3 bebc 351e 253c
000001b0: 87b7 bf3c 26cc d2bc 49c2 573b fdc7 2bbc
000001c0: de17 be3c 069e 223d d79b 51bc 8b64 fbbb
000001d0: 1d34 b33c 0a07 bc3c bbac 283d a692 ecbc
000001e0: e5d0 82bc 21fa 54bd d591 37ba 9c08 743d
000001f0: f002 74bd 8435 1ebb 4899 0bbc ef45 c23c
00000200: a7b5 5b3c 36d3 5abc 6fa1 c0bc e5d3 3a3c
00000210: 6ccf ba3c a138 143c 3ce3 223d 6768 b1bc
00000220: 9346 0e3d 0625 1c3d 5b6c 713c c4ed 633d
00000230: 7ba8 143d 4ec3 a9bd 4704 e6bc 9ae0 32bd
00000240: 5ac3 26bd 4080 b53c f4d9 5f3c b5bd 203d
00000250: 75d8 67bd 708c 4d3d 2d0d 0cbd a0a8 d53b
00000260: 49c8 8ebc 8eb5 9d3c 0b02 a2bc 9dd3 6fbd
00000270: 517e 2d3c a9e5 83bc a087 14bb 8abe 1ebd
00000280: d38c bfbc d191 47bd 9ba3 603d b831 15bc
00000290: bf3e dcbc fb54 2d3d 813b a33c 1c82 9dba
000002a0: db12 1f3c fb03 efbc 5fed 603c 62b7 023d
000002b0: f223 1bbd b3d9 b1ba bccb 24bc a5ab d53b
000002c0: a34a 9dbc a04d 9a3d 2661 853c 681b 0ebd
000002d0: 3ec3 7f3d da5a 8e3c 91ff 24bc 0cb5 8d3b
000002e0: 3004 673d ba2d 22bd dce6 833b d53f 28bd
000002f0: 8d23 fbbc 044c 9fbc 6929 84bd 7a06 5cbd
00000300: cacb 143c 8543 1abc 8534 2fbc d7d2 f53c
00000310: cd24 d03c 8545 ad3c a5a0 5bbc 03ea debc
00000320: d3ab 42bd 80e0 f5ba 9e08 c43c e9ad 483c
00000330: 4db9 f93c 9fb7 3cbc 5e74 90bc a351 0c3d
00000340: 8fe7 153d 9a6c 11bc 95e0 15bc 7c16 76bc
00000350: 202e 01bd 8709 733c 847e e03b c339 bdbd
00000360: 6e5e 983c c18c 18bc 4071 aa3c 1bc2 bdbb
00000370: f199 f93c 4baf 61bd b41c cebc c473 7fbc
00000380: d838 a9bd 36ae 383c 03b2 7f3d 3664 e53c
00000390: 7cf1 b03c 7c2f 1ebb 5cdf 803c 4d3e 4a3b
000003a0: a7a1 3abd 36de af3d dd89 5ebd 611b 0ebd
000003b0: f6ab 363d 8ac0 c4bc 8b84 d3bc f7a9 c03c
000003c0: a39d bc3c e6f8 a0bc c3e2 613a 3d55 ed3a
000003d0: 251c 083c d5a0 913c 460d 90bd 8180 27bd
000003e0: 6bed 3dbd bc0b 433c f746 a73c e8be a83c
000003f0: 1400 003d 8541 45bd 3d33 2c3c 09bb 02bd

action_model._continuous_distribution.log_sigma f4 [1, 39]
0.22961621 2.3143492 2.4115217 0.87110233 0.96748847 2.0199668 -1.3664957 2.448399
2.3559914 -0.36607537 2.0102284 1.9435618 -0.6959005 1.8572036 -2.1422336 -0.38007694
1.8287243 -1.7321377 0.570622 2.0586188 -0.9073947 -1.0939096 1.9392033 -0.62901175
-0.64780325 1.8174639 -1.5751736 -1.5093297 1.3791859 -1.9899735 -0.30985138 2.2289984
2.2693646 0.5595067 1.4868569 0.947748 -0.54293114 2.1017976 0.5370014
00000000: 8320 6b3e 4c1e 1440 5f56 1a40 9000 5f3f
00000010: 53ad 773f 2347 0140 55e9 aebf 92b2 1c40
00000020: 90c8 1640 3b6e bbbe 95a7 0040 a2c6 f83f
00000030: 8926 32bf d9b8 ed3f 5b1a 09c0 7299 c2be
00000040: a313 ea3f b0b6 ddbf 4914 123f 69c0 0340
00000050: 054b 68bf 3b05 8cbf d037 f83f ea06 21bf
00000060: 6fd6 25bf a8a2 e83f 4a9f c9bf b731 c1bf
00000070: 2a89 b03f 74b7 febf d7a4 9ebe e9a7 0e40
00000080: 453d 1140 d53b 0f3f 5451 be3f 9d9f 723f
00000090: 89fd 0abf da83 0640 ec78 093f

action_model._continuous_distribution.mu.weight f4 [39, 64]
0.1848135 -0.09907198 -0.21928148 -0.26008326 0.24257864 0.09555974 -0.0380907 0.2692916
-0.17926624 0.37186295 0.013943508 0.11257781 0.025802655 -0.23896222 -0.05827708 0.05484598
-0.07709927 -0.29081616 0.021220408 0.19782822 0.18796594 0.16767918 0.11057068 0.15280575
-0.0486466 0.14179145 -0.30642155 0.1459935 0.250164 -0.12139704 -0.350665 -0.1360255
0.28131774 0.10004029 0.051509768 0.063430734 0.106054865 -0.0030524933 -0.068155326 -0.108827956
-0.085702054 0.16865332 0.031021053 -0.23493382 -0.19073667 0.07472657 0.052342925 -0.07580535
-0.0895679 0.21260135 0.10650482 0.15496074 -0.28339285 0.14661114 -0.09216437 -0.046684187
-0.03664544 -0.06216093 0.15224762 -0.17828295 -0.30979025 0.19546781 -0.24705593 0.23003013
0.1992716 -0.07873371 -0.049627792 -0.09084304 -0.1533286 -0.43022686 0.2664749 -0.051665325
0.5005589 -0.44252604 -0.025414187 -0.121387154 0.0935171 -0.00014411302 -0.33980742 0.23035459
0.3714478 -0.31273097 -0.28238276 0.32356107 0.24443439 0.16194488 -0.38885 0.2868769
-0.12089144 0.12670618 -0.32430792 -0.24372569 0.085970655 0.053859744 -0.28378683 -0.4056729
0.046209462 0.3473387 -0.24803644 0.3023697 0.21213345 0.06699865 0.2689451 -0.14568141
0.018958917 0.40072674 -0.15452053 -0.18298945 -0.13062234 -0.20690502 -0.44029242 -0.17578495
-0.39671296 0.34927782 -0.08215511 0.1548137 -0.4696636 0.24860527 0.010493281 -0.21970826
0.04066391 -0.36990508 0.12402347 -0.38030863 0.20249574 -0.12588184 -0.40966743 0.05619888
0.13058561 -0.12718056 -0.061789673 -0.38064864 -0.06798638 -0.12992221 0.31306607 -0.024547096
0.39703 0.08435537 -0.3244464 0.029695958 -0.07772795 0.2245338 -0.07195322 0.015177349
0.3425211 -0.20630106 -0.31683528 -0.024912344 -0.0027743387 0.043513782 0.003238926 -0.031473402
-0.21619898 -0.10672455 -0.27894682 0.0011535072 0.24043733 0.10913949 0.028428247 -0.26084793
0.23180693 0.1978901 -0.13465592 0.0134203285 0.11397131 -0.072635956 -0.13619132 -0.17741619
0.10815205 0.088369936 -0.4005728 -0.0914474 -0.041193362 0.26569778 -0.25632483 -0.15928665
-0.0057345782 0.29004112 0.188554 0.03421438 -0.18223418 0.25557092 -0.3262722 -0.4063074
0.1400518 -0.18620425 0.0026816092 -0.29009485 -0.102543466 0.0035213341 -0.18827759 0.2950836
0.002787623 0.20299217 -0.1759936 -0.16526416 0.24012496 0.170885 -0.044925947 -0.018297594
-0.014655681 0.29721382 0.044233784 -0.0013959855 0.15683451 -0.30877376 -0.51493955 0.29051962
-0.16737434 -0.23130521 -0.07112258 0.14579304 0.28177497 0.21152978 0.21765442 0.11491043
-0.021413866 0.24402684 -0.14008556 -0.25137782 0.017950047 -0.21157248 -0.23401073 0.00592488
0.12750866 0.024441356 0.042084727 0.15795833 0.18242356 0.32275108 0.24496053 0.15007457
-0.22222045 0.09025118 -0.02768539 -0.112784095 -0.247481 -0.17673682 0.11317511 -0.08887885
-0.027471425 0.21607749 0.17931555 0.18334909 0.05439483 0.059952244 -0.2021575 -0.1258757
-0.3021195 0.10964851 -0.0080321375 -0.14748117 -0.31837928 0.2761832 -0.1731779 0.22612745
00000000: c03f 3d3e 40e6 cabd 538b 60be a229 85be
00000010: 8966 783e d3b4 c33d fe04 1cbd 97e0 893e
00000020: 9291 37be d264 be3e 5073 643c 328f e63d
00000030: 1760 d33c 83b2 74be f3b3 6ebd 2ea6 603d
00000040: 39e6 9dbd dbe5 94be 6cd6 ad3c 7b93 4a3e
00000050: 257a 403e 17b4 2b3e e172 e23d 1c79 1c3e
00000060: a841 47bd c731 113e 49e3 9cbe 527f 153e
00000070: 7f15 803e 039f f8bd 5d8a b3be 454a 0bbe
00000080: e108 903e ece1 cc3d e8fb 523d f9e7 813d
00000090: 4b33 d93d 570c 48bb 0595 8bbd 31e1 debd
000000a0: 8f84 afbd 75b3 2c3e dd1f fe3c 7e92 70be
000000b0: 7950 43be 3e0a 993d 8965 563d d63f 9bbd
000000c0: 606f b7bd 2bb4 593e 331f da3d 07ae 1e3e
000000d0: de18 91be 3b21 163e acc0 bcbd eb37 3fbd
000000e0: 8719 16bd 769c 7ebd cde6 1b3e ce8f 36be
000000f0: d49c 9ebe b728 483e 3bfc 7cbe 058d 6b3e
00000100: db0d 4c3e 243f a1bd 8346 4bbd ea0b babd
00000110: 2c02 1dbe b246 dcbe 666f 883e 059f 53bd
00000120: a124 003f c692 e2be 6a31 d0bc d499 f8bd
00000130: e585 bf3d 0b1d 17b9 3dfb adbe 13e2 6b3e
00000140: 682e be3e 461e a0be 7994 90be cca9 a53e
00000150: 024d 7a3e e1d4 253e 5917 c7be 87e1 923e
00000160: ee95 f7bd 44bf 013e b00b a6be 3a93 79be
00000170: 6211 b03d 099c 5c3d 824c 91be 5cb4 cfbe
00000180: 2246 3d3d 61d6 b13e 44fd 7dbe 34d0 9a3e
00000190: 8339 593e 9736 893d 2cb3 893e 822d 15be
000001a0: bb4f 9b3c 0e2c cd3e a13a 1ebe 9661 3bbe
000001b0: ddc1 05be e9de 53be 026e e1be f800 34be
000001c0: f61d cbbe 8bd4 b23e f040 a8bd 7c87 1e3e
000001d0: bf77 f0be 6192 7e3e 03ec 2b3c 34fb 60be
000001e0: 338f 263d 3364 bdbe 0400 fe3d d0b7 c2be
000001f0: 0b5b 4f3e 2be7 00be eebf d1be cc30 663d
00000200: 3cb8 053e 9f3b 02be 2b17 7dbd 61e4 c2be
00000210: 713c 8bbd 540a 05be 324a a03e fe16 c9bc
00000220: 8447 cb3e 82c2 ac3d d71d a6be f044 f33c
00000230: d52f 9fbd 30ec 653e 365c 93bd 6aaa 783c
00000240: ed5e af3e 9640 53be 3c38 a2be f914 ccbc
00000250: aed1 35bb 823b 323d 2944 543b 41ea 00bd
00000260: 4463 5dbe 6792 dabd 1ed2 8ebe 4731 973a
00000270: 3435 763e 8684 df3d 5be2 e83c dc8d 85be
00000280: cc5e 6d3e b4a3 4a3e 3ee3 09be f0e0 5b3c
00000290: ca69 e93d 29c2 94bd bd75 0bbe 97ac 35be
000002a0: d27e dd3d 4cfb b43d e117 cdbe c648 bbbd
000002b0: 5fba 28bd 8a09 883e 023d 83be 0a1c 23be
000002c0: 21e9 bbbb 4580 943e 4d14 413e 6124 0c3d
000002d0: 999b 3abe 31da 823e 260d a7be 8607 d0be
000002e0: bd69 0f3e 54ac 3ebe f0bd 2f3b 5087 94be
000002f0: 4f02 d2bd 2fc6 663b d7cb 40be 3315 973e
00000300: 8eb0 363b 2edd 4f3e ab37 34be 023b 29be
00000310: 51e3 753e 7afc 2e3e 4504 38bd d6e4 95bc
00000320: 621e 70bc 692c 983e 7c2e 353d 80f9 b6ba
00000330: 3a99 203e 9817 9ebe 14d3 03bf fdbe 943e
00000340: 2e64 2bbe 46db 6cbe b7a8 91bd c54a 153e
00000350: cf44 903e 439b 583e cde0 5e3e 2956 eb3d
00000360: 226c afbc 2ce2 793e 9772 0fbe 98b4 80be
00000370: fa0b 933c 75a6 58be 82a0 6fbe 7f25 c23b
00000380: a191 023e 3d39 c83c 0961 2c3d d4bf 213e
00000390: 3ecd 3a3e a13f a53e efd6 7a3e 26ad 193e
000003a0: c28d 63be 9cd5 b83d 79cc e2bc 59fb e6bd
000003b0: a96b 7dbe 7ffa 34be 5ac8 e73d 1d06 b6bd
000003c0: c10b e1bc 6b43 5d3e 7f9e 373e ddbf 3b3e
000003d0: 1dcd 5e3d 7c90 753d 6002 4fbe 8fe5 00be
000003e0: 68af 9abe 668f e03d 3a99 03bc 4e05 17be
000003f0: 9c02 a3be e267 8d3e 8c55 31be f48d 673e

action_model._continuous_distribution.mu.bias f4 [39]
0.112794824 0.41247243 0.17695014 0.010391665 0.38994744 0.15546961 -0.15776393 -0.041475434
-0.07381504 -0.082292445 -0.20578645 -0.13852762 -0.12551384 -0.08554992 -0.06729858 -0.024465691
-0.19429688 0.026373928 -0.0035282008 -0.16165991 -0.017912796 -0.0073910286 -0.12402741 0.095437005
0.06875443 0.14483441 0.0633483 -0.053512525 0.025315022 -0.08243748 -0.049331952 -0.016551606
0.23847552 0.09489669 0.04938185 0.22005123 -0.10096883 -0.08716878 0.0073044435
00000000: f900 e73d 962f d33e 6b32 353e cd41 2a3c
00000010: 31a7 c73e 6d33 1f3e de8c 21be 25e2 29bd
00000020: 572c 97bd f188 a8bd afb9 52be 2fda 0dbe
00000030: b386 00be cc34 afbd d7d3 89bd 466c c8bc
00000040: c3f5 46be 230e d83c 6339 67bb 2d8a 25be
00000050: dbbd 92bc 7130 f2bb 1502 febd 7a74 c33d
00000060: 1fcf 8c3d 794f 143e c1bc 813d f32f 5bbd
00000070: 7361 cf3c fbd4 a8bd 4d10 4abd 3c97 87bc
00000080: ed32 743e 3259 c23d 9f44 4a3d 1c55 613e
00000090: bfc8 cebd 8c85 b2bd 1d5a ef3b

action_model._discrete_distribution.branches.0.weight f4 [1, 64]
-0.004113904 0.00071199576 -0.0051657576 0.0015973317 -0.0065309117 -0.001616102 0.011617805 -0.016663967
0.005229845 0.012121913 -0.016139751 0.015688295 -0.012818404 -0.0152499005 -7.1622155e-05 -0.0054149493
-0.0033758727 0.00178129 -0.024873162 0.001676265 0.026273174 -0.016352545 -0.0039732563 0.0033378222
0.000550392 0.0010921917 0.0035488398 -0.02398147 -0.005343237 0.0023545858 -0.0012934417 0.002343998
0.0036374338 0.0040603518 0.013676986 0.012185408 -0.024799243 -0.019117353 -0.003917329 -0.0043205237
-0.00089129567 -0.014314321 0.030757422 0.011156903 0.011079212 -0.003995079 -0.011435932 -0.00910015
-0.016477073 -0.009116074 -0.0055999435 0.0064051687 0.030806864 -0.01960803 -0.013445168 -0.008546233
-0.015625594 -0.009319595 0.00013782659 0.0063163596 -0.0032314998 0.006405165 0.0050996025 -0.028529871
00000000: eecd 86bb 3aa5 3a3a 8445 a9bb 8f5d d13a
00000010: 4201 d6bb 62d3 d3ba 9b58 3e3c df82 88bc
00000020: 1f5f ab3b fd9a 463c 8337 84bc bd84 803c
00000030: 4804 52bc b8da 79bc da33 96b8 e36f b1bb
00000040: bf3d 5dbb 2d7a e93a cdc2 cbbc 1fb6 db3a
00000050: d73a d73c c6f5 85bc 1732 82bb 5dbf 5a3b
00000060: 2f48 103a df27 8f3a a793 683b ca74 c4bc
00000070: 5216 afbb 654f 1a3b b488 a9ba c39d 193b
00000080: 0362 6e3b b30c 853b 7015 603c 4ea5 473c
00000090: c827 cbbc ff9b 9cbc f05c 80bb 2e93 8dbb
000000a0: d7a5 69ba 9d86 6abc fdf6 fb3c 71cb 363c
000000b0: 9585 353c 27e9 82bb c65d 3bbc cc18 15bc
000000c0: edfa 86bc 965b 15bc bb7f b7bb 73e2 d13b
000000d0: ad5e fc3c 05a1 a0bc 1f49 5cbc 8005 0cbc
000000e0: 3f01 80bc 37b1 18bc 8b85 1039 77f9 ce3b
000000f0: 92c7 53bb 6be2 d13b 911a a73b 7ab7 e9bc
