Assets/Ai/newAgent 1.onnx (onnx, 935464 bytes, 15 tensors)

network_body.observation_encoder.processors.0.normalizer.running_mean f4 [55]
0	0x3fb55335	1.4166018
1	0x400ff0bb	2.249068
2	0x3f1a14a7	0.6018776
3	0x00000000	0.0
4	0x40997011	4.79493
5	0x40a6fbdd	5.218245
6	0x40898df3	4.298578
7	0x408eac06	4.458499
8	0x3e608cf6	0.21928772
9	0x3f08707f	0.53296655
10	0x3e1db3eb	0.15400665
11	0x3ee5dd7a	0.44895536
12	0x40a1ee9e	5.060378
13	0x40ddb28a	6.9280443
14	0x40819220	4.0490875
15	0x40cdc690	6.4304886
16	0xbb0ff981	-0.0021968784
17	0x3ad7dfab	0.0016469856
18	0xbbc13e70	-0.0058973357
19	0xbbbcb4f3	-0.0057588755
20	0xb96c0b0e	-0.00022510832
21	0x3b27ea6c	0.0025621904
22	0xbc952b60	-0.01820916
23	0x3a21426b	0.00061515596
24	0x3b315b94	0.0027062641
25	0xbc6999c5	-0.014257853
26	0xbb1cd92a	-0.002393315
27	0xba06be0a	-0.00051400124
28	0xbcb5a6da	-0.022174288
29	0xbaa1f194	-0.0012355321
30	0x39c6c8cc	0.00037915108
31	0xbce91998	-0.028454587
32	0xba7afcb6	-0.00095744
33	0x3aa2ac7a	0.0012411021
34	0xbc37e423	-0.011223826
35	0x39f4c5b3	0.00046686604
36	0xbb3c9454	-0.0028774934
37	0x3b2eac72	0.0026653078
38	0x3a74ca80	0.0009338036
39	0xba2e6851	-0.00066531176
40	0x3c48939f	0.012242227
41	0xbadd2b85	-0.0016873932
42	0x3b98b940	0.0046607554
43	0x3c748bfd	0.014925954
44	0x38b81e15	8.779407e-05
45	0xbb640b45	-0.0034796756
46	0xbd9b6c05	-0.075889625
47	0x3a2f8cfa	0.00066967274
48	0x3a9e6930	0.0012085792
49	0xbce8d309	-0.028420942
50	0x3a9e722c	0.0012088469
51	0xbb1698ce	-0.0022979262
52	0xbc9b8937	-0.018986328
53	0xbabb2718	-0.0014278619
54	0xbae197e4	-0.0017211405

network_body._body_endoder.seq_layers.0.weight f4 [256, 55]
0	0xbe515759	-0.20443477
1	0x3e168f24	0.14703041
2	0x3e357d38	0.17723548
3	0x3d961b9a	0.07329483
4	0x3ca790e7	0.020454837
5	0xbdbc5af5	-0.09197036
6	0x3cd725f3	0.026263213
7	0x3dfa8bf7	0.122337274
8	0xbc2621f3	-0.01013993
9	0x3e260134	0.16211396
10	0x3d9ae3da	0.075629905
11	0xbe21e0f6	-0.15808472
12	0x3ebf705d	0.37390414
13	0xbdc5cb69	-0.09657938
14	0x3dd379d1	0.10325969
15	0x3dee62ea	0.1163996
16	0x3c3db4f5	0.011578788
17	0xbe31eb6b	-0.17374961
18	0x3e22047e	0.15822026
19	0x3d4465cd	0.047948647
20	0xbcfb26a5	-0.030658076
21	0x3e4b3c63	0.19847254
22	0xbe911ef6	-0.28343934
23	0xbd8ad0a1	-0.06778074
24	0xbdbf87c9	-0.09352071
25	0xbcbb0b37	-0.022832496
26	0xbc816000	-0.015792847
27	0xbe1c8872	-0.15286425
28	0x3e23b99d	0.15988775
29	0xbe01d248	-0.12677872
30	0x3dbcc148	0.09216553
31	0xbcc1fb59	-0.023679422
32	0xbc593745	-0.013257806
33	0xbdf532e2	-0.11972596
34	0x3d5baa86	0.05362942
35	0x3dd21d72	0.102595225
36	0x3dcd0086	0.100098655
37	0xbc13c67b	-0.009019489
38	0x3c4a9b21	0.012366087
39	0x3d9ebe15	0.07751099
40	0x3db41d7d	0.08794687
41	0x3d876f44	0.06613019
42	0x3d9c44da	0.0763032
43	0xbe4315ef	-0.19051336
44	0xbe178055	-0.14795049
45	0x3d98a79c	0.07453844
46	0x3e3af9f3	0.1825941
47	0xbe056041	-0.13024999
48	0x3dcb9780	0.09941006
49	0xbdbec2bf	-0.093144886
50	0xbd9e4557	-0.07728069
51	0x3e6f7382	0.23383906
52	0x3e71d75c	0.2361731
53	0x3daa9609	0.08329398
54	0xbdfb1185	-0.12259201
55	0xbe32df15	-0.17467912
56	0x3e091572	0.13387087
57	0xbd97e643	-0.07416966
58	0x3de9e8d9	0.11421365
59	0xbdaf8269	-0.08569796
60	0xbda5b6ef	-0.080915324
61	0xbca4e3f9	-0.020128237
62	0xbdad5488	-0.08463389
63	0x3c33c99e	0.010973362
64	0xbdd903a2	-0.10596396
65	0x3ed71159	0.42005423
66	0xbd242bc7	-0.04008081
67	0x3dc9ccb1	0.09853495
68	0xbdb05bd7	-0.08611267
69	0x3e026252	0.12732819
70	0xbe58dadc	-0.21177238
71	0xbe9ad798	-0.3024261
72	0x3cabf921	0.020992817
73	0x3cbfdaa1	0.02341968
74	0xbe00ad29	-0.12566055
75	0x3ca782cd	0.020448113
76	0x3e851e74	0.25999796
77	0x3bfa45ca	0.007637714
78	0xbe86ad2a	-0.2630399
79	0x3e0c59b2	0.13706091
80	0x3e0a865c	0.13527817
81	0x3deef191	0.11667169
82	0x3c8650f2	0.01639602
83	0x3c49f039	0.01232534
84	0x3db45f30	0.08807218
85	0x3e22e53c	0.15907758
86	0x3e2ecd91	0.17070605
87	0x3dba8cfc	0.09108922
88	0xbce3539e	-0.027749833
89	0x3d215cb8	0.039395064
90	0x3e10495a	0.14090481
91	0xbdac3483	-0.08408453
92	0x3a7e8b59	0.00097100955
93	0x3edf99c5	0.43672004
94	0x3c454506	0.012040382
95	0x3d22c639	0.03973982
96	0xbe5df4bb	-0.21675389
97	0x3e2e2178	0.17004955
98	0x3e410371	0.18848969
99	0xbcf2d37e	-0.029641863
100	0xbdd6c375	-0.10486499
101	0xbe4f1679	-0.20223416
102	0xbb41c6ae	-0.0029567885
103	0xbd670085	-0.05639698
104	0x3e8e76a1	0.27824882
105	0xbdf0b860	-0.11753917
106	0xbd05a580	-0.032628536
107	0xbd40c583	-0.04706336
108	0xbdcc0b3e	-0.09963082
109	0x3e2a639e	0.16639563
110	0x3d348178	0.044068784
111	0x3e639fdb	0.22228949
112	0x3c40899e	0.0117515605
113	0x3c827b7b	0.01592802
114	0xbe2348d5	-0.15945752
115	0x3d849eab	0.06475576
116	0xbe359243	-0.17731576
117	0xbe0576f3	-0.13033657
118	0x3d56d4db	0.05244909
119	0xbee99ea9	-0.4562886
120	0x3c20e4db	0.009820188
121	0xbe0227e6	-0.12710533
122	0xbeb8dc30	-0.3610549
123	0x3d410606	0.047124885
124	0x3c6cc015	0.014450093
125	0xbd8352b6	-0.0641226
126	0x3ea1533d	0.31508818
127	0x3e582735	0.21108706
128	0x3e72f04b	0.23724477
129	0xbda55c6a	-0.08074267
130	0x3d23ef41	0.040023092
131	0x3e9a8f52	0.3018747
132	0xbe1b4d80	-0.15166283
133	0xbd9a4350	-0.0753237
134	0xbe04b448	-0.12959397
135	0x3d8260db	0.0636613
136	0x3de770f0	0.11300838
137	0x3e0b3f5e	0.13598391
138	0xbdc51824	-0.09623745
139	0xbd6c1112	-0.057633467
140	0x3d07af53	0.033126187
141	0xbe475db6	-0.19469342
142	0xbe86a14e	-0.2629494
143	0x3d5f6d33	0.0545475
144	0x3e15f82a	0.14645448
145	0xbe0d44d2	-0.13795784
146	0xbdffa4c5	-0.12482599
147	0x3e36c748	0.17849457
148	0xbe8c8099	-0.27441862
149	0x3cebfefe	0.028808113
150	0x3e1fcb7a	0.15604964
151	0xbe204a84	-0.15653425
152	0x3c179729	0.009252348
153	0x3e4c2d4b	0.19939153
154	0xbe53ccba	-0.20683566
155	0xbcf7da4f	-0.030255465
156	0x3d99c0c8	0.07507473
157	0xbd8805a7	-0.06641703
158	0x3dbc351c	0.09189817
159	0xbc6989f4	-0.014254082
160	0xbe331017	-0.17486607
161	0xbdeb0b8d	-0.114768125
162	0xbe17722e	-0.1478965
163	0xbe52e97a	-0.20596877
164	0xbe028871	-0.12747361
165	0xbe113e79	-0.14183988
166	0xbe3cb40d	-0.18428059
167	0xbdec73c6	-0.115455195
168	0x3e3b824e	0.18311426
169	0xbdeb04fd	-0.11475561
170	0x3e2b2e51	0.16716887
171	0x3e89bf68	0.26903844
172	0x3e1a58cd	0.15072937
173	0xbba4efbc	-0.0050334614
174	0xbd294a62	-0.041330703
175	0x3d53ad64	0.05167903
176	0xbe233d1f	-0.15941285
177	0x3df66804	0.12031558
178	0x3e35d71b	0.17757837
179	0xbd78fb70	-0.060786664
180	0x3e43aefc	0.1910972
181	0xbd47fc25	-0.04882445
182	0xbc9a9873	-0.018871522
183	0x3e3c54fd	0.18391795
184	0xbe2c2542	-0.16811088
185	0x3e17f097	0.14837871
186	0xbe656e03	-0.22405247
187	0x3d08f786	0.03343918
188	0xbcef65a5	-0.029223273
189	0x3d19e174	0.037568524
190	0x3d784cba	0.060620047
191	0xbc8d32ac	-0.017236076
192	0xbe805899	-0.25067595
193	0x3deb8ad0	0.11501086
194	0x3d6f5287	0.058428314
195	0xbda749a5	-0.081683435
196	0xbe859bf1	-0.26095536
197	0xbe2cdc2d	-0.16880865
198	0xbe61c4b9	-0.220477
199	0x3e1a5950	0.15073133
200	0x3e2a82d8	0.16651475
201	0x3df0c27d	0.11755846
202	0xbd91d8b3	-0.0712141
203	0xbe523f11	-0.2053187
204	0x3e1fab4c	0.15592688
205	0x3d14bd93	0.036313605
206	0x3ce3b657	0.027796907
207	0xbdcc0c04	-0.09963229
208	0x3d9bbd80	0.07604504
209	0xbd2795f4	-0.04091449
210	0xbdf2e478	-0.11859983
211	0x3c9dfb05	0.019284735
212	0xbd2141c3	-0.039369356
213	0x3de7e420	0.11322808
214	0xbc104a19	-0.008806729
215	0x3c8669f1	0.016407939
216	0xbc98a69a	-0.01863413
217	0x3d2c18e3	0.04201592
218	0xbe1596ef	-0.14608358
219	0x3ec0021d	0.37501612
220	0xbdc9ea89	-0.09859187
221	0xbe601452	-0.21882752
222	0xbd9a4f7a	-0.0753469
223	0x3e4ec31c	0.20191616
224	0x3c7a35db	0.015271629
225	0xbdae8f29	-0.085233994
226	0x3b87ebdf	0.004147991
227	0x3e5b85a2	0.21437696
228	0x3da2d89d	0.07951472
229	0x3e3a5dd7	0.1819986
230	0xbe5df738	-0.21676338
231	0x3e28452d	0.16432638
232	0xbe16c2b7	-0.14722715
233	0xbdfe8d45	-0.12429289
234	0xbcf8d246	-0.030373704
235	0xbe20b5bf	-0.1569433
236	0xbd08e629	-0.033422623
237	0x3dd274da	0.10276194
238	0xbdb8b0d9	-0.09018106
239	0x3d76e78f	0.060279425
240	0xb786392d	-1.600067e-05
241	0xbbb8d94c	-0.005641138
242	0xbe4fa09b	-0.2027611
243	0x3db0c523	0.08631351
244	0xbda47456	-0.08030002
245	0x3e018df8	0.12651813
246	0xbc6f006a	-0.014587501
247	0xbdb6313b	-0.08896109
248	0x3dd5cc69	0.10439379
249	0x3db33658	0.087505996
250	0x3de8cd89	0.11367328
251	0x3d8d0185	0.068850555
252	0xbeb69351	-0.35659268
253	0xbe2893ad	-0.16462584
254	0x3cdecdc0	0.027197719
255	0x3cba8af9	0.022771345

network_body._body_endoder.seq_layers.0.bias f4 [256]
0	0x3ca37b82	0.019956354
1	0xbc537841	-0.012907089
2	0xbb9ac43e	-0.004723101
3	0xbc920188	-0.017822996
4	0x3c905891	0.017620357
5	0xbc7bdd9e	-0.015372662
6	0x3bdb6ca5	0.006696301
7	0xbc136a82	-0.008997561
8	0xbc1fa3f9	-0.009743684
9	0x3bd01935	0.006350661
10	0x3c410977	0.011782042
11	0x3bd4b1ab	0.0064909062
12	0xbb906091	-0.004406043
13	0x3aa39033	0.0012478888
14	0xb9713444	-0.00023003021
15	0xbc3b4b8e	-0.011431588
16	0x3a5deb9f	0.0008465591
17	0xb9516937	-0.00019970989
18	0x3c758eb2	0.0149876345
19	0xba43267c	-0.0007444394
20	0xbb7c7ea8	-0.0038527641
21	0xbc0c09dd	-0.008547273
22	0xb9de3293	-0.0004238082
23	0xbb9126fe	-0.004429697
24	0xbbbebce9	-0.0058208597
25	0xbc19405f	-0.009353726
26	0xbbc790d1	-0.0060902615
27	0x3995df1c	0.00028585724
28	0x3bd02e70	0.006353192
29	0xbc0f43ef	-0.008744224
30	0xbbe6bd52	-0.0070416117
31	0xbcd8e0a1	-0.026474299
32	0xbb715e35	-0.0036829833
33	0x3c2d6300	0.0105826855
34	0x3c8cd0b3	0.01718936
35	0x3c2bd7f9	0.010488504
36	0xbc7e55ed	-0.015523416
37	0x3cafee71	0.021476002
38	0x3bd8a311	0.006611236
39	0xbc136dce	-0.008998347
40	0x3bbd13eb	0.0057701967
41	0x3b69d326	0.0035678833
42	0xbc3f0320	-0.01165846
43	0xbb95570e	-0.004557497
44	0x3bb45fd4	0.0055045877
45	0x3c0bf3f9	0.008542054
46	0xbc58c6c3	-0.013230982
47	0xbc6c5ad6	-0.014425954
48	0x39a5340f	0.0003151004
49	0xbb95ac18	-0.0045676343
50	0xbd2cc31c	-0.04217826
51	0xbc136d13	-0.008998173
52	0xbc6b6966	-0.014368391
53	0xbc73c473	-0.01487838
54	0x3ba9698f	0.0051700543
55	0xbb3f1f33	-0.0029162883
56	0xbc4f49ed	-0.012651903
57	0x3c37a460	0.011208624
58	0xbc3bec04	-0.011469845
59	0x3c37d79a	0.011220837
60	0x37effdc9	2.8609198e-05
61	0x3c946ed4	0.018119253
62	0xbc91bebf	-0.01779115
63	0xbae75a71	-0.0017650855
64	0x3b95f9c0	0.0045768917
65	0x3c80ada1	0.015707793
66	0x3b177854	0.0023112493
67	0xbc2142fa	-0.009842629
68	0xbb82d360	-0.003992483
69	0xbbb1a625	-0.0054214173
70	0xbb0ffc32	-0.0021970388
71	0xbbbd32ef	-0.005773894
72	0x3c2bb32c	0.01047973
73	0xbcbe1b2f	-0.023206322
74	0x3b91749d	0.00443895
75	0xbb681eb7	-0.0035418698
76	0xbbc089d9	-0.0058758077
77	0xbbc132f4	-0.0058959667
78	0xbc5cba5b	-0.013472165
79	0xbbf3c34b	-0.007439052
80	0xbc928d26	-0.01788957
81	0xbcd86aba	-0.026418079
82	0x3ba6d5a5	0.0050913864
83	0x3bdceba2	0.006741957
84	0x3b3059fe	0.0026909108
85	0x3c5725c6	0.0131315645
86	0x3b4ce62f	0.003126513
87	0x3c67fb3a	0.014159018
88	0xbcd9e02b	-0.02659615
89	0x3c857c30	0.016294569
90	0x3cacf5d1	0.021113308
91	0xbc9c332c	-0.01906737
92	0xba9152e9	-0.0011087331
93	0xbc98361d	-0.01858049
94	0xbc6956ab	-0.014241855
95	0x3a3fc1cb	0.0007314949
96	0xbc263023	-0.010143313
97	0xbc44db02	-0.012015106
98	0xbc1d6e60	-0.009608835
99	0x3c6a5854	0.014303286
100	0x3caf7200	0.021416664
101	0x3c779649	0.015111514
102	0x390e00e7	0.00013542511
103	0xbc13ad16	-0.009013435
104	0x3bc145bd	0.005898206
105	0xbc2f0c09	-0.010684022
106	0x3b8e2160	0.0043374747
107	0x3c809c4f	0.015699534
108	0xbc186623	-0.009301695
109	0x3b375e6b	0.0027979861
110	0xbb89c0de	-0.0042038998
111	0xbc24ce04	-0.010058884
112	0xb98a27d5	-0.00026351088
113	0x3bafd8ce	0.0053664213
114	0xbc182650	-0.009286478
115	0x3ba213f7	0.0049462277
116	0xbc58637d	-0.013207314
117	0x3c3245ad	0.01088087
118	0xbbceab52	-0.006307044
119	0xb98784c6	-0.0002584813
120	0x3b1fb11a	0.0024367035
121	0x3ca2da91	0.019879611
122	0x3b05741e	0.00203634
123	0xbcac7179	-0.021050202
124	0x3b827101	0.0039807563
125	0xbc8a9529	-0.016916828
126	0x3c3c59d4	0.011496026
127	0xbc1460f2	-0.009056317
128	0x3c4d2a5a	0.012522304
129	0x3c124a1f	0.008928805
130	0xbc595b5f	-0.0132664135
131	0x39a92bac	0.0003226673
132	0x3c55e4a2	0.013054999
133	0xbc955c13	-0.018232381
134	0x3b2bd730	0.002622079
135	0x3c9cffc9	0.019164937
136	0x3c6b5349	0.014363118
137	0xbbcd3290	-0.006262131
138	0xbcb06fdf	-0.02153772
139	0x3a32a825	0.00068152166
140	0xbc17c271	-0.009262667
141	0xbbf3778a	-0.0074300217
142	0x3bc5d459	0.0060372767
143	0x3a131f5e	0.0005612279
144	0x3b6cc7a4	0.0036129737
145	0xbbdfea00	-0.006833315
146	0xbc1cfe52	-0.009582119
147	0xb9dd709f	-0.00042236314
148	0x3c25e09d	0.010124353
149	0x3b16d268	0.0023013595
150	0xbc190320	-0.009339124
151	0xb9a3e454	-0.000312599
152	0xbc706125	-0.014671599
153	0x3b09dcda	0.0021036179
154	0x3c2943d6	0.010331115
155	0x3a2a2a05	0.0006491247
156	0x3c81e34b	0.015855452
157	0xbbe6e22c	-0.0070460048
158	0x3cc6eae0	0.024281919
159	0xba538f72	-0.0008070386
160	0xba142aca	-0.0005652128
161	0x3b4bf603	0.0031121976
162	0x3c5e3cc0	0.013564289
163	0xbca86e71	-0.020560475
164	0xbb9843f2	-0.0046467716
165	0xbc101b82	-0.008795621
166	0xb94030dc	-0.00018328748
167	0xbc768362	-0.015045973
168	0xbbb448c7	-0.00550184
169	0xbc0742f6	-0.008255711
170	0xbaaba51b	-0.001309547
171	0x3c084a0c	0.008318435
172	0x3c32fb54	0.010924179
173	0xbb815646	-0.003947052
174	0x3c5134fc	0.01276898
175	0x3c80bedb	0.015716007
176	0xbbce0a9b	-0.0062878854
177	0xbbf772f4	-0.0075515453
178	0xbc4e584f	-0.012594297
179	0xbc924968	-0.017857268
180	0xbbd8f157	-0.006620567
181	0x3c32b956	0.010908445
182	0x3bd99b6a	0.0066408413
183	0xbbd057bf	-0.0063581164
184	0xbcccbe75	-0.02499316
185	0xbb7e00bf	-0.003875777
186	0xbbf3823b	-0.007431296
187	0xbc47ddaa	-0.012198845
188	0x3c1d939e	0.009617714
189	0x3c74d381	0.014943005
190	0xbcf4c068	-0.029876903
191	0x3b680da3	0.0035408519
192	0x3ba6bbab	0.0050882897
193	0x3bc53232	0.0060179466
194	0x3a272b60	0.0006377008
195	0xbc0c0c54	-0.008547861
196	0xbc19990e	-0.00937487
197	0xbcb3c5ff	-0.021944998
198	0xbccd1109	-0.025032537
199	0xb9f2ec21	-0.00046333767
200	0x3b482738	0.0030540954
201	0x3b87910f	0.0041371654
202	0x3a20e137	0.0006137075
203	0xbb448f17	-0.0029992515
204	0x3c81df1f	0.015853463
205	0x3b775666	0.0037740706
206	0x3c0c2572	0.0085538495
207	0x3baada31	0.0052139987
208	0x3c48020b	0.012207518
209	0x3bb1a2c6	0.0054210154
210	0x3c03ab29	0.008036413
211	0xb8d1abe9	-9.9979174e-05
212	0x3c0a8ad5	0.008455952
213	0xbc1ee8a9	-0.009699025
214	0x3c76ac28	0.015055694
215	0x3c1f2cac	0.00971524
216	0x3bdd136d	0.0067467005
217	0xbcaaff57	-0.020873709
218	0x3c31436e	0.010819299
219	0x3c7b93bf	0.01535505
220	0x3ca0af4e	0.019614842
221	0x3b39771e	0.002829976
222	0xbc845b56	-0.016156834
223	0x3c86fd83	0.016478306
224	0xbbb28652	-0.005448141
225	0xbaf456f9	-0.0018641643
226	0x3c5f5a83	0.0136324195
227	0xbc294061	-0.0103302905
228	0xbbc5733d	-0.0060257004
229	0x39c8c898	0.00038296427
230	0x3c188453	0.009308892
231	0xbc15cf93	-0.009143728
232	0x384a1aaa	4.8185386e-05
233	0xbaf5dd18	-0.0018757908
234	0xbc5cfc32	-0.013487862
235	0x3b9e2d3e	0.0048271706
236	0xbc7622f4	-0.015022982
237	0xb9c0cbc4	-0.0003677291
238	0x3bf8d772	0.0075940425
239	0xbc78e92e	-0.015192313
240	0xbba240ed	-0.0049515874
241	0x3bc1320f	0.00589586
242	0xbc71a445	-0.014748638
243	0xbc92e1b7	-0.017929895
244	0x3c577cec	0.013152342
245	0xbbbc87c7	-0.0057534906
246	0xbba874f1	-0.0051408936
247	0x3c3b00d1	0.011413769
248	0x3c3e2f57	0.011607966
249	0x398231ea	0.0002483272
250	0x3cd7affe	0.026329037
251	0x3c29a700	0.010354757
252	0xbbc4c4e7	-0.006004918
253	0xbc16dccc	-0.0092079155
254	0xbc1939e6	-0.009352183
255	0x3ba27e15	0.004958878

network_body._body_endoder.seq_layers.2.weight f4 [256, 256]
0	0xbd3420fd	-0.043976773
1	0xbb1951b7	-0.0023394653
2	0xbc940106	-0.018066894
3	0xbdfb8c4c	-0.12282619
4	0x3dd331c8	0.103122294
5	0xbdd915ea	-0.10599883
6	0x3a81a4e0	0.0009891056
7	0xbcdc7a43	-0.026913768
8	0x3cd72af0	0.026265591
9	0xbc0dc733	-0.00865345
10	0xbdb92aa3	-0.090413354
11	0x3c92f253	0.017937815
12	0x3ced0d62	0.028937045
13	0x3d26eb8f	0.04075199
14	0x3c8f4e12	0.017493282
15	0xbd81260d	-0.06306086
16	0xbd804e6d	-0.062649585
17	0xbc5b30a0	-0.013378292
18	0x3d35b010	0.04435736
19	0xbd41b5f4	-0.047292665
20	0xbe35f079	-0.17767514
21	0x3a903807	0.0011003026
22	0xb79f46f0	-1.898731e-05
23	0x3d3855b6	0.045003615
24	0xbd6fee46	-0.058576845
25	0xbddcb079	-0.10775847
26	0x3dbaf743	0.09129193
27	0x3da6a3ec	0.08136734
28	0x3cb35bae	0.021894302
29	0x3c7631af	0.015026494
30	0x3c0832f0	0.008312926
31	0x3cab91e4	0.02094359
32	0x3d982afe	0.07430075
33	0xbd78f1c9	-0.06077746
34	0x3c235281	0.009968401
35	0x3df83172	0.12118806
36	0xbd936dce	-0.07198678
37	0x3c3ba375	0.011452545
38	0xbe0ff197	-0.14057003
39	0x3cfb09c1	0.0306443
40	0x3d712cdf	0.058880683
41	0xbd8e0015	-0.069336094
42	0xbd64ecfd	-0.055890072
43	0x3d3051fd	0.04304694
44	0xbde89c1e	-0.11357902
45	0xbd836c6d	-0.06417165
46	0x3e172c52	0.14763
47	0xbdd5184e	-0.104050264
48	0x3cbc5ca7	0.022993399
49	0xbcd64298	-0.026154801
50	0x3d88400e	0.066528425
51	0x3d4081da	0.046998836
52	0xbd98b53c	-0.07456443
53	0x3e0787bb	0.13235371
54	0xbcfe588e	-0.031048086
55	0xbc7ace82	-0.015308024
56	0xbd09ac8d	-0.033611823
57	0x3d3b9df4	0.045804933
58	0x3db8f3e7	0.09030896
59	0x3ccec4ce	0.025240328
60	0x3d116359	0.035495136
61	0x3db2791f	0.08714508
62	0xbd042401	-0.0322609
63	0x3dffb16c	0.124850124
64	0x3d777b39	0.06042025
65	0xbdeeba4c	-0.11656627
66	0x3cee55a9	0.02909358
67	0x3c3a0a05	0.011354928
68	0xbdafecae	-0.08590065
69	0xbcfa5391	-0.030557426
70	0x3cf6bcc3	0.030119305
71	0xbd9bcc8b	-0.07607373
72	0x3dbb361f	0.09141182
73	0xbc8031be	-0.015648719
74	0x3de477d7	0.1115567
75	0x3d264af4	0.040598825
76	0xbd941b76	-0.072318
77	0xbe6173f8	-0.22016895
78	0xbdda3b0d	-0.10655794
79	0x3e3bcd36	0.1834
80	0x3ac47a02	0.0014989974
81	0x3c2b5023	0.010456118
82	0x3d31cdbd	0.043409098
83	0xbd305542	-0.04305006
84	0x3cad4c94	0.02115468
85	0xbdf95db8	-0.121760786
86	0x3cc41afa	0.023938645
87	0x3e0a7a1e	0.13523147
88	0x3cda185c	0.026622944
89	0xbdec18b5	-0.1152815
90	0xbcc186b2	-0.023623798
91	0x3c41a144	0.011818234
92	0xbcbf55b3	-0.023356294
93	0x3d166564	0.036717787
94	0x3dd06680	0.101758
95	0x3dbaf031	0.09127844
96	0x3d87167c	0.065960854
97	0x3d1fedbc	0.03904508
98	0x3d5fc618	0.054632276
99	0xbc8a340f	-0.016870527
100	0xbc3fbd12	-0.011702793
101	0x3d78e970	0.0607695
102	0xbe2d8b1a	-0.16947594
103	0x3c17c9dd	0.009264437
104	0x39ee2f9c	0.0004543037
105	0x3d280518	0.041020483
106	0x3d84b64e	0.06480084
107	0x3da6049b	0.08106347
108	0xbd1b3e34	-0.03790112
109	0x3c3020a0	0.010749966
110	0x3dae939a	0.085242465
111	0xbce63e57	-0.028105898
112	0x3d084c4d	0.03327589
113	0x3d8ccf23	0.06875446
114	0x3d15338b	0.03642611
115	0xbc142a65	-0.009043311
116	0x3d7b0aec	0.061289713
117	0xbb92bf87	-0.0044783982
118	0xbd4e592f	-0.05037802
119	0x3d2043d3	0.039127182
120	0xbe0a225a	-0.13489667
121	0xbbc4e906	-0.006009224
122	0x3dc6cda6	0.09707193
123	0xbc9901cc	-0.018677615
124	0xbc1c2660	-0.009530634
125	0x3dbbfa3f	0.0917859
126	0xbd091d22	-0.03347505
127	0x3db7c2b5	0.08972684
128	0x3ce6504d	0.028114462
129	0x3caa0218	0.020752952
130	0xbd8e61b8	-0.06952232
131	0xbaed9a28	-0.0018127607
132	0xbe045c2c	-0.12925786
133	0xbcd5bce8	-0.026091054
134	0x3d1e8f7b	0.038711052
135	0x3b7d56e6	0.0038656532
136	0xbccded2e	-0.02513751
137	0xbc5be40e	-0.013421072
138	0xbcd99d3e	-0.026564237
139	0xbde6498d	-0.112444974
140	0x3d93b3af	0.07212006
141	0x3d8c6fc4	0.06857255
142	0x3c228058	0.009918295
143	0xbc510bae	-0.012759132
144	0xbcbf8a9c	-0.023381524
145	0x3cac2afa	0.021016587
146	0x3c9b8c19	0.018987702
147	0xbe0025b4	-0.12514383
148	0x3d2d5387	0.042315986
149	0xbb3f1b82	-0.0029160683
150	0xbdc6076c	-0.09669384
151	0xbd8e44cb	-0.06946715
152	0xbd4eaa13	-0.050455164
153	0x3d88797d	0.06663797
154	0x3cdf45a8	0.027254894
155	0xbdebafd8	-0.11508149
156	0xbd121737	-0.03566667
157	0xbcfe262c	-0.031024061
158	0xbc881083	-0.016609436
159	0xbb70ccdb	-0.0036743197
160	0x3dc3255d	0.09528611
161	0xbd74680e	-0.059669547
162	0xbac16674	-0.0014755265
163	0x3d6e66aa	0.058203377
164	0x3e0127b8	0.12612808
165	0xbd1871f7	-0.03721806
166	0x3bea5d27	0.007152218
167	0xbd99d64a	-0.075115755
168	0x3dd3649b	0.10321923
169	0xbc826c38	-0.015920743
170	0xbdd8935e	-0.10574983
171	0x3d7c2376	0.061557256
172	0xbd7d99b7	-0.061914172
173	0xbd47cf81	-0.048781876
174	0x3aff21df	0.001946505
175	0x3d330f9d	0.04371606
176	0x3db74155	0.08948008
177	0xbbd5fdbc	-0.0065304916
178	0x3c1b7ef7	0.00949072
179	0x3e1a374e	0.1506016
180	0xbb87aeba	-0.004140702
181	0x3db63cc9	0.088983126
182	0x3d5ca9fa	0.05387304
183	0xbcc2efd0	-0.023795992
184	0x3b8b1e56	0.0042455597
185	0x3c4e4083	0.012588623
186	0x3caf585e	0.021404441
187	0xbcc23994	-0.023709096
188	0xbd7e5623	-0.062093865
189	0x3e39f1ef	0.18158697
190	0xbcbe90ed	-0.023262465
191	0xbcdfd5a4	-0.027323551
192	0x3e3bf004	0.18353277
193	0xbc3330d0	-0.010936931
194	0x3d3334c1	0.043751482
195	0xbcb60e48	-0.022223607
196	0xbdec05d1	-0.11524547
197	0x3c644cdf	0.013934343
198	0x3d5eb9eb	0.054376524
199	0xb985fb7c	-0.00025555107
200	0x3d9b4179	0.07580847
201	0xbd8d8098	-0.06909293
202	0xbde2c19f	-0.110720865
203	0x3d95678f	0.07295143
204	0x3cb71d87	0.022352947
205	0xbd844b4d	-0.06459675
206	0xbd4bab95	-0.04972418
207	0xbbc018ee	-0.005862347
208	0x3c7c241a	0.015389467
209	0x3ce11013	0.027473485
210	0x3d61fa61	0.05517042
211	0xbd3f6bb6	-0.04673358
212	0x3cba2bc1	0.022725942
213	0xbb5cb8a3	-0.0033679388
214	0x3cf5160d	0.029917741
215	0x3d8dbc0b	0.06920632
216	0x3e31bedd	0.17357965
217	0x3e3f9c1e	0.18711898
218	0x3cb5fc6f	0.022215096
219	0x3c75d2cb	0.01500387
220	0xbdc53e44	-0.09631017
221	0xbde8ae48	-0.113613665
222	0x3e078beb	0.13236968
223	0x3d019eea	0.031645693
224	0xbc12f77f	-0.0089701405
225	0x3bd62fa4	0.006536441
226	0x3d3a015f	0.045411464
227	0xbd3a6f73	-0.045516443
228	0x3d267740	0.04064107
229	0x3d866b1c	0.06563398
230	0x3c0b25c1	0.008492888
231	0x3df24bf2	0.11830892
232	0xbc28abfd	-0.010294911
233	0x3e1a0803	0.15042119
234	0xbd90eb9b	-0.07076188
235	0xbd892192	-0.06695856
236	0xbc340cd6	-0.010989388
237	0x3d5a8e0c	0.053358123
238	0xbddf7667	-0.10911255
239	0x3d037969	0.032098208
240	0x3dbda459	0.092598625
241	0xbcc9611e	-0.024582442
242	0xbd1fb967	-0.038995173
243	0xbbf2881c	-0.0074014794
244	0xbd133c0a	-0.03594593
245	0xbd2228f8	-0.039589852
246	0xbc42ca2d	-0.011889023
247	0x3d02695f	0.03183877
248	0xbd677163	-0.05650462
249	0xbca5e700	-0.020251751
250	0xbd2e46d3	-0.042548012
251	0xbdb605c5	-0.08887819
252	0xbd15e1be	-0.036592238
253	0x384f4a90	4.9422088e-05
254	0xbac4b943	-0.0015008826
255	0x3c51c53b	0.012803371

network_body._body_endoder.seq_layers.2.bias f4 [256]
0	0x3c1fcdc2	0.009753646
1	0xbc0b54ca	-0.008504102
2	0x3c218b0b	0.009859811
3	0xbbbb5c85	-0.0057178163
4	0xbb98c6b2	-0.004662358
5	0x3c5b8a27	0.013399637
6	0xbb672eed	-0.0035275773
7	0x3b3618ed	0.0027785853
8	0xbbc19e5b	-0.00590877
9	0xba4f9c9f	-0.00079197617
10	0x3b8cc91d	0.0042964355
11	0x3c524844	0.012834612
12	0x39b35fa3	0.00034212795
13	0x3abfc11c	0.0014629695
14	0xbb95e876	-0.0045748306
15	0xbc4220d6	-0.011848649
16	0x3b44a1e9	0.0030003733
17	0x3afc11a7	0.0019231335
18	0x3ae2022b	0.0017243078
19	0xbbd338b7	-0.00644597
20	0x3b2d133f	0.0026409177
21	0xbb7f72d9	-0.0038978367
22	0xba47dd3b	-0.00076242135
23	0xbc4910eb	-0.0122721
24	0x3be70f05	0.007051351
25	0xbb0dc978	-0.0021634977
26	0xba760106	-0.0009384308
27	0x3c7e64e7	0.015526987
28	0x3b730592	0.0037082178
29	0x3b7e1f2e	0.0038775909
30	0x39d14ec5	0.00039922274
31	0xbaf71c80	-0.0018853098
32	0x3b1f6d6e	0.00243267
33	0x3b05f108	0.0020437855
34	0xbb04aca0	-0.0020244494
35	0xbc4f0810	-0.0126362
36	0xb9d69efa	-0.00040935708
37	0x3bc3d09a	0.005975795
38	0x3b25bbf3	0.0025289028
39	0xbc02bba3	-0.007979306
40	0xbc41e702	-0.011834862
41	0x3b260ed4	0.0025338428
42	0x3af3ef3a	0.0018610724
43	0xbbbff2ce	-0.005857802
44	0xb9ef4cb0	-0.0004564277
45	0x3c3583a4	0.011078749
46	0xb842c709	-4.643857e-05
47	0x3c328da2	0.010898026
48	0xbb5527ff	-0.003252506
49	0xbbaf9d81	-0.005359352
50	0x39c17ead	0.0003690621
51	0x3bfe9b7a	0.007769999
52	0xbb5f2b08	-0.0034052748
53	0x3b8a13d7	0.004213791
54	0x3acabcaa	0.0015467603
55	0xbbbc7f8b	-0.005752509
56	0xbbe9bcea	-0.007133116
57	0x3b274b3c	0.002552702
58	0xbb885892	-0.004160949
59	0xbc3f3d49	-0.011672326
60	0xbc900680	-0.017581224
61	0xbc1f4644	-0.0097213425
62	0xbc8bb141	-0.017052295
63	0xbb29f746	-0.002593474
64	0x3c688ab2	0.014193224
65	0xb9f52d9e	-0.0004676403
66	0xbb9906e0	-0.004670009
67	0xbc1fe782	-0.009759786
68	0x3c1d4ed2	0.009601312
69	0xbc1a905a	-0.00943383
70	0x3cb04657	0.021517916
71	0x3ac7ad5e	0.0015234163
72	0x3aff9215	0.0019498492
73	0xbb0c016a	-0.0021363148
74	0x3b550cb3	0.003250879
75	0x3b237b58	0.0024945345
76	0xbb9afb19	-0.00472964
77	0x3b6b876e	0.0035938877
78	0x3b04d8f4	0.0020270916
79	0xbb1636de	-0.0022920887
80	0xbb8c3a4c	-0.0042794105
81	0x3c47d53d	0.012196836
82	0x3b120822	0.002228268
83	0x3c9888e3	0.01861996
84	0x3ad2c48b	0.0016080303
85	0xbb8f22ca	-0.004368161
86	0xbbbb41b7	-0.005714621
87	0x3c17de55	0.009269317
88	0x3c76af4e	0.015056444
89	0xbb82ae51	-0.0039880653
90	0x3bb431fa	0.0054991217
91	0x3b4f397a	0.0031619952
92	0xbba0653e	-0.0048948815
93	0x39cbbcdf	0.00038859897
94	0x3bcb3511	0.0062013944
95	0x3b451b6f	0.0030076166
96	0x3bf22716	0.0073899133
97	0xbb7403e2	-0.003723376
98	0xbb0c0eb7	-0.0021371075
99	0xbc5171d9	-0.012783491
100	0xba21e167	-0.000617525
101	0x3bafa1f9	0.005359885
102	0x3bfb666e	0.0076721227
103	0x3c9c319d	0.019066626
104	0xbbbfae3a	-0.005849627
105	0x3b9c535d	0.00477068
106	0xbba9a871	-0.0051775505
107	0x3c468522	0.012116702
108	0x3c82c499	0.015962886
109	0x3a0e017f	0.0005417093
110	0x3c278fdd	0.010227171
111	0x3c025154	0.00795396
112	0x3a805453	0.0009790756
113	0x3c09db3d	0.008414087
114	0x3c16c31c	0.009201791
115	0x3c545a8f	0.012961044
116	0x3c1cfd50	0.009581879
117	0x3b988ede	0.004655703
118	0xbc1b1069	-0.009464362
119	0xbc194061	-0.009353728
120	0x3a582a5e	0.00082460593
121	0x3c018d93	0.007907289
122	0x3b69e1de	0.0035687606
123	0x398d6900	0.00026971847
124	0x3b1f1a7f	0.0024277268
125	0xbb39931a	-0.002831644
126	0x3b8426fe	0.0040329685
127	0x3c9d8797	0.019229693
128	0x3c0031b1	0.007824347
129	0x3c208057	0.009796224
130	0x3ba73df4	0.005103821
131	0xbaa8ff2a	-0.0012893428
132	0x3b68a6b5	0.0035499756
133	0xbbbf012c	-0.005828997
134	0x3ba61e7e	0.005069553
135	0xbc1bdfa8	-0.009513773
136	0x3b205b07	0.002446832
137	0x3c7f94bd	0.015599427
138	0x3c164600	0.009171963
139	0x3afe7a88	0.0019415179
140	0xb9b79a2a	-0.0003501934
141	0xbc15b0a7	-0.0091363555
142	0x3c2ffe38	0.010741763
143	0x3bb7fdb7	0.005614962
144	0x3c01f784	0.0079325475
145	0xbc3f95a6	-0.011693394
146	0x3be5ab73	0.0070089637
147	0x3b1ee3c7	0.0024244653
148	0x3b2c568b	0.00262967
149	0xba8cb937	-0.0010736351
150	0x3b31d5ff	0.0027135608
151	0x3bb5a461	0.005543277
152	0x3b7f52fe	0.003895938
153	0xbc13bb45	-0.0090168165
154	0x3c82d084	0.015968569
155	0x3a044c59	0.0005046777
156	0x3b41d8eb	0.0029578756
157	0x3c414d87	0.011798269
158	0x3b33539c	0.0027363067
159	0x3c22bbfc	0.009932514
160	0x3b37fca8	0.002807418
161	0x38c673ec	9.462968e-05
162	0x3adc165f	0.0016791335
163	0x3c9c79c8	0.019101039
164	0x3c38fee5	0.01129124
165	0xbbca618b	-0.006176179
166	0x38d8ef0d	0.00010344209
167	0x3babc233	0.005241656
168	0x3be5a524	0.0070082117
169	0x3b6aa4df	0.0035803837
170	0xbb3142d1	-0.0027047882
171	0xbb2efc7c	-0.0026700785
172	0xba785a13	-0.00094738713
173	0x3bf7fce6	0.0075679896
174	0xbbcccba2	-0.006249861
175	0x3ad0a30e	0.0015917735
176	0x3c5602c4	0.013062183
177	0x3c0e2a0f	0.00867702
178	0x3c987677	0.018611176
179	0xbaab93ed	-0.001309035
180	0x3beb2bc9	0.0071768505
181	0xbca2c8d5	-0.019871155
182	0x382f0bd9	4.1734285e-05
183	0x3c9af7a4	0.018916912
184	0x3c27bc22	0.010237725
185	0x3c39ca08	0.011339672
186	0x3a9cc093	0.0011959247
187	0x39f13edc	0.00046013936
188	0x3b4d1431	0.0031292553
189	0x3c75c861	0.015001387
190	0x3b84be2b	0.00405099
191	0xbc032b37	-0.008005909
192	0xbbace094	-0.0052757952
193	0x3b31e1a4	0.002714255
194	0x3b948ba8	0.00453325
195	0xbbb857db	-0.0056257076
196	0xbbb67440	-0.0055680573
197	0x3b2822df	0.002565555
198	0xbac5ceae	-0.0015091503
199	0xbadfb875	-0.0017068522
200	0xb9e0167a	-0.00042741356
201	0x3b16e894	0.002302681
202	0xbbe99f28	-0.0071295686
203	0x3c0b0dc3	0.008487168
204	0x3c1ad4b0	0.009450123
205	0x3b8908fb	0.0041819788
206	0xbb8a0a8c	-0.004212683
207	0x3c191fe3	0.009345981
208	0x3c235780	0.009969592
209	0x3c674edb	0.014117922
210	0xbb2e2dff	-0.0026577709
211	0xbc69f784	-0.014280204
212	0xbb9d4a5d	-0.0048001246
213	0x3bed5dd7	0.0072438526
214	0x3b78599f	0.0037895215
215	0xbc30ff70	-0.010803089
216	0xbc83d9c0	-0.016095042
217	0xbb4b80a7	-0.0031052025
218	0x3a95580e	0.001139404
219	0xbc0fa505	-0.008767371
220	0x3bc229a1	0.0059253727
221	0xbafbe6aa	-0.0019218524
222	0x3b4ddb3a	0.0031411187
223	0x3a847e08	0.0010108361
224	0x3b77b68e	0.003779802
225	0x3b983d66	0.004645991
226	0xbc449597	-0.011998556
227	0x3c351cf7	0.011054269
228	0x3ba9030f	0.0051578353
229	0xbb488262	-0.0030595292
230	0x39b49706	0.00034444797
231	0x3ac9fad6	0.0015409838
232	0x3a7c516c	0.000962517
233	0xbba3f53a	-0.0050035985
234	0x3c6ac48f	0.01432909
235	0x3c5f7a5e	0.013640014
236	0x3c013ff9	0.007888787
237	0xbc46ab42	-0.012125792
238	0x3b58f477	0.0033104697
239	0x3bc4ca74	0.0060055796
240	0xbca57550	-0.02019754
241	0xbb8e15af	-0.004336081
242	0x3c336382	0.0109490175
243	0x3b4c65e0	0.0031188652
244	0x3c0bcf58	0.008533321
245	0x3b30ebb6	0.0026995963
246	0x3ada6eff	0.001666516
247	0xbabf8a8a	-0.0014613431
248	0xbb2d9720	-0.0026487783
249	0xbb60ddf1	-0.0034311975
250	0x3a12a270	0.0005593663
251	0x3c1d3415	0.009594937
252	0x3ac4ac6e	0.0015005001
253	0x3b9d676a	0.0048035877
254	0xbbdd529b	-0.006754232
255	0xbabe8827	-0.0014536426

network_body._body_endoder.seq_layers.4.weight f4 [256, 256]
0	0x3d8328da	0.06404276
1	0xbda0b57f	-0.07847118
2	0x3da4cb0a	0.08046539
3	0x3d7eb5a3	0.06218494
4	0xbe074256	-0.13208899
5	0x3c86ff23	0.01647908
6	0xbd00e3dc	-0.031467304
7	0x3d3215dd	0.04347788
8	0x3de42a1d	0.11140845
9	0xbc937072	-0.017997954
10	0xbdaedd62	-0.08538319
11	0x3d23a8e1	0.039955977
12	0x3d5d195d	0.053979266
13	0xbd13f16e	-0.036118917
14	0xbc524227	-0.012833155
15	0xba8e675c	-0.0010864544
16	0xbe01070c	-0.12600344
17	0x3ad04ad5	0.0015891442
18	0x3d35b4bc	0.044361815
19	0xbe03e0a3	-0.12878661
20	0xbc1c9f95	-0.009559532
21	0xbd8cb89d	-0.0687115
22	0x3c341ee6	0.010993695
23	0x3c9aebdb	0.018911293
24	0xbe10fd6c	-0.14159173
25	0x3d402f2a	0.04691998
26	0xbda65679	-0.08121962
27	0x3df84df1	0.12124241
28	0x3cff3159	0.03115146
29	0x3dc68dfa	0.09695049
30	0x3dd9eebb	0.10641237
31	0xbdc3fc63	-0.09569623
32	0xbd5a0e9b	-0.053236585
33	0x3c8e4a60	0.01736945
34	0xbd6e4932	-0.058175273
35	0x3dd5bde0	0.104366064
36	0xbca98862	-0.020694915
37	0xbdc78246	-0.097416446
38	0xbc5b9f10	-0.013404623
39	0xbd77697c	-0.060403332
40	0x3cdcb0ca	0.026939768
41	0xbda88f16	-0.082304165
42	0xbd9e0fb0	-0.07717836
43	0x3d684eeb	0.056715887
44	0xbda55ac0	-0.0807395
45	0x3d80b17a	0.06283851
46	0xbd85e14c	-0.065371126
47	0x3ce5c435	0.02804766
48	0xbad835fa	-0.0016495578
49	0xbd9b9afc	-0.0759792
50	0x3d62cdc8	0.05537203
51	0x3d1a2aae	0.03763836
52	0xbd1c4e03	-0.038160335
53	0x3cd036b2	0.025416706
54	0xbd8cd3d8	-0.068763435
55	0xbd004ae6	-0.03132143
56	0xbd8d5625	-0.069011964
57	0xbddecbb1	-0.10878695
58	0x3d4f886d	0.050667215
59	0x3cd8ca1c	0.02646356
60	0x3c8fbd7e	0.017546412
61	0xbd339966	-0.043847464
62	0x3d0db353	0.034594845
63	0xbd3c3b0f	-0.04595476
64	0x3d9ed925	0.07756261
65	0x3cb82c29	0.022481995
66	0x3d92a89e	0.071610674
67	0xbceb855c	-0.028750114
68	0xbc9a3459	-0.01882379
69	0x3cf69f5c	0.030105285
70	0xbd8dc3ef	-0.06922137
71	0xbe08ca83	-0.13358502
72	0xbd69616a	-0.056977667
73	0x3d1b8d2a	0.03797642
74	0x3e143cf8	0.14476383
75	0xbd7b3969	-0.061334047
76	0xbe43e235	-0.1912926
77	0x3d33ee2b	0.043928307
78	0x3da59cf2	0.080865756
79	0x3c49aabf	0.012308775
80	0x3d24a42a	0.04019562
81	0x3d50e04a	0.05099515
82	0x3d30f151	0.043198887
83	0x3e20814d	0.15674324
84	0xbe027c32	-0.12742689
85	0x3cc16df5	0.023612002
86	0xbcb09356	-0.02155463
87	0x3d242ca7	0.040081646
88	0xbc3d1221	-0.011539967
89	0xbda83e89	-0.08215053
90	0x3a0965a0	0.00052412786
91	0x3d8de20e	0.06927882
92	0xbccaf193	-0.024773395
93	0xbd1c014e	-0.03808718
94	0xbda2095f	-0.07911944
95	0xbd805739	-0.062666364
96	0x3adbac9a	0.0016759813
97	0x3d78a6b4	0.060705855
98	0x3d7da82e	0.061927967
99	0xbd057c3c	-0.032589182
100	0xbd1d96e7	-0.03847399
101	0xbca275bc	-0.01983153
102	0x3d9c4290	0.07629883
103	0x3d49fabd	0.04931139
104	0xbca078ad	-0.019588793
105	0xbd4917cb	-0.049094956
106	0x3c6ba247	0.014381952
107	0xbda2e9bd	-0.07954738
108	0xbca8d520	-0.020609438
109	0x3e176b07	0.14786921
110	0x3c6d06af	0.0144669255
111	0x3dd1f8d1	0.10252536
112	0xbc21bde8	-0.009871937
113	0x3d17b20a	0.037035026
114	0x3a82d3f0	0.0009981375
115	0xbc2ffe38	-0.010741763
116	0x37300eb8	1.04938445e-05
117	0x3d06df2a	0.03292767
118	0xbd75886b	-0.05994455
119	0xbd853dd2	-0.06505932
120	0xba63eeda	-0.00086949544
121	0x3e03ed0a	0.12883392
122	0x3dd9e903	0.106401466
123	0xbccfcdbc	-0.025366656
124	0x3c084de7	0.008319355
125	0xbd319df1	-0.043363515
126	0x3cc06629	0.023486214
127	0xbd1cb2d3	-0.038256478
128	0x3d24a3c5	0.040195245
129	0xbd459e68	-0.04824677
130	0x3df308f2	0.118669406
131	0x3d9f0c15	0.07765976
132	0xbd8ac1e0	-0.0677526
133	0xbd89956c	-0.06717953
134	0xbd8ceba9	-0.06880886
135	0x3e285439	0.16438378
136	0x3dafc32b	0.08582147
137	0xbd403af2	-0.046931215
138	0xbdb3d331	-0.08780516
139	0x3d8b6dd9	0.06808061
140	0x3db9f971	0.0908078
141	0xbcb3433c	-0.021882646
142	0xbd094466	-0.033512495
143	0x3cb15599	0.021647261
144	0x3d91b8fa	0.071153596
145	0x3d943206	0.07236104
146	0x3a1daaf4	0.00060145487
147	0x3cc38ff4	0.023872353
148	0xbe6a5a50	-0.22886014
149	0xbd1610ae	-0.036637
150	0x3c021af4	0.007940996
151	0x3c309a72	0.01077901
152	0x3c9a23b3	0.01881585
153	0x3b0f348e	0.0021851393
154	0x3ced9005	0.028999338
155	0x3d089bcd	0.03335171
156	0x3d0ab6a0	0.03386557
157	0xbd041c3d	-0.032253493
158	0x3d8f8bfb	0.07009121
159	0xbc97477f	-0.01846671
160	0x3de001c2	0.10937835
161	0x3d5519cf	0.052026566
162	0xbe085c5f	-0.13316487
163	0x3cf36515	0.029711286
164	0xbcc78354	-0.024354614
165	0x3d95609a	0.07293816
166	0x3c639fce	0.013893081
167	0xbd21953c	-0.03944896
168	0xbb0d0c72	-0.002152231
169	0xbbce8a53	-0.0063031106
170	0x3d6fa4ec	0.05850689
171	0xbca531f6	-0.020165425
172	0xbc476311	-0.012169615
173	0x3d805141	0.06265498
174	0xbdbad361	-0.091223486
175	0xbd6df0cf	-0.05809098
176	0x3d593f2f	0.053038772
177	0x3d48c263	0.049013507
178	0xbd0189bc	-0.031625494
179	0xbb49513a	-0.003071858
180	0xbb3ced1e	-0.0028827856
181	0xbd784639	-0.060613845
182	0x3d125fcd	0.035735894
183	0xbe3256c0	-0.17415905
184	0x3d7cf741	0.061759237
185	0x3e022821	0.1271062
186	0xbdbece76	-0.09316723
187	0xbd4a88c4	-0.049446836
188	0xbbc85463	-0.0061135753
189	0xbd5904e1	-0.05298317
190	0xbd19d75e	-0.037558906
191	0xbd85c702	-0.06532098
192	0xbc6cefaf	-0.014461442
193	0x3dcd2f77	0.10018819
194	0x3dac6d42	0.08419277
195	0x3d63e2b8	0.055636138
196	0xbdaaa869	-0.08332903
197	0xbd3b3031	-0.045700256
198	0x3d6b5d28	0.057461888
199	0x3d0c160a	0.034200706
200	0x3c8ab9bc	0.016934268
201	0x3d8adf5f	0.06780886
202	0x3e090a74	0.13382894
203	0xbd3e1708	-0.046408683
204	0x3dd3d886	0.10344033
205	0xbc10169b	-0.008794452
206	0x3d56c4e5	0.052433867
207	0xbd834966	-0.06410484
208	0x3da7013a	0.08154531
209	0xbd848de3	-0.06472375
210	0xbca2e5ba	-0.019884933
211	0xbc5800e6	-0.013183808
212	0x3d9a3beb	0.0753096
213	0x3d082b18	0.033244222
214	0x3daf7c90	0.0856868
215	0x3d90356a	0.07041438
216	0x3da0c7f4	0.07850638
217	0xbdc07330	-0.0939697
218	0xbc8dc2e1	-0.01730484
219	0x3dc48717	0.09596079
220	0x3db63317	0.08896463
221	0xbc44dde9	-0.012015798
222	0x3e037d1c	0.12840694
223	0xbd17452b	-0.036931198
224	0x3d8d1a8b	0.06889828
225	0x3afd7c31	0.001933938
226	0x3d0cf404	0.0344124
227	0xbca3e711	-0.020007642
228	0x3b628a69	0.0034567362
229	0xbd3212b3	-0.043474864
230	0xbd90247a	-0.07038207
231	0xbd84cba9	-0.064841576
232	0xbd56279a	-0.05228386
233	0xbd72220c	-0.0591145
234	0x3d108617	0.035284128
235	0x3d4217d4	0.047386006
236	0x3d8a3720	0.067487955
237	0xbd8601cd	-0.06543312
238	0x3d32a36d	0.043612886
239	0x3bbcee8a	0.0057657408
240	0xbdeef5a2	-0.116679445
241	0xbb044abf	-0.0020186154
242	0xbc1c923d	-0.00955635
243	0xbdf0d29f	-0.11758923
244	0xbd5004cd	-0.05078583
245	0x3db77871	0.08958519
246	0xbc8ec06f	-0.017425744
247	0xbc96fb9d	-0.018430525
248	0xbc1ba493	-0.009499687
249	0xbdbc8fee	-0.0920714
250	0xbdc041a0	-0.09387517
251	0xbcb013d8	-0.021493837
252	0x3afdcc2e	0.0019363218
253	0x3dd6981e	0.10478233
254	0x3c024294	0.007950444
255	0x3e25f6bc	0.16207403

network_body._body_endoder.seq_layers.4.bias f4 [256]
0	0x3c0d853b	0.008637722
1	0x3c24a9d9	0.01005026
2	0x3c2ed9c7	0.010672039
3	0xbcf756a2	-0.030192677
4	0x3c7f7b12	0.015593307
5	0xbbd74576	-0.0065695597
6	0x3be86f8b	0.007093375
7	0x3b9dfd40	0.0048214495
8	0x3bed497d	0.0072414265
9	0x3c1ce28c	0.009575497
10	0x3c8836b0	0.01662764
11	0xbbbb60af	-0.0057183127
12	0x3b9373d1	0.0044998904
13	0x3b5b1ab5	0.0033432667
14	0xbbf1e8cb	-0.0073824874
15	0x3c2f947a	0.010716552
16	0x3ae79a67	0.0017669917
17	0x3c6af18e	0.014339818
18	0x3c8d5f58	0.017257378
19	0x3c27b19e	0.010235218
20	0x399ae53e	0.00029543968
21	0x3c1aa1e7	0.009438015
22	0x3c03566e	0.008016212
23	0x3c18e585	0.0093320655
24	0x3c3dd0bc	0.011585411
25	0x3c116873	0.008875
26	0x3b13b792	0.0022539836
27	0xbc6b1192	-0.014347451
28	0x3c03dc73	0.008048165
29	0x3b941f2c	0.0045203175
30	0xbb85530f	-0.0040687392
31	0x3c9ba861	0.019001188
32	0x3ba07cde	0.004897698
33	0xbbd6e3ee	-0.006557933
34	0x3b8de738	0.004330542
35	0x3c1163ff	0.008873939
36	0x3c33c6e2	0.01097271
37	0xbc133c7a	-0.008986587
38	0xbc20ff99	-0.009826564
39	0xbc832445	-0.016008506
40	0xba8226e5	-0.0009929804
41	0xba58dbea	-0.0008272516
42	0x3b323a84	0.0027195523
43	0x3c8791f0	0.01654908
44	0xbb98354e	-0.0046450263
45	0xbab44399	-0.0013753056
46	0xbc0a1f15	-0.008430262
47	0x3bc1ff92	0.005920359
48	0x3c3f2751	0.011667089
49	0x3b51f089	0.003203424
50	0x3c0c4027	0.008560217
51	0x3a9ba2a9	0.0011874038
52	0x3b68c5cc	0.0035518287
53	0xba8987d5	-0.0010492752
54	0x3affb3a8	0.0019508498
55	0xbc1c3570	-0.009534225
56	0x3c609dbd	0.013709483
57	0xbba5ec67	-0.0050635817
58	0x3b5606db	0.0032657895
59	0xbb41116b	-0.0029459845
60	0x3b615cb3	0.0034387528
61	0xbbcc56cc	-0.006235933
62	0xbba8805b	-0.0051422543
63	0x3a8ca0f9	0.0010729126
64	0xbb9b9ff6	-0.0047492934
65	0x3c162169	0.009163239
66	0xbc30237a	-0.010750646
67	0x3ca374d3	0.019953167
68	0xbc7f9fb2	-0.015602039
69	0x3c43306f	0.011913403
70	0xbc00f090	-0.007869855
71	0x3b9829ec	0.0046436694
72	0xbbda394c	-0.0066596624
73	0xbafb5fc1	-0.0019178317
74	0x3a897cf3	0.0010489508
75	0x3c17c8e2	0.009264203
76	0xbc207ca2	-0.00979534
77	0x3aff859f	0.0019494778
78	0x3c872455	0.016496817
79	0x3c041485	0.008061533
80	0x3b60ac28	0.00342823
81	0xb9d053bf	-0.00039735247
82	0x3bb41770	0.005495958
83	0x3c38bab7	0.011274985
84	0x3c7e64dd	0.015526977
85	0xbbff0759	-0.0077828583
86	0xbaa719b4	-0.0012748749
87	0xbbfed2c6	-0.007776591
88	0xbbf6ca72	-0.0075314576
89	0x3ad24111	0.001604112
90	0x3a913b33	0.0011080265
91	0xbc1abf22	-0.009444984
92	0x3c8303b9	0.015992986
93	0xbc081b49	-0.008307287
94	0x3c16fe7e	0.009215949
95	0x3be04673	0.0068443357
96	0x3c4a81d0	0.012360051
97	0xbb605526	-0.003423044
98	0xbc2780e4	-0.010223601
99	0xbb2b31db	-0.0026122245
100	0x3c61abd0	0.013773873
101	0x3c5238c2	0.012830915
102	0x3a0db340	0.00054054335
103	0x3c0145ba	0.007890159
104	0xbc7e8290	-0.015534058
105	0xbc97f74d	-0.01855054
106	0x3c812145	0.015762934
107	0x3b60ab9c	0.0034281975
108	0xbc22a45a	-0.00992688
109	0x3c2f73b5	0.010708739
110	0xbcb21bb4	-0.021741726
111	0x3bf754af	0.007547937
112	0xbbb22566	-0.005436587
113	0x3c834142	0.016022328
114	0x3c4a63f5	0.012352933
115	0xbaa62b61	-0.0012677723
116	0x3c85bcf4	0.016325451
117	0x3a9f3db1	0.0012149123
118	0x3c8c7e6a	0.017150123
119	0xbb1cde40	-0.0023936182
120	0x3bc79401	0.0060906415
121	0x3c38c51b	0.011277462
122	0xbc5acbb5	-0.013354232
123	0xbbbf2838	-0.005833652
124	0x3b7a4324	0.0038186992
125	0x3aa16e9f	0.0012316293
126	0x3c0d8c75	0.008639445
127	0x3c732b83	0.014841917
128	0x3c093b38	0.008375935
129	0x3ba7ec4f	0.0051246057
130	0xbc68c9f6	-0.0142083075
131	0x3b3ac9ba	0.0028501586
132	0x3c1a9e2c	0.009437125
133	0x3c292737	0.010324291
134	0x3c9ba08d	0.018997455
135	0x3c3ee618	0.011651538
136	0x3ca07098	0.019584939
137	0x3b6ea97f	0.0036416946
138	0x3b217910	0.002463881
139	0x3bfe0e32	0.007753157
140	0xbb580a51	-0.0032965133
141	0x3ce59dfc	0.028029434
142	0xbbc3bc0b	-0.005973344
143	0xb82e7ff3	-4.1603995e-05
144	0xbc65033f	-0.013977825
145	0x3b9886e2	0.004654751
146	0xbb919e34	-0.004443908
147	0x3bfb7486	0.007673803
148	0xbb59a20a	-0.0033208155
149	0x3c95f193	0.018303668
150	0xbb063a12	-0.002048139
151	0x3bc55db5	0.0060231336
152	0xbbae3e84	-0.005317511
153	0x3c039446	0.008030957
154	0x3cca94ac	0.024729095
155	0xbb08d840	-0.0020880848
156	0x3c69ced3	0.014270502
157	0x3be2f6c2	0.0069263885
158	0x3bb3a53b	0.0054823435
159	0x3c3e3b87	0.011610872
160	0xbbfe26c8	-0.007756088
161	0x3c9b5467	0.018961145
162	0xbc2ff8b0	-0.010740444
163	0xbc83ef03	-0.01610518
164	0xbb6c1e07	-0.003602864
165	0xbbc277c6	-0.0059346883
166	0x3c233344	0.009960953
167	0x3cb1f92d	0.021725262
168	0x3c748203	0.014923575
169	0xbbe6c8ee	-0.0070429957
170	0xbc3e4c1d	-0.0116148265
171	0x3c0c3b96	0.008559128
172	0x3bd9c43e	0.0066457083
173	0x3a283a47	0.00064173754
174	0xbbeb2c9a	-0.007176948
175	0x3bfc01b5	0.007690633
176	0x3c7c3f62	0.015395971
177	0xbb483fda	-0.0030555637
178	0x3cb20e9f	0.021735488
179	0xbbf88070	-0.0075836703
180	0x3c45a390	0.012062922
181	0xbc735564	-0.014851902
182	0x3c6221d2	0.013802009
183	0x3bcdd01d	0.0062809126
184	0x3bc27738	0.005934622
185	0xbba66d46	-0.0050789444
186	0x3b19ddc3	0.0023478128
187	0x3aac3b97	0.0013140318
188	0x3b801fd4	0.003910044
189	0x3caa1187	0.02076031
190	0xbc1c7a72	-0.009550678
191	0xbbca0e80	-0.0061662793
192	0xbc8ba092	-0.01704434
193	0xbb8d83fe	-0.004318713
194	0xbb20a8a6	-0.0024514585
195	0xbc7e1c9b	-0.01550975
196	0xbc4896d4	-0.0122429915
197	0x3be0b990	0.0068580583
198	0x3b8c99f3	0.004290813
199	0xbc84b491	-0.016199382
200	0xbc293085	-0.010326509
201	0x3c536737	0.012903026
202	0x3c18d975	0.00932919
203	0xbc27a560	-0.0102323
204	0xbb489f30	-0.0030612461
205	0x3c055735	0.008138468
206	0xba6ec49a	-0.00091082754
207	0xba59ae8c	-0.00083039026
208	0xbaad4c43	-0.001322158
209	0xbbaf4c2b	-0.005349656
210	0x3b6edf44	0.0036448995
211	0x3b248767	0.002510512
212	0xbaad6011	-0.0013227483
213	0x3c4afee5	0.012389873
214	0xbc9a805c	-0.018860035
215	0x3c857d1e	0.016295012
216	0xbc511f72	-0.012763845
217	0xbc53e1b8	-0.0129322335
218	0x3c5cb98b	0.013471971
219	0x3b9f065c	0.004853053
220	0xbc470159	-0.012146317
221	0x3c6bc8b0	0.014391109
222	0x3c305f46	0.010764902
223	0x3b6b67bd	0.0035919987
224	0x3bf6edb5	0.007535661
225	0xbca5217d	-0.02015757
226	0x3cd58c27	0.026067806
227	0x3b987b3d	0.004653363
228	0x3bf476fe	0.007460474
229	0x3bb7d5c3	0.005610199
230	0xbba67e0c	-0.005080944
231	0xba54143a	-0.0008090172
232	0x3bf69e1c	0.0075261723
233	0xbb6cf867	-0.0036158802
234	0x3b753e6f	0.0037421247
235	0x3bab0c2a	0.005219956
236	0xbae9aa32	-0.0017827211
237	0x3b4d96aa	0.003137032
238	0x3b7e4f09	0.0038804433
239	0x3b597f0e	0.0033187303
240	0x3b65f8c4	0.0035090903
241	0x3bc1b951	0.005911984
242	0x3c3a7123	0.011379513
243	0x3be62972	0.0070239836
244	0x3c610f84	0.013736609
245	0x3bb9cb16	0.0056699617
246	0xb9c7f9ce	-0.00038142357
247	0xbc7bfb66	-0.015379762
248	0x3ccb04e2	0.024782602
249	0x3b13fe8f	0.0022582149
250	0xbc71dec6	-0.014762586
251	0xbc1eeac9	-0.009699532
252	0x3c04657f	0.008080839
253	0x39aede28	0.00033353386
254	0xbb9db42f	-0.0048127393
255	0x3bb8052d	0.0056158514

action_model._continuous_distribution.log_sigma f4 [1, 39]
0	0x3dc76a2e	0.09737049
1	0x3d8458fe	0.064622864
2	0x3da12adb	0.07869502
3	0x3df05712	0.11735357
4	0x3d8df2b9	0.06931061
5	0x3e11d52c	0.14241475
6	0xbbc0c83c	-0.005883245
7	0x3d91e4dc	0.071237296
8	0x3dceb9a4	0.10094002
9	0x3de70c69	0.11281664
10	0x3dc82c34	0.09774056
11	0x3db7181b	0.08940145
12	0x3b130f65	0.0022439596
13	0x3d83791a	0.06419583
14	0xbdad6475	-0.08466426
15	0xbc8e8871	-0.017399045
16	0x3dfe67d8	0.124221504
17	0x3d67d17c	0.056596264
18	0x3dce216c	0.100649685
19	0x3df39877	0.11894315
20	0x3d879900	0.06620979
21	0xbaad8f3d	-0.0013241541
22	0x3ddb4b1b	0.107076846
23	0x3d4831db	0.04887567
24	0x3c3f8da0	0.011691481
25	0x3d5c2fad	0.053756405
26	0xbd8737a2	-0.06602408
27	0xbe104160	-0.14087439
28	0x3de21177	0.110384874
29	0xbe8da57c	-0.27665317
30	0x3d571e17	0.05251893
31	0x3db8e750	0.09028494
32	0x3daa3277	0.08310407
33	0x3d25d3be	0.040485136
34	0x3dff34db	0.12461253
35	0x3dd10754	0.10206476
36	0x3d034e3b	0.03205703
37	0x3dba113b	0.09085318
38	0x3e13f740	0.14449787
