Assets/Ai/newAgent.onnx (onnx, 935464 bytes, 15 tensors)

network_body.observation_encoder.processors.0.normalizer.running_mean f4 [55]
00000000: 5562 613f 6ab9 833f d6d8 053f 6ba3 d22f
00000010: 29a0 9d40 d9d9 bb40 d8eb 4440 d90e 8340
00000020: be25 3a3e e81f 3d3e e254 113e 6893 1c3e
00000030: 65cf 8a40 e3dd cd40 be72 8a40 b671 e340
00000040: 4d75 d9bc 25d5 86bb dc76 203c 4425 21bc
00000050: ea13 423b 623e e7bb 15b6 2cbd 8500 733a
00000060: 9aaf 323c 4637 6cbc 6f57 8b3b 104e fabb
00000070: 39de 3cbc 85bc 5b3a 7563 7cba 6fd5 983c
00000080: cbf4 d33a f5ac 953b a41c 1e3d 7b35 b8bb
00000090: 1254 3dbc 9298 10bd c39a 44bb 4e26 3b3b
000000a0: 5862 0f3c 4f0b dfba 3482 113a 8457 a13c
000000b0: 8e20 503b a06f 5fba 9241 9dbd 0d90 1cba
000000c0: 85a7 923c e50c 17bd 0ecc 1b3b f5ac 7c3b
000000d0: 0b51 3dbd a685 1a3b d97f 6bbb
0.8804067 1.0290959 0.5228399 3.8314893e-10 4.925801 5.8703427 3.0768948 4.0955625
0.1817846 0.18469203 0.14192536 0.15290606 4.3378167 6.433336 4.3265066 7.1076307
-0.026545191 -0.0041147643 0.009793963 -0.009835545 0.002961392 -0.007056997 -0.042165834 0.0009269792
0.0109061245 -0.014417475 0.0042523663 -0.0076387003 -0.011527591 0.00083822786 -0.00096278574 0.01865646
0.0016170976 0.004567737 0.038601533 -0.0056216097 -0.011555688 -0.035301752 -0.0029999472 0.0028556767
0.008751474 -0.001701692 0.0005550713 0.019695051 0.0031757685 -0.00085234083 -0.07678522 -0.0005972393
0.017902145 -0.03687753 0.002377275 0.003855524 -0.046219867 0.0023578196 -0.0035934357

network_body._body_endoder.seq_layers.0.weight f4 [256, 55]
00000000: 233b e83c 41a1 103e a4b0 bebd fe83 163e
00000010: e4d3 e3bd 7726 05be 8251 1f3e 2b3d 15be
00000020: faf9 b5bd 38c5 2ebe 8bb8 16bd 0445 b83d
00000030: 47a0 e9bd a67b bc3d e4e6 833c 2766 313e
00000040: e01b 173e 02f8 1fbc 57a9 aabd d118 2dbe
00000050: 8cb8 7bbb 28b2 323e aea5 4c3d f578 083e
00000060: 83dc 5ebe f682 47be c465 923d a7e0 02bd
00000070: 09c8 09be 5276 35be fd73 b33b 6b1d 17bd
00000080: c4f1 f8bd d726 83be 1f19 f13d 52be 673b
00000090: df95 2ebe 22e7 b53d c825 463e 237b 0c3e
000000a0: 7974 b83d 38ef 8bbe dda9 0fbe fd74 1dbf
000000b0: 6ad6 83be 0cca 46be ba37 e73c 9b0a 3bbe
000000c0: 74d3 12be 06ba 01be 3cbb 1b3e 6ba9 f9bc
000000d0: c3f0 babd 813a c1bd 97c2 363e c522 2cbe
000000e0: e870 713e 152b 5abd 3b3f 5d3c 3207 15be
000000f0: 0edb 163e 2c24 5d3d ccf8 1a3e 8a67 93bd
00000100: c74a 14bd f4f5 a33d 8ad8 993e 9419 853d
00000110: 86d1 1d3e a805 8e3d 5a77 843d 2ce4 a13e
00000120: 5c57 66be 0f65 273d e0ee a03c 195d 253e
00000130: 3fdc 823d 1fb3 83be 387c 9e3e e18b 13be
00000140: 478e 9abd 99a3 4c3d 13cf 0b3e d304 ba3d
00000150: f0db c4bd b54d 8a3e 3301 0cbe bc37 ebbd
00000160: febf 073d f85d 2bbe 0596 803d f910 483e
00000170: f881 c3bd 0222 1d3e 4a2c 1dbe 7b8a df3d
00000180: 8d21 0c3c 7796 573e 498c cabd 266e fabc
00000190: e09d 02be a995 5f3d d2be 31bd 1683 123c
000001a0: 2b8e 8ebd 22c6 8a3e 0201 cb3d 68f5 503e
000001b0: bbf8 863d b0f5 c0bd 60f1 d5bd 0413 023b
000001c0: 2d8a 223e 7961 e53d eb9f 73bd ca72 c83d
000001d0: 9354 81bd dd94 19bd 3dd6 27bd 5d60 133c
000001e0: d124 04be 6763 c4bd afab ab3c f4fa 5e3d
000001f0: fd92 7f3e 7e34 bfbe 6fbf a1bd 1514 823e
00000200: efc5 b33c 7651 51be 0d95 9e3e 9944 3fbe
00000210: d516 4b3d 618f 1cbd 5df2 30bc 1c11 21be
00000220: d8d2 a33d 0865 03be 4bc4 9e3d ee1b a8bb
00000230: 17fe 5fbd 3b4f 45be 30d8 09bc dfcc e8bc
00000240: b76e 0f3d 2a01 c1bd d268 873d daa9 45bd
00000250: d0b3 4a3e 71c0 933e 153e 163a 9a65 7f3e
00000260: 56aa 00be 3cc4 b6bd f836 9b3e 66e6 593e
00000270: f02b acbe f16d 29bd 38a6 f93c ca4e 243e
00000280: ccb2 cc3d a604 0d3e 7a91 d63d 8bbc 603e
00000290: 915c cc3d 1027 11be 4699 8ebd 11a7 123e
000002a0: 5f42 563d ab28 a63d 3db6 32bd 7c8b 25be
000002b0: dcff ebbd f780 ac3d 7b0b a13e 0b67 c4bd
000002c0: a9ea 863c 0536 d53e 9e87 fd3b 83f8 57be
000002d0: a7fc bbbc 5c22 903e e993 d8bc 7097 98bd
000002e0: b845 c13d eebd 5e3e 1c15 513e 03bc a3bd
000002f0: 9b2d 523d 70f3 053e 5a55 23bc 44d0 22be
00000300: aa51 0cbd 5a73 5b3d 086f 7bbe 9947 0a3e
00000310: a430 a9bc 4a13 f03c 2ca6 30bd d54f a73d
00000320: 2a94 f9bd 89d8 c63d e22f 53be 9c3f 99be
00000330: eec6 0ebe 7a7f 97be 3e98 3abe cdab b9bd
00000340: 7e94 edbc 105d bebc 5e42 7dbe 2ce0 5a3e
00000350: 0cff 803e 19eb 613e 6139 46be 86b7 babd
00000360: 1681 8abe 15a2 bf3d feed 1abe 6293 dd3c
00000370: b2d7 49bd 09cf 1a3e 127b 34bd 512b 7ebe
00000380: e4dc 8cbd a4bb 933d 9e0c 09bd 9fc7 063e
00000390: db78 a2be f666 b43d 6037 10bb 5ce5 8c3d
000003a0: 8cdb 17be 7b02 ac3e b6b0 4dbd 2890 823c
000003b0: 36a9 3c3e 8574 9ebd 9c0a 40be 0202 55bd
000003c0: a2fb 323d 7fd3 883e ed6b edbc 23d5 5c3e
000003d0: cf6f e8bc 6136 863e 422d 303e a5be b9bd
000003e0: ed20 f4bd c9dd 683b d98d 293e 2357 163e
000003f0: 3a88 29be 5fad 7f3e 4d02 b8be 48d3 2d3c
0.028348511 0.14124013 -0.09311035 0.14698789 -0.11124399 -0.13002954 0.15558437 -0.14574115
-0.0888557 -0.1706742 -0.036797088 0.08997539 -0.114075236 0.092032716 0.016101308 0.17324124
0.14756727 -0.0097637195 -0.0833308 -0.16903998 -0.003840956 0.17450774 0.049962692 0.13327391
-0.21763806 -0.19483551 0.071483165 -0.031952526 -0.13455214 -0.17720917 0.0054764734 -0.03689329
-0.12155488 -0.2561557 0.117723696 0.0035361242 -0.17049359 0.08881976 0.1935035 0.13718848
0.090065904 -0.27330947 -0.14029641 -0.61506635 -0.25749522 -0.19413012 0.028224815 -0.18265764
-0.14338475 -0.12668619 0.15208143 -0.030476293 -0.09127953 -0.09434987 0.17847668 -0.16810139
0.23578227 -0.053263742 0.013503845 -0.14553526 0.14732 0.053989574 0.15133971 -0.07197483
-0.036204126 0.08005896 0.3004802 0.06499019 0.15411958 0.069346726 0.06468077 0.31619394
-0.22494262 0.04086786 0.019645154 0.16148795 0.06389665 -0.25722596 0.30954146 -0.14408828
-0.075466685 0.049960706 0.13653211 0.090829514 -0.09612262 0.2701241 -0.13672332 -0.1148524
0.033142082 -0.16735065 0.06278614 0.19537725 -0.09546274 0.15345004 -0.15348926 0.10915085
0.008552921 0.21053492 -0.098900385 -0.030570101 -0.12755537 0.054586086 -0.04339487 0.008942386
-0.0696071 0.27104288 0.099123016 0.20406115 0.0659041 -0.09421861 -0.10446429 0.001984776
0.15873022 0.11200232 -0.05947868 0.09787519 -0.063149594 -0.037495483 -0.040975798 0.008995143
-0.1290467 -0.09589272 0.020955889 0.054438546 0.24958415 -0.37344736 -0.07897841 0.25405946
0.021944968 -0.20441231 0.30973092 -0.18678512 0.04958232 -0.038222674 -0.010799971 -0.15729183
0.079992 -0.12831509 0.07752284 -0.0051302826 -0.05468568 -0.19268505 -0.0084133595 -0.028418003
0.035017695 -0.0942405 0.0661179 -0.048257686 0.19795156 0.2885776 0.0005731297 0.24941102
-0.12564978 -0.089241475 0.30315375 0.21279296 -0.33627272 -0.041364614 0.030474767 0.1604568
0.0999504 0.13771304 0.10476966 0.21946923 0.09978593 -0.14175057 -0.06962828 0.14321543
0.05230939 0.081132255 -0.043630827 -0.1616649 -0.11523411 0.084230356 0.3145407 -0.095899664
0.016469317 0.41642776 0.007737114 -0.21090893 -0.022947622 0.28151214 -0.026437717 -0.074507594
0.09437126 0.2175214 0.20418209 -0.07994845 0.051313024 0.13081145 -0.00996908 -0.1589976
-0.03425757 0.053576805 -0.24554074 0.13503875 -0.020653076 0.029306073 -0.043127224 0.081695236
-0.12186463 0.097092696 -0.20623735 -0.29931343 -0.13943073 -0.29589444 -0.18222138 -0.090659715
-0.02900147 -0.023237735 -0.24732348 0.21374577 0.25194585 0.22062339 -0.19357826 -0.091170356
-0.2705161 0.093570866 -0.1512985 0.027047817 -0.04927797 0.1511804 -0.04406268 -0.24821211
-0.06878069 0.07213524 -0.0334593 0.13162087 -0.3173283 0.08808701 -0.0022005662 0.06879684
-0.14829844 0.33595642 -0.050217353 0.01593788 0.18423924 -0.07737068 -0.18754047 -0.052003868
0.043697007 0.2672386 -0.028982127 0.2156568 -0.028373627 0.26213363 0.17204764 -0.09069566
-0.119203426 0.0035532585 0.16558017 0.14681678 -0.16555873 0.2496848 -0.35939255 0.010609455

network_body._body_endoder.seq_layers.0.bias f4 [256]
00000000: 829a 293c 68f6 7dbc e667 6abc eaf9 dd3c
00000010: 1f20 303d 64d5 86bc daf2 283d c6d4 133d
00000020: 8071 3f3d c2e6 923b 72df 89bc 63f7 0abd
00000030: 72e3 753d a32b cabb 11d4 813b 02d9 04bd
00000040: e60c 9a39 174e b93c 84fc bf3c 9fa7 afbc
00000050: 2cf3 863d 899b 8fbb d1f3 1e3c c7c2 d9bc
00000060: 1fbe 823c 4c25 cfbc 8203 113c ea07 583d
00000070: ca4f 4cbd 0a5b 563c b966 3b3c ec54 e63d
00000080: b923 79bc b5e5 3c3d 9596 b53c f629 af3d
00000090: 4f58 b53c 09cf 933d 05d9 63bd a5a9 b1bc
000000a0: b5ed 2fbd 9a69 373d fde6 833c e876 4f3c
000000b0: 204a a33c 5ce9 e23c 50c4 7f3c b591 993c
000000c0: 426e ba3d 6994 093d c3e5 323c 3616 3f3c
000000d0: 1d66 443c 5848 00bc c555 c53d e4c8 92bc
000000e0: c4b1 483d a843 e13c e847 9b3d 93f1 ab3c
000000f0: e586 bf3d eda8 f3bc cef5 6d3d db9a 26bd
00000100: ab0b 503d 38b1 7e3d 60af 3bbc 6a33 56bb
00000110: 7cea fc3b c42e 713d 3f94 d03d b848 ae3b
00000120: a58e 23bd 3a69 e1bc 2390 d4bb 3249 743c
00000130: 1c79 a23c c646 47bd 9847 a9bd f8e9 21bd
00000140: e7df b83c edc7 27bd ddb3 2a3d 8a0f 81bc
00000150: 4bc7 513d 0ad8 90bb 0305 37bc 214c 383c
00000160: e7dd a0bc a28b 053d eaca ab3c 03d7 c0bc
00000170: da26 ffbb 264f 00bd f35d 553d 8787 7f3c
00000180: a5f5 0ebc 080f bd3c 5e40 9cbc e7ee 463d
00000190: b726 eabb 4932 f9bc f478 833c 5d74 4b3d
000001a0: f578 86bc 110a 2b3b bf7c c9bc c674 2b3d
000001b0: a949 5b3d 1663 923c ec89 80bc 27c8 033d
000001c0: 21f1 7abd 44a8 a33d 8741 38bc dc4e 5a3c
000001d0: 3794 623d 0358 5a3c a9da 913d be91 2cbb
000001e0: 1060 16bd ac61 3fbc 7866 913b 6e13 293c
000001f0: 55cf 943d dda3 89bd 8c69 1a3d ee35 433d
00000200: 378d c6bc 9060 0cbd 2478 173b e843 88bc
00000210: e464 133d 92d7 78bd e0f5 0abc 4fb8 1d3d
00000220: 3ce8 683d 9bd3 3f3b 8252 5c3b 5735 993a
00000230: db1b ffbb bc4d 2d3c 6d6b e53b 378d ba3c
00000240: b030 2f3c 3439 3e3d dc49 953d c6e4 163d
00000250: 5087 c33d c756 dfbc ee8e 453c a0f8 e93c
00000260: 06f2 2b3d 7216 f33b 26fa 133d c170 de3c
00000270: a793 3dbc cafa dabc 2ad9 19bd 5c43 a3bc
00000280: 4cde c03c 6595 c53c 3200 e03c 6e58 6e3d
00000290: c912 493d 796d 6fbc a678 b53b b9c6 c339
000002a0: ea56 90bd 78a6 1a3d 263c 2d3d a1bb 64bd
000002b0: caa9 a03b 1540 a4bd 1ac6 f9bc 1938 24bd
000002c0: 26b9 073d 5b59 033d 9ea9 513d 8c46 f1bb
000002d0: e5c8 e53c 38e2 423b 9446 193d 03be 9fbc
000002e0: 95a8 e2bc b4cc 0abb 5c13 083c e6e3 943d
000002f0: 0e46 b2bc 46b8 b63c b2ed 853d 9729 aa3c
00000300: f049 163d a4ff c43c 7feb f93c 0753 c3bb
00000310: 79c3 0f3d 3584 41bd c388 903c 23ab 133d
00000320: 0bad 09bc fbb6 1e3d 02a0 c23c c619 223d
00000330: 6475 8c3d 5305 6dbb 2d06 103d 2b6a 553c
00000340: b47f 7d3d 45b1 883d f142 49bd b984 7e3b
00000350: 33d3 a63d fd1d 0fbd 455a e23c ba6f 26bd
00000360: d7f8 6f3d 6c56 07bd 0738 823c 9a1e 533b
00000370: de73 f1bc 60a8 a3bc 9bd8 8b3c dee5 383d
00000380: 1ebf 423c d124 5d3c a4ef f33c edee c4bc
00000390: 6a00 733c 8ea7 35bd 15aa b93b 2053 e73c
000003a0: 028f 01bc f841 003d b8e9 26bc b51b ed3c
000003b0: 4d7a 533d 3f36 81bc ec5a 2f3d 0e29 f53c
000003c0: 11f6 7a3b fd1a b4bb b8a9 d2bc 1753 203d
000003d0: 43ce 043d 91fe 903d ac7e 873d 7e83 833d
000003e0: 4f56 483c 6b23 333d 497e 28bc ad3a ed3c
000003f0: ebea 5f3d 0577 893d 85bd 533d e2d1 713c
0.010351779 -0.015500642 -0.014306998 0.027096707 0.042999383 -0.016459174 0.041247226 0.03609159
0.0467391 0.004483075 -0.01683018 -0.033927333 0.060031362 -0.0061697527 0.003962048 -0.032433517
0.0002938278 0.022620244 0.023435839 -0.021442233 0.0658935 -0.004382555 0.009701685 -0.026582135
0.015959797 -0.02528634 0.008850934 0.052741922 -0.04988078 0.013083229 0.011438065 0.11246666
-0.015206271 0.046117503 0.02216653 0.08552925 0.022136835 0.07217223 -0.055626888 -0.021687338
-0.042951304 0.044778444 0.016101355 0.012662627 0.019932806 0.027699165 0.015610769 0.018746236
0.09103061 0.0335888 0.010919037 0.01166301 0.011987236 -0.007829748 0.096355 -0.017918058
0.048997656 0.027498081 0.075820744 0.020989215 0.09351901 -0.029743636 0.058095746 -0.040675025
0.050792377 0.062180728 -0.011455387 -0.0032684454 0.0077183824 0.05888249 0.10184526 0.0053187273
-0.03993096 -0.027515996 -0.006486909 0.014910029 0.01983314 -0.04865148 -0.082656085 -0.03952977
0.022567702 -0.04096215 0.041675437 -0.01575448 0.05121545 -0.004420285 -0.0111706285 0.011248619
-0.019637061 0.032603867 0.02097078 -0.023540026 -0.007786614 -0.03132548 0.05209155 0.015596277
-0.008725558 0.023078457 -0.019073661 0.04856768 -0.0071457285 -0.030419486 0.016048886 0.04967152
-0.016415099 0.002609853 -0.024595616 0.04185941 0.053537045 0.017869513 -0.015690766 0.032173302
-0.061265115 0.079910785 -0.011246092 0.013324466 0.05531713 0.013326648 0.07121784 -0.0026331986
-0.036712706 -0.011681002 0.004437264 0.010319574 0.07266108 -0.067207076 0.037698314 0.047658853
-0.024237258 -0.034271777 0.002311238 -0.016633943 0.03598489 -0.06075246 -0.008481473 0.03850585
0.0568621 0.0029270414 0.0033618514 0.001168887 -0.007785303 0.010577615 0.0070013315 0.022772415
0.01069276 0.046441272 0.07289478 0.03683927 0.09547293 -0.027263058 0.012058003 0.028560936
0.04197886 0.007418447 0.036127232 0.027153375 -0.011570848 -0.026730914 -0.03756062 -0.01992958
0.0235435 0.024119088 0.027343843 0.058189802 0.04909018 -0.014613503 0.005538064 0.00037341358
-0.070478275 0.037756413 0.04229369 -0.055843 0.004903053 -0.08020035 -0.03048997 -0.04009256
0.033135556 0.032067638 0.05118715 -0.007363146 0.028049896 0.0029736888 0.037420824 -0.019499784
-0.027668277 -0.0021179141 0.008305397 0.07270031 -0.02176192 0.022304665 0.065394774 0.020771785
0.036691606 0.02404768 0.030507801 -0.0059608254 0.035098527 -0.047245223 0.017643338 0.03605188
-0.008403073 0.038748723 0.023757938 0.03957536 0.06858328 -0.0036166504 0.03516214 0.013025801
0.061889365 0.066744365 -0.049136106 0.0038836433 0.08145752 -0.03494071 0.027630934 -0.040633895
0.05858692 -0.033041403 0.015895857 0.0032214285 -0.029474195 -0.019977748 0.017071059 0.045141093
0.011886386 0.013497547 0.029777355 -0.02403971 0.014831642 -0.044349246 0.0056660273 0.02823788
-0.007907631 0.031312913 -0.010187559 0.028943876 0.051630307 -0.015772937 0.04281132 0.029926803
0.003829364 -0.0054963813 -0.025715694 0.03914174 0.03242327 0.07079805 0.066159576 0.064215645
0.012227609 0.04373495 -0.010284015 0.028958643 0.054667395 0.06712154 0.05169441 0.014759513

network_body._body_endoder.seq_layers.2.weight f4 [256, 256]
00000000: ed1b 12bd 75d7 80bd 90f5 f9bd 4722 d53c
00000010: 1eaf 893d 7a05 1e3e f23a 2cbd 0ae6 7cbd
00000020: 1cc3 a23e bb57 efbd 2193 503d b8f4 5ebc
00000030: 4707 1b3e 4471 1abd ae5f d53d 8307 a6bc
00000040: 863f db3d 9741 41bd dccd 8a3e e05f ab3d
00000050: 907a 0fbe 82a7 273e cdba 5cbc 0b62 2b3c
00000060: 40b5 d03d 4c1d ff3d 373a 283c 95c3 a93b
00000070: bc04 da3b f256 1cbe 546d 64bd 7a59 9abd
00000080: 25f5 9f3c 4773 96bc 325f d53d 3729 efbd
00000090: 6864 5dbc b62c fdbb ebbd fd3c 0fa1 3b3d
000000a0: a773 393d f04d ff3d 840e a83d 3897 82be
000000b0: 43be be3d a006 5a3c 28fd 8abd 4aee d23d
000000c0: 477a 93bd fe3c 7f3e dfeb 213e 74fc cf3c
000000d0: 88dc 3abc ef84 08bc 604a 173d 1d7b 1dbd
000000e0: 590a 0b3e 68eb 143e 3c8c 78bd f3d0 9cbc
000000f0: 0699 dd3d afb4 0d3e 4426 873c 3b70 91bb
00000100: e1f0 31bd 4722 0b3e 4eff 2ebe 3eba d8bd
00000110: ecb0 c33c f63e 95bc 8c92 2c3c 8dec e53c
00000120: 2fe1 1c3e 213b 09be 6bd5 9e3d f62f 333d
00000130: 1daa 4dbd fb59 52bd a75e d8bd 5996 7e3c
00000140: 219f 28ba 4d4d 683d 4fc6 dbbc 3ffb bc3d
00000150: cb68 1cbd fa18 03be cc66 083d 633d 993d
00000160: d53b abbc 4ac1 24be 5e2e a3bc 7ad1 89bd
00000170: 497b 4b3d d48c 293d 34f7 85bd 4c58 a0bc
00000180: 87b7 cc3d 5ebe 75bd d310 6d3c 0486 0b3e
00000190: 6547 bcbd 800c 83bc 4d6f 00be 88c3 343e
000001a0: e096 ad3c 9b87 4f3e dacf 513b 05e6 24bc
000001b0: 6413 10bd 6af9 003e de32 d2bd bedd c5bd
000001c0: 1f51 cf3d 57c2 9e3d dbe9 9fbc 108c cabd
000001d0: 82cb 8f3c ed0c 7d3d 672f a13c b437 8ebd
000001e0: 0ba1 dd3c abf5 f03c 22a7 a4bd b706 193e
000001f0: bbcd d93c c7b6 e63c fdf2 823d 2d35 c13d
00000200: a4c2 a7bd 39cf 833d 2d45 393d 4210 a8bc
00000210: 746b bdbd a658 273c b3ae a23d 4934 453e
00000220: 5d63 f33d 8737 f6bd d8f7 cf3d 25cc 7dbd
00000230: 65a7 913d 4f0f 8c3d 9421 5d3d f961 84bd
00000240: 36bb 023e a90e 183d 86fb c63d ec22 d93b
00000250: 05cd 29bd e2b3 4ebd 4e3f fb3c b939 453e
00000260: 430d 8bbd 00f1 793e 8be5 92bc fba7 81bd
00000270: d46d 8cbd 49d4 d53c eed8 5cbd 8bbf e7bd
00000280: d7fd 05be 796c a33c b0f0 ba3d 90f5 37be
00000290: cde2 99bd f5ce 1c3e e956 523d 36b9 34be
000002a0: 0841 11bd f302 623d 8191 adbb 9541 dfbd
000002b0: ae9c 8c3d ca3b bdbd c98c 053d 96b3 57bd
000002c0: 5f92 2f3e 075d bc3d 008f 5f3e eaa7 8b3a
000002d0: 329d 373d 2945 d33d be0c 9b3b 7abc 93bd
000002e0: ea17 fd3c 61a6 893d 0246 31be ebc1 dabc
000002f0: 4d98 16be 1c40 583e af64 54bb bbb6 85bc
00000300: 651f 4bbe 0e23 953d 81d8 e43d 7401 f73c
00000310: 8dcb 9fbd b666 363e 0d10 ecbd 1786 83bd
00000320: e1f6 e23d 9ef2 473e eb41 2abd 05f3 43bc
00000330: a25d 3fbc 100a 9fbd b333 cebc 3f6a 6c3d
00000340: fc4b 5c3d 8819 f6bd 0065 ed3c b6f1 90bd
00000350: eb35 ff3c bcb0 c4bc 87a1 a7bd 8da6 c2be
00000360: 74da 6ebe 5be1 1cbd 9aab 9abc 5272 133d
00000370: c476 6e3c 00b4 b53c 285a d3bd 5ee3 a33d
00000380: 64be 0bbd 532c 2b3a 4573 0b3e a5fd 23be
00000390: d67b 653e 8a37 83bd d495 74bc 4d92 453d
000003a0: b8ca afbd 48d8 04be bc37 3a3d 797f 223e
000003b0: feee 1fbc f0aa 03be 8734 9fbc 600b 72bd
000003c0: 686d 463d 4d52 533d cb77 6ebe cadd 913d
000003d0: 1a2d 4e3e fff8 bf3c b1f5 ae3d 44c2 393e
000003e0: ef79 49bc 7c67 7dbe 40bd 803d ebfe 2fbd
000003f0: dc96 0e3c 354b 963d 88d4 aebd fdc9 d03d
-0.035671163 -0.06291095 -0.122050405 0.026017321 0.06722854 0.15431777 -0.042048402 -0.06174282
0.31789482 -0.11686655 0.050921563 -0.01360815 0.15139495 -0.037705675 0.1041864 -0.020267254
0.107054755 -0.047181692 0.27110183 0.08367896 -0.14011598 0.16372493 -0.013472271 0.010460387
0.10190821 0.1245676 0.010267786 0.005180786 0.0066533964 -0.15267542 -0.055768326 -0.075365975
0.019526074 -0.018365515 0.10418548 -0.11677783 -0.013512708 -0.007726277 0.030974349 0.045807894
0.04527631 0.12466037 0.08205894 -0.25505996 0.09313633 0.013307244 -0.06786567 0.10299356
-0.07201057 0.2492561 0.15812634 0.025388934 -0.011405118 -0.008332475 0.036936164 -0.038447488
0.13578166 0.14542925 -0.060680613 -0.019142604 0.108202025 0.13838457 0.016497739 -0.0044384277
-0.04344261 0.13587295 -0.17089579 -0.10582398 0.023888074 -0.018218499 0.010532986 0.028066898
0.15320276 -0.13401462 0.0775555 0.04374691 -0.05021106 -0.051355343 -0.105649285 0.015538775
-0.00064324035 0.056714345 -0.02682796 0.09227609 -0.038185876 -0.12802497 0.03330116 0.07482412
-0.020902554 -0.16089359 -0.01991957 -0.067294076 0.04967812 0.04139407 -0.06541291 -0.019573353
0.099959426 -0.059996 0.014469343 0.13625342 -0.09193305 -0.015997171 -0.12542458 0.17652714
0.021190107 0.20266573 0.0032014758 -0.010064607 -0.035174742 0.12595144 -0.102636084 -0.096614346
0.101228945 0.07751911 -0.01952069 -0.09889996 0.017553095 0.061779905 0.019675924 -0.06944218
0.02705433 0.029414019 -0.080396906 0.14943968 0.026587358 0.028163327 0.063940026 0.094339706
-0.08191422 0.06436009 0.045231987 -0.020515565 -0.09249011 0.0102140065 0.079434775 0.19258226
0.118841864 -0.1202231 0.10154694 -0.061962266 0.07112006 0.068388574 0.0539871 -0.06463999
0.12766728 0.037123356 0.09715943 0.0066264775 -0.041455287 -0.05046452 0.030669834 0.192603
-0.06789639 0.2440834 -0.01793172 -0.06330868 -0.068568856 0.026102202 -0.053917818 -0.11315831
-0.13085113 0.019949185 0.09127939 -0.17964768 -0.07513962 0.15313323 0.051352415 -0.17648777
-0.03546241 0.055178594 -0.0052968864 -0.10901181 0.06865822 -0.092399195 0.032604966 -0.0526615
0.1714568 0.09197431 0.21831894 0.0010654901 0.044827648 0.10315926 0.0047317436 -0.072136834
0.030895192 0.067211874 -0.17311862 -0.026703795 -0.14706536 0.21118206 -0.0032408645 -0.016322484
-0.19836195 0.07282077 0.11174107 0.03015206 -0.07802496 0.17812619 -0.11526499 -0.0642206
0.11082245 0.19526145 -0.04156677 -0.011959796 -0.011680039 -0.07765591 -0.025171136 0.05771851
0.0537834 -0.120165884 0.028978825 -0.07077353 0.03115364 -0.024010055 -0.08185106 -0.38017693
-0.23325521 -0.038300853 -0.018880654 0.035997696 0.014554683 0.022180557 -0.1031993 0.08002351
-0.034117118 0.0006529737 0.1361819 -0.16014726 0.22410521 -0.064070776 -0.0149283 0.048235226
-0.085835874 -0.1297313 0.04546331 0.1586894 -0.00976157 -0.12858176 -0.019434227 -0.05909288
0.04844418 0.05159216 -0.23287885 0.07122381 0.20134392 0.02343416 0.08542956 0.18140513
-0.012297138 -0.24746507 0.062860966 -0.042967718 0.00870296 0.07338563 -0.08536631 0.10194776

network_body._body_endoder.seq_layers.2.bias f4 [256]
00000000: 6c63 303c b8f8 4b3d 8042 0d3d 2813 00bc
00000010: e8ef 583c 24cf f03c af86 6e3c 33ec 33bc
00000020: 49d6 c8bc b4bf c4bc dcb4 2fbb 9b0f 4cbb
00000030: dfb4 7ebc de09 f3bb a73d 05bb b7c5 b43c
00000040: 657e 803c 2c22 123d d078 28bb 48e2 bbb6
00000050: 3853 1bbc 9c90 793c 32cc 603c a63a c4bc
00000060: abe1 aabc 31a3 293d 6eb7 41bb 439b 363d
00000070: 9a0f 253d 582a aebb c9e3 68bd 33da 873c
00000080: 5f0d 8c3a faec d73c 9616 823c c098 efbb
00000090: 4260 23bc a3ce 923c 813d 22bb 2e78 b6bc
000000a0: 7c39 49bc 79f8 583d 9a87 113c 2e72 1db8
000000b0: 1ad9 483d 8b8e 4c3c 0739 8b3c c172 783d
000000c0: 18b8 af3b 4da5 123c 443e ce3c 2667 853d
000000d0: 677f ac3c 80ad 0c3d ef9e 0abb 91bf 8f3c
000000e0: 5dae 573c dfa4 f8bb 175c d4bc e3a2 87bc
000000f0: 67ca babb 34d8 fc3c 8679 b03b a101 a33b
00000100: 9a05 37bd 610b 0fbd a296 a1bc 5504 713c
00000110: a157 043c 925e 1f3c 15a7 02bd 5e14 2c3b
00000120: 8daf 1fbd a46c 74b8 ea71 31bd a8be 90bb
00000130: db91 9e3c c1f0 cf3b f1ca dfbc b081 2038
00000140: e3e3 cbbc 0265 30bd 0082 cc3b 1d7e f2bb
00000150: 947a 173d e250 d13c ea0e 91bc ac33 b8bc
00000160: 3efc 043c 2749 923c fb46 7c3d 0e1c a43c
00000170: d7e6 453c 56f7 03ba 63e0 193c 2a81 1bbc
00000180: c618 f23b cb87 eb3b 6264 ad3b 6f62 f83c
00000190: ba63 24bb 2967 cb3b 4480 abbb 3bb6 35bd
000001a0: 4da8 96bb 10a3 8ebb 164b 033c db46 943d
000001b0: 246e 6d3c a6b1 253d e51d f23c 08d9 083d
000001c0: 726c 22bc a698 093d a0fb 3cbc a74d 8cbc
000001d0: 7873 323b 79ca e53c 10d7 823c f8a8 acbb
000001e0: 3d4b ee3c 3f16 a4ba 6210 84ba 26d4 553d
000001f0: b351 71bd 6fff cb3c 988f a73b 61dd ac3c
00000200: 6c06 433d 8bfc adbb 7900 543b 30f6 f5ba
00000210: eea1 ed3c fd79 423c 1033 cbba 92ad 3c3c
00000220: 4d25 2b3c 5e85 253a 8ba5 d53c e44b f03b
00000230: d5e7 683c 2faa ef3c d0c6 d3bc ee58 7fbc
00000240: cc9c b0bc 7c0d 2d3d 7852 4b3d 1d98 edba
00000250: 3249 89bc 2195 a8bb 874b db3c cc9c 45bd
00000260: 77bc 95bc be41 193d 381b 14bc ca2c 643d
00000270: 7980 af3c 0434 963b ea78 b4bc 7286 d83c
00000280: eb67 c33c 702c 15bb 8d24 31bc 6718 313c
00000290: 9a59 d43c bdee 923c 00d8 2d3d 0b1d 62b9
000002a0: 80cd 4c3c f4c7 ab3c 6bb9 81bb 7d85 50bd
000002b0: 203c 3ebc 467b 903c 6c46 f9bc d535 0c3c
000002c0: 296a d8bb 554c 8f3c 94b1 a33b 71d5 a5ba
000002d0: cf0f ddbb e191 4ebd fd50 243d 0158 02bd
000002e0: 6814 813c cfdf 83bc 725f 1b3d 033f f6bc
000002f0: 6f1f 0d3b ad4b b53b 82f6 853c 3fed 033d
00000300: 726e 2b3d b1d0 18bd a2cb a2bc 6b18 3a3c
00000310: 8435 08bb 80dd 1d3d ba8f 953b 57e0 0fbc
00000320: a851 e8bb 945c 6e3c 448b 9fbc b1c1 dd3c
00000330: 14b3 7fbb 1602 3d3d 6121 ce3c 2546 8cbd
00000340: 4f76 11bd 48e1 893c e789 923a c827 843c
00000350: 6380 f23a d6ae 1b3c 0dd7 493c 28fb 8b3c
00000360: 6707 d0bc 4c69 1a3c ebc0 94bc 4f18 df3c
00000370: acb6 0a3c 3af1 df3c 386d 633d 0657 123d
00000380: 50d6 8dbc 0f14 153d 6f24 11bd 2a52 893d
00000390: 6f19 063d a1e7 c6bc c54c e03c 1076 aeb9
000003a0: 5a40 393d 40d4 693c 872e 843b c1a6 903c
000003b0: 7191 2bbd 667f a73c 8b63 0abd 598f f03b
000003c0: 088d aebc aa18 74bc ce8e 04bc f00e 1d3d
000003d0: 94fe 8a3c 5b5b 33bd 9500 25bc dc13 a4bc
000003e0: 2d0a 4c3d b69a a13c abb6 bb3a 4a44 29bc
000003f0: e25c 8fbc b585 2e3c 3552 c1bc 25dc c03c
0.0107658915 0.049797744 0.034487247 -0.007817067 0.013240792 0.029395647 0.014558478 -0.010981607
-0.024516242 -0.024017192 -0.0026810681 -0.0031137231 -0.015546053 -0.0074169477 -0.0020330937 0.022066934
0.01568527 0.03567712 -0.0025706775 -5.599377e-06 -0.00948029 0.0152322315 0.013720559 -0.023953747
-0.02085956 0.041415397 -0.0029558796 0.044581663 0.040298082 -0.0053151064 -0.056857858 0.016583538
0.0010685137 0.026358116 0.01587991 -0.0073119104 -0.00997168 0.017920798 -0.0024755897 -0.022274103
-0.012281772 0.052971337 0.008882428 -3.7538055e-05 0.04903517 0.012485157 0.016994966 0.060656313
0.005362522 0.008950544 0.025176175 0.06513815 0.021056844 0.03434515 -0.002115186 0.0175474
0.01316413 -0.0075880135 -0.025922818 -0.016557163 -0.005700398 0.030864812 0.0053855805 0.0049745594
-0.044683076 -0.03492296 -0.019725148 0.0147105055 0.008077533 0.009727137 -0.031897623 0.0026257257
-0.038985778 -5.8275313e-05 -0.043321528 -0.0044172592 0.019356659 0.006345839 -0.02731845 3.8267754e-05
-0.024888938 -0.04306508 0.006241083 -0.007400288 0.036982134 0.025551263 -0.017707307 -0.022485577
0.00811678 0.017857147 0.06159113 0.020032909 0.012078962 -0.00050341093 0.009391877 -0.009491244
0.007388207 0.0071878186 0.0052915076 0.030320374 -0.0025083856 0.006207366 -0.0052337963 -0.04436324
-0.0045976997 -0.0043529347 0.008013507 0.07240077 0.014491592 0.040452622 0.02955527 0.033410102
-0.009913551 0.033592843 -0.011534601 -0.017126871 0.002722947 0.028050648 0.01597169 -0.005269166
0.02908861 -0.0012518837 -0.0010075683 0.052204274 -0.058915805 0.024902074 0.0051135533 0.021101655
0.047613546 -0.0053096465 0.0032348915 -0.0018765386 0.029007878 0.011869905 -0.0015502889 0.011515992
0.010445905 0.0006314124 0.026079914 0.0073332656 0.014215429 0.029255955 -0.025851637 -0.015585167
-0.021559142 0.042249188 0.049639195 -0.0018126998 -0.016758535 -0.0051447307 0.026769413 -0.048245236
-0.018278344 0.037416212 -0.009039693 0.055706777 0.021423565 0.0045838375 -0.022030313 0.026431296
0.023853263 -0.0022762083 -0.010811937 0.010809041 0.025921632 0.017936105 0.04244232 -0.00021563859
0.012500167 0.020969369 -0.003958871 -0.050908554 -0.011611015 0.017636906 -0.030429088 0.008557756
-0.006604452 0.017492453 0.004995534 -0.0012652111 -0.0067462693 -0.05043209 0.0401163 -0.03182221
0.0157568 -0.016097931 0.03793282 -0.030059343 0.0021533628 0.005532703 0.016352896 0.032208677
0.041853376 -0.0373084 -0.01987249 0.011358361 -0.002078385 0.038541317 0.0045642527 -0.008781514
-0.0070898123 0.0145484395 -0.019475587 0.027069898 -0.003901665 0.046144567 0.0251624 -0.068493165
-0.03551322 0.016831055 0.0011180014 0.01613225 0.0018501397 0.009502133 0.0123193385 0.017087534
-0.025394155 0.009424519 -0.018158397 0.02723327 0.008466404 0.027336705 0.05552408 0.035727523
-0.017314106 0.036396082 -0.035435136 0.06705125 0.0327391 -0.024280371 0.027380357 -0.0003327583
0.045227386 0.014271796 0.004033867 0.01765764 -0.04188675 0.02044649 -0.033786338 0.007341307
-0.021307483 -0.0148984585 -0.008090688 0.038344324 0.016967095 -0.043788295 -0.01007094 -0.020029001
0.049814392 0.019727092 0.0014321407 -0.010331223 -0.017500345 0.010651995 -0.02359877 0.023542473

network_body._body_endoder.seq_layers.4.weight f4 [256, 256]
00000000: d570 9e3d 704d 093d 3b97 e0bd 7cdf 42bd
00000010: b83e 2ebd 0bc1 a13c b1cd f73c 3944 a93c
00000020: a9f1 253e 47d4 11bd 74f7 fe3c a887 2dbd
00000030: 7665 85bd aa41 1cbe 576c 15bc ec19 9fbc
00000040: 1c95 36bd c600 483d 27bf 113d f605 5cbe
00000050: 82b0 873d bcd2 a33b c9bf dc3d 330e 2d3d
00000060: 66d0 8bbd 994c b93c ebcd 37be fd3f adbc
00000070: dc1e 1fbe b993 51bd 15b4 8cbd 932a 463c
00000080: bf2b 633d be18 0a3e ca62 523d a9ca 40be
00000090: f0b8 e53d 03f6 003e f84b 5dbd 871b a53d
000000a0: 663b dd3d b690 3b3e acde 4abd 1113 1abe
000000b0: 99c9 1bbd 7a77 83bd 16df 863c cda7 9b3d
000000c0: 5e85 a03c 6ed0 2cbd 9685 6a3d 8e27 49be
000000d0: 2d7c 083e 9955 81bd df79 af3c 0070 073d
000000e0: 12f6 b8bc 46a9 1e3e 5dae 003d 096b 00bc
000000f0: 2894 64bd f2d1 a8bd 9abf 43bd 4ed0 b6bd
00000100: efe8 a8bd fb2e a23d cec2 86bd 5e59 50bd
00000110: 1207 63be 2ea4 ad3c 84b2 a3bd 04f1 9dbd
00000120: 89f3 433c 806f 283e e925 5c3e ca45 0d3e
00000130: 7f54 113d 2fdd bebb 44f7 703d 5b85 5a3d
00000140: 6d75 1d3c d1ed 623d 2ca1 423e c5d6 073e
00000150: 4c6c eabc a1d7 153e a571 1e3c bf06 51bd
00000160: 8c6a 25bd 477e c93c cd37 663d 7e23 db3d
00000170: 20d9 f3bc 278b 083e 0ee1 13be fa5a 373e
00000180: dea8 763d 1436 733e d073 1a3e ade6 e73c
00000190: 4c21 063e aca8 e33d 0908 26bc 7ab3 803d
000001a0: f549 1dbe 4fbd 153e 8ac0 3dbe 2663 573e
000001b0: 1535 1b3e e122 ab3d 221e 613d d29c b9bd
000001c0: 39a8 bf3b ad15 b53c 32f7 983e c60f 0b3d
000001d0: 38bb 2abe 5bb6 f4bc d72a 9bbd bfb1 84be
000001e0: d680 61be f33c d8bd 4762 f23c 7459 383d
000001f0: c1e1 043d b16f 9e3d 36b1 81bd c5e0 9ebd
00000200: 8f62 71be df25 6bbb 851e c33d df8e 24be
00000210: e329 8f3d 54b0 c73d 9f2d 1fbe 0bbd 263e
00000220: 5b17 7cbb 0dcf 49bd 7514 0abd 4adf 88bd
00000230: ed73 26bd 1aa1 9bbd e256 913d 51d7 043e
00000240: a190 ad3d 3e8c b23d c28e c3bd a809 2c3d
00000250: 44f0 ea3d 548a f63d 63ef 3a3e 12c8 9ebd
00000260: bbae a93d 3f56 c63d bcbf 2e3b d635 b0bb
00000270: d23b e939 050e b5bb be0b 36bd b490 06be
00000280: 476d 99bd e015 9a3c db2f 97bb a9a3 16be
00000290: 3ac3 863d eeea 62be f46c 25bd 95b8 b6bd
000002a0: fac6 9b3c d91c 723c 4f57 9fbd 6aa0 cdbd
000002b0: 4a18 7f3d d6ac 53bd ecad 153e 0cdb ec3d
000002c0: 15c5 563d 7411 d6bc 5015 d7bd 8b98 eabd
000002d0: 5d50 483d 591b 8dbc dac0 c0bb a96c af3d
000002e0: 2df9 ce3d d0c4 633d d6c5 aebd d464 bfbc
000002f0: 1127 3b3e 165a 04bd 01b3 023e 09f1 19be
00000300: b859 babd 08ec 73bc feb7 ffbb 49d0 fbbc
00000310: db8a a33d 0977 9fbd 3163 0b3e 1f0b 903d
00000320: f0cb e93d bccc 293b 3d60 3ebd 48f4 bbbc
00000330: c455 b53d 2ff0 9fbd b37f 103e 1452 da3c
00000340: 7f1e 0fbe 46fe e0bc 4646 2ebe 570f 3dbd
00000350: 57f9 3a3c 48db a2be 9415 263e afe2 9b3b
00000360: 1bc9 56bd 6ab6 443e ec17 983c 34d3 c03d
00000370: 50a1 013d 1073 163d 6967 a7bd 77d1 093e
00000380: c98a 2ebd 8cf5 a4bd f139 a93d b92f e3bd
00000390: ec56 96bd 1a01 e0bd d85f 67bc 21cd 4fbd
000003a0: 3708 783d 727b 933d 98bb 85bd af6e febc
000003b0: ba91 ba3d 5f3e 013e e11f 08be 9ad5 e4bc
000003c0: cad9 ffbc ebdb 143d 19a6 70bb 4138 4abd
000003d0: 78c4 15be 667f 853d 62ac 89bd 8a41 c0bd
000003e0: f292 693e aff2 04bc 61f1 eb3d 35a1 b0bd
000003f0: 4785 403e aaa5 d2bc 276d a03c be61 a93c
0.07736365 0.033521116 -0.10966345 -0.047576413 -0.042540282 0.01974537 0.030249448 0.020662414
0.16205467 -0.035602834 0.031123854 -0.0423657 -0.06513493 -0.15259424 -0.0091200685 -0.01942154
-0.044575796 0.048828863 0.035582688 -0.21486649 0.06625463 0.0049994867 0.107787676 0.04224987
-0.06826858 0.022619532 -0.17949645 -0.021148676 -0.15539116 -0.05116627 -0.068702854 0.012095111
0.05546164 0.13486001 0.051363744 -0.18827309 0.11216915 0.12593846 -0.054027528 0.08061891
0.10802345 0.18316922 -0.049528763 -0.15046336 -0.038034055 -0.06419273 0.016463798 0.07600365
0.019594844 -0.04219096 0.057256304 -0.19643995 0.1332862 -0.063151546 0.021420417 0.033065796
-0.022578273 0.1549426 0.031416286 -0.007838019 -0.055805355 -0.08243169 -0.047790147 -0.0892645
-0.082475536 0.07919117 -0.06580125 -0.050866477 -0.22170666 0.021196451 -0.079930335 -0.07711986
0.011959919 0.16448784 0.21498837 0.13796154 0.035480972 -0.005824707 0.05882956 0.053349834
0.009610516 0.05540258 0.19006795 0.13265522 -0.028616093 0.14633037 0.00967065 -0.051031824
-0.040384814 0.024596347 0.05620556 0.10700129 -0.02976662 0.13334332 -0.1444132 0.17905799
0.060219638 0.23751098 0.15083241 0.028308237 0.13098639 0.11116156 -0.010133752 0.062842324
-0.15360244 0.14622997 -0.18530479 0.21033916 0.15156968 0.08356262 0.054960378 -0.09063114
0.005848911 0.022105062 0.29876095 0.03395059 -0.16672981 -0.02987211 -0.075765304 -0.2591686
-0.22021803 -0.105585 0.029587878 0.045007184 0.03244186 0.07736147 -0.063326284 -0.07757715
-0.23572753 -0.0035880727 0.095273055 -0.16070126 0.06990411 0.09750429 -0.15544747 0.16283052
-0.003846607 -0.049269725 -0.033710916 -0.06683214 -0.0406379 -0.07599087 0.0709665 0.12972762
0.084748514 0.08718155 -0.09548713 0.042001396 0.11471608 0.12038103 0.18255381 -0.07753004
0.0828528 0.09684419 0.0026664576 -0.0053775115 0.00044485793 -0.005525353 -0.044444792 -0.13141137
-0.07491546 0.018809259 -0.004613859 -0.14710869 0.06580205 -0.22159931 -0.04038711 -0.08921925
0.019015778 0.014777386 -0.07780325 -0.10040362 0.062279023 -0.0516785 0.14617127 0.115652174
0.052434046 -0.02613137 -0.10502112 -0.114548765 0.048904765 -0.017224954 -0.0058823647 0.08565647
0.1010612 0.055607617 -0.08533828 -0.023363508 0.18276621 -0.032312475 0.12763597 -0.15033354
-0.09099144 -0.014887817 -0.007803916 -0.030738967 0.07985469 -0.07786376 0.13612057 0.07033371
0.11415851 0.0025909385 -0.0464785 -0.02294363 0.08854249 -0.07809483 0.14111213 0.026650466
-0.13976477 -0.027464997 -0.17018995 -0.046157207 0.011411986 -0.31807923 0.16219169 0.0047572474
-0.052437883 0.1921021 0.018566094 0.09415284 0.03164798 0.036730826 -0.08174021 0.13458811
-0.042612825 -0.08054647 0.082630046 -0.11093087 -0.07340798 -0.1093771 -0.014121972 -0.050732736
0.06055471 0.0720128 -0.06529921 -0.031058637 0.091098264 0.12621449 -0.13293411 -0.027933884
-0.03123178 0.036342543 -0.0036720096 -0.049370054 -0.14625728 0.0651844 -0.067223325 -0.093875006
0.22809961 -0.008114501 0.11520649 -0.08624498 0.18800841 -0.02571376 0.019583298 0.02067649

network_body._body_endoder.seq_layers.4.bias f4 [256]
00000000: 3683 8ebb b2a4 83bd 8e5e a83d 0669 803c
00000010: fb40 c93c 1e60 8c3c 7836 793d 74dd 303b
00000020: 7027 e23b b8e0 13bd e9c3 77bd 3267 373d
00000030: bf79 973d b5fc cf3c 70aa d53c ebf9 e43b
00000040: eab6 6ebc fb2e 473d 101b 7fbd e825 f93b
00000050: 1af5 703c 25ac 7d3c 0472 29bc 321a 883d
00000060: 459d 9c3c 30ed 373c 1fd6 913c d28e 0f3d
00000070: ba6e 07bd 3a9a 8ebb 6a43 1cbd a9b7 13bd
00000080: 7321 ed3c d7e2 c6bc facb 83bc 1a16 d03c
00000090: ee92 a73c d5fc 213d 23e3 573c b364 bcbc
000000a0: f64c 443b dec2 553d ea8b 233b c358 29bd
000000b0: 53a9 aa3c 4215 0ebd 6773 b83c 1eef 91ba
000000c0: 5d3f 963c c0ad 2d3c f1d4 d63c 02b2 04bd
000000d0: 64c7 0e3d 4d54 053d d815 d1ba 7351 483d
000000e0: a058 3c3d 27c7 1b3d a64a 11bd 975e 41bd
000000f0: d936 5e3d 93cb 6a3d 40f9 9abc 9cc2 bbbb
00000100: 109f cd3a f7d1 d9bc 80d0 21bb 8ede 13bc
00000110: 4c49 ae3c 1735 fdbc 1405 653c 84b2 4a3c
00000120: 2027 9a3c 0b47 8dbc ce9c 7a3c 2de2 1ebc
00000130: 3c90 13bd 2a7d 343c c0e8 da3a 8c7e e9ba
00000140: 4cbc 3c3b a2e2 d0bb ab46 c73c 3eee d13c
00000150: c35c 18bd 451d 703d 0163 0bbc 4a45 ad3c
00000160: 7a5c e2bb ea0b fd3b 2656 c33c 3fe2 f0bc
00000170: 655d 3f3c 3414 b53c 0a5b 36bd 8e68 81bb
00000180: 864a 263c 6a5a 91bc 1468 813c 1196 07bc
00000190: fdb5 22bd 96df 073d f106 6cbc b47e fb3c
000001a0: e11e 493b afe4 9a38 0d30 10ba 2f1e 40bc
000001b0: c9d4 003d 9c85 853c b314 573b 9201 033d
000001c0: 1eb0 7fbc c345 e33c 0e42 1bbc 9d03 e2bc
000001d0: 86ca 443d 2d29 febc 6b32 d23c c47b a23d
000001e0: bbbd 643b 55e7 a4bb f420 063c 2ed1 9c3c
000001f0: d9b6 203c 196c 803d 4607 3c3c 20b6 99bd
00000200: 20ec 683c 7151 43bc 2821 0a3d f4fa b4ba
00000210: 3ce2 12bc c620 e9bb 3a36 fd3b c8c2 6fbc
00000220: 26b7 7d3d c6d1 363d d655 0b3d 42ae 483c
00000230: c8c2 693b 4e95 473c 2679 03bd 90cf 323d
00000240: 7110 993c f51d 6ebc 730d 453d bbc3 62bb
00000250: 5ace d83c b5cd 483d 348f 8c3c 1c01 b53c
00000260: bb8e df3b a427 0fbc 1cb9 f4bb 4288 b7bb
00000270: a8c0 943c fd10 b93c 0100 83bc 1ec3 4fbc
00000280: 2bff f13b 7306 38bd 902d 7d3c a4dd 42bb
00000290: 92d6 6ebc 6627 41bb 4330 30bc c926 d3bc
000002a0: 2f6d 56bc 88d1 54bc d6cb bc3c 371b 6d3c
000002b0: 45e5 d53c 7848 8a3c 9904 123d fbbb 923c
000002c0: 2594 a4bc 010b 453c 4904 993c a000 d83c
000002d0: 98ec cbbc e1ca 56bc 72e8 313d ea6f 893c
000002e0: 7b87 6f3c 5275 e63c c2ea 7abb 944d e03c
000002f0: 3b35 b33c ba88 1c3d 858c 29bd d9e6 dc3c
00000300: 50d0 973c dfce 2c3d 12a3 5f3b 1abd 093d
00000310: 336b aabc 1eb3 84bc b3f5 34bc 764c 6cbc
00000320: 8035 223c 33c7 a53c 3252 fcbc ce27 d33c
00000330: 8399 263d 4a6d f0bb 2aa7 a23b 96ff 823c
00000340: 850f 4ebd 3cf6 3bbc 966c dc3a b4f0 3b3d
00000350: ec56 023d 2220 f93c d9ba 4f3c 6061 7bbc
00000360: a98c c3bc 19b1 80bc 6658 c1bd 28d1 b4bc
00000370: 83b0 80bc 8925 4b3c e35b 203d 0b68 2bbc
00000380: e771 c43c dd05 a7bc 6008 8c3d d291 983d
00000390: 09ed f3bc 6538 6b3d 87af 443c cfdb 393a
000003a0: d566 f13b 2496 f73c 8016 bdbb ada9 afbc
000003b0: 0b7d 17bc 3954 793a 3bef 5a3c 4c8a 223c
000003c0: a327 47bb c426 8d3b 8d3c 403c eb0c 8f3c
000003d0: 7672 00bc 1750 023c aafc 463c 50a7 a13c
000003e0: 540d 49bc 956d 00bc df93 07bd 7868 9c3c
000003f0: 7af7 843c 9814 c83b 2719 1e3c 1557 2ebd
-0.0043491377 -0.064278975 0.0822116 0.01567508 0.024567118 0.017135676 0.06084296 0.0026987465
0.006901674 -0.03610298 -0.06048957 0.04477615 0.07396268 0.025389055 0.026082247 0.0069878004
-0.014569977 0.04862879 -0.06228167 0.0076033957 0.014706874 0.015482937 -0.010342125 0.06645621
0.01911796 0.0112259835 0.017802296 0.035048313 -0.03306458 -0.0043518813 -0.03815023 -0.036063824
0.028946614 -0.024278088 -0.016088475 0.025401164 0.020455804 0.03954776 0.013176712 -0.022997236
0.00299531 0.052187793 0.0024955221 -0.041344415 0.020832693 -0.03468824 0.022515966 -0.0011133885
0.01834076 0.010600507 0.026224585 -0.032396324 0.034858122 0.0325511 -0.0015951945 0.0489058
0.045982957 0.038031723 -0.03547158 -0.04720935 0.054251526 0.05732305 -0.01891768 -0.0057299864
0.0015687663 -0.026589377 -0.0024690926 -0.009025229 0.021275185 -0.030909104 0.0139782615 0.012371663
0.018817484 -0.01724579 0.015296174 -0.009697479 -0.036026224 0.01101617 0.0016701445 -0.0017814203
0.0028798757 -0.006374673 0.02432569 0.025626298 -0.03719784 0.058621664 -0.008507491 0.021151204
-0.0069079967 0.0077223675 0.02384479 -0.029404758 0.011679982 0.02210436 -0.044520415 -0.0039492315
0.010149604 -0.017743308 0.015796699 -0.008275525 -0.03972434 0.033172213 -0.014405952 0.030700065
0.0030688571 7.385888e-05 -0.0005500324 -0.011725946 0.031452928 0.016299061 0.0032818734 0.03198392
-0.015605954 0.027743226 -0.009476198 -0.027589614 0.048044704 -0.031025494 0.025658807 0.07933763
0.0034903127 -0.0050324597 0.008186568 0.019142713 0.009809219 0.06270618 0.0114763435 -0.07505441
0.014216453 -0.011921273 0.033723027 -0.00138077 -0.008965071 -0.0071145026 0.0077274116 -0.014633842
0.061942242 0.04463365 0.034017406 0.012248578 0.0035669077 0.012181593 -0.032097958 0.04365498
0.018684598 -0.0145335095 0.04810853 -0.0034601528 0.026465584 0.049024303 0.017158128 0.022095256
0.0068224347 -0.008737478 -0.007468356 -0.00560096 0.018158272 0.022591108 -0.015991213 -0.012680797
0.0073851547 -0.044928025 0.0154527575 -0.002973416 -0.014577525 -0.0029472946 -0.010753694 -0.02577533
-0.013087555 -0.012989409 0.023046415 0.014471821 0.0261103 0.016880259 0.035648916 0.017911902
-0.020090172 0.012026549 0.018678801 0.026367486 -0.02489309 -0.013109894 0.043434568 0.016776998
0.014619703 0.028132115 -0.00382869 0.027380742 0.021875968 0.03821633 -0.041393775 0.026965545
0.018531948 0.042189475 0.0034124297 0.033627607 -0.02080307 -0.016198691 -0.011044907 -0.014422527
0.009900451 0.020236587 -0.030800913 0.025775816 0.040673744 -0.007337247 0.004963775 0.015991013
-0.05030777 -0.011472281 0.0016817029 0.04588385 0.031821176 0.03041083 0.012678825 -0.01534304
-0.023870783 -0.015709447 -0.09440689 -0.02207239 -0.015709167 0.012399086 0.03915013 -0.0104618175
0.023980094 -0.020388538 0.06837535 0.07449688 -0.029776113 0.05742683 0.01200474 0.0007089944
0.007366995 0.03022296 -0.0057705045 -0.021443212 -0.009246121 0.00095111463 0.013362701 0.009920668
-0.0030388616 0.0043075997 0.011733186 0.017462214 -0.00783979 0.007953665 0.012145201 0.019733101
-0.012271244 -0.007838626 -0.033100005 0.019092783 0.016231287 0.0061059706 0.0096495515 -0.042563517

action_model._continuous_distribution.log_sigma f4 [1, 39]
00000000: 1fb5 713f 3de6 053f 5f53 8f3f fc9c 3d3f
00000010: 1a94 633f 2872 783f 990c c93e a948 5a3f
00000020: d1ca 483f 5760 b63c 70f2 083f 8a84 163f
00000030: bb91 eebe 2604 813f 5e96 aebf 0e96 ae3d
00000040: 74f6 633f d007 8fbf 1b82 59be dc17 703f
00000050: 939d 31bf a399 f6bc c3d5 953e ebec 78bf
00000060: ac14 84be eaf6 193f 418b 94bf 5d6e 35bf
00000070: 2d19 7a3f 54f0 b6bf 70ea bdbd dfe9 233f
00000080: 0c6e e13e a77e 963e 6187 a03f 0565 563e
00000090: 271d bc3e 5e46 2b3f 935f 333e
0.94416994 0.5230444 1.1197318 0.74067664 0.8889786 0.9704919 0.39267424 0.8526712
0.78434473 0.022262735 0.5349493 0.5879599 -0.4659556 1.0079391 -1.3639638 0.085247144
0.8904793 -1.1174259 -0.21241038 0.93786407 -0.69381064 -0.030102557 0.2926465 -0.9723651
-0.2579702 0.60142386 -1.1604997 -0.70871526 0.97694665 -1.4292092 -0.09273231 0.64028734
0.44029272 0.29393503 1.2541314 0.20936973 0.3674099 0.66904247 0.17516927

action_model._continuous_distribution.mu.weight f4 [39, 64]
00000000: e980 f1bd 6f46 c83d 83b1 b93d 766d 773c
00000010: 6bb4 843e b22b 33be ae1d f3bc 398b cf3d
00000020: e376 31be 51bb e53c 421e b23d 54f9 37be
00000030: 5d71 2f3e d689 113d 0d3b 82bd 210a c2be
00000040: a4b8 85be 7637 423e a5ef eb3d b8bc 423e
00000050: cfc8 41be 85a1 983c a1ed f1bc a195 9e3d
00000060: a47e b63d f79c 26bc 9931 5ebc b3bf b33e
00000070: defa c83c a0df 08bd efba 33bd 4a14 9d3c
00000080: a36f 863d f003 04be 78b3 1c3e a8be 6dbd
00000090: 191e f3bd 0d7b 88be 06b7 35be e202 0abc
000000a0: 537f bc3b 744c 9ebc 5571 963d 3abe c0bd
000000b0: 7442 143d baab 303e bf8b 8c3d 27bf b2bc
000000c0: 443f d4be 40e6 843c 338a bb3d db26 87bd
000000d0: 5c4e 0fbe 7743 47be 901f 703d 22c5 d73d
000000e0: 9f53 1e3d 72ea 88bd 3573 58bc e1ff 1bbe
000000f0: f0b8 e2bd e9e0 d33c 9b11 1d3d 5ae0 b3bd
00000100: 02a6 bbbc 24b6 ecbd 5333 08bd 087e 863e
00000110: 337d 51be e3c6 103e efb9 383e f4f8 9d3c
00000120: b061 263e 8ec3 833d f1a9 183e 2e7d 033b
00000130: 1e9d fc3d 5f6e 0e3e 053a 78bd 7041 a0ba
00000140: 46ec 123e de42 de3d 70df 9c3c dbff e13d
00000150: 87f4 fc3d bf5a 1e3e 9c12 0abe 53bc e73d
00000160: 331f 78bd beb5 a03d f3cb 4ebd b702 073c
00000170: b967 e7bd 7888 0dbd 5492 90bd 6cd0 933d
00000180: 838e 23bd 0c72 483d a931 9f3e 62b0 56be
00000190: 75f1 b9bc 4148 793d e42a 9e3d a437 45be
000001a0: 5085 0a3e b179 d8bd 7873 653e e666 963d
000001b0: 83f4 8dbe cc4d 823d ba1e 343e 1bef a13d
000001c0: 0090 43be 70bc 4bbe 736b 4a3e b9e5 353e
000001d0: b92e 913e 9f39 eb3d 1fc3 f53c e904 bfbc
000001e0: 105f a03e 360c 8f3e bc11 3fbe 95b9 9cbe
000001f0: 519c 24be 9c0a f1bd 5e8c 0a3e cc5c 2d3e
00000200: 2af1 853d ce49 6f3c f6f0 d13d 5c77 21be
00000210: 5b39 eb3d 2102 f2bd b24a 65be 7302 8d3d
00000220: 0f6a bebe 905d edbd eae0 73be 0eb0 7dbd
00000230: 410f 6dbe bda6 edbd 8de7 89bd 6d6c 59bd
00000240: b644 16be 1c89 93bd bb1b e83d 7248 42bd
00000250: 09ca 8a3e 47ee 6a3e 4c1a 993d 7ef2 483d
00000260: fb7d 203d d10c 4dbd b192 0ebe 15ee a83d
00000270: 04c6 193e 4a7d 5d3e ba39 113e d068 ab3e
00000280: f2d3 023e 51b6 923d 491b 1b3e 0d72 65bd
00000290: d26d 56be 3c55 0bbe 047a 78bd e093 373d
000002a0: 20fa 243e f8e4 71bd 5bb2 abbe 3724 9b3d
000002b0: 0033 253d a6d5 09bd 05a7 82be c1de 023e
000002c0: 3b91 4b3d 18eb 163e e373 2ebe f300 8fbe
000002d0: 984e 4cbe 1ac7 9ebd 2462 48bd 2b08 873e
000002e0: 2ddc 9e3c d414 dabd e4db a83d 9ac2 1a3e
000002f0: da58 613e 3345 8bbd 77e4 ab3d 52d3 09be
00000300: 21c0 ee3b 9700 2fbe a9c2 153d 9d1c afbe
00000310: 16e9 fa3d ea10 063e c389 7fbe 2235 0fbd
00000320: 5c43 a8bc 4843 ac3d 3532 233d 6309 a3be
00000330: 678b 9239 585d 1e3e 449f ad3d c9ad 44bd
00000340: fe8e 17bc 3dac 32be 0d8d 84be e174 a83d
00000350: 3024 eebd 743e 8c3d 03ad 23be 1ce6 373d
00000360: 78ab 81bd e3e3 58be b57c da3c e4fb 64bd
00000370: a6bb 613d 2ed2 1e3e 8140 a0bc 442f 0bbd
00000380: 6fba eb3d 3dd1 5abe 9e11 1f3e a67c 7ebc
00000390: 8309 11be 9773 0cbe da9f e73d c44d ff3d
000003a0: 0d40 463e df21 4b3d 96bd f33b d207 49be
000003b0: 09f8 bf3d 4fc9 33be eb8a 12bd 23a6 aabd
000003c0: 051b a4bc 1777 653e 322a 2bbe e7ab 8d3d
000003d0: 1a21 72bc 73b7 8ebe 0212 2e3d 5977 783e
000003e0: 59bc 93bd 2741 bb3e 0762 82bd 35d3 2c3e
000003f0: ea84 5dbc 8124 3d3e 1917 103e 4bb9 b63d
-0.11792166 0.09779059 0.09067061 0.015101781 0.25918898 -0.17497137 -0.029677238 0.101339765
-0.17330508 0.028043421 0.086971775 -0.17966205 0.17133088 0.03553184 -0.06358919 -0.37898353
-0.26117432 0.18966469 0.11520318 0.19017303 -0.18924259 0.018631706 -0.029532256 0.07743383
0.089108735 -0.010169259 -0.01356163 0.35107192 0.024533685 -0.03341639 -0.043879446 0.019174714
0.06564262 -0.12892127 0.15302837 -0.058043152 -0.11870975 -0.2665638 -0.17745599 -0.008423539
0.005752483 -0.019323565 0.07345835 -0.09411283 0.036196187 0.17253008 0.06862592 -0.021819664
-0.41454518 0.016223073 0.09157219 -0.06599208 -0.13994735 -0.1945933 0.05862385 0.10535647
0.038653966 -0.06685342 -0.013211061 -0.15234329 -0.1107043 0.025864081 0.038346868 -0.08783026
-0.022906307 -0.11558178 -0.03325207 0.2626803 -0.20457916 0.1413837 0.18039678 0.01928375
0.16248202 0.064337835 0.14908578 0.0020063627 0.12334655 0.1390929 -0.060602207 -0.0012226533
0.14347944 0.10852598 0.019149512 0.11035129 0.123513274 0.15464304 -0.13483661 0.11315217
-0.06057663 0.078471646 -0.05048747 0.008240393 -0.112990804 -0.034553975 -0.0705916 0.07217488
-0.03993083 0.04893689 0.31092575 -0.20965722 -0.022698143 0.060859922 0.077230245 -0.19259506
0.13527417 -0.10570086 0.22407329 0.07343845 -0.2772561 0.06362495 0.17589846 0.07906934
-0.190979 -0.19896102 0.19767551 0.17763413 0.2835596 0.114856 0.030000268 -0.023317771
0.31322527 0.27939004 -0.18659109 -0.30610338 -0.16075255 -0.11769602 0.13530108 0.1692993
0.06540139 0.014604999 0.10251038 -0.15768188 0.11485549 -0.11816812 -0.22391775 0.06885233
-0.3719029 -0.11590111 -0.23816267 -0.061935477 -0.2315035 -0.116040684 -0.06733618 -0.05308192
-0.14674649 -0.07203886 0.11333414 -0.04743237 0.27107266 0.22942458 0.07475719 0.049059384
0.039182644 -0.05006105 -0.13923146 0.082485355 0.15016943 0.21629825 0.14182177 0.33478403
0.12776163 0.0716368 0.15147127 -0.05601697 -0.2094033 -0.13606733 -0.06066324 0.04481876
0.1611104 -0.059056252 -0.33534512 0.07575267 0.04033184 -0.033651017 -0.2551805 0.12780286
0.04969905 0.14738119 -0.17036395 -0.27930412 -0.19951856 -0.07752819 -0.04892172 0.2637342
0.019392097 -0.10648504 0.08245066 0.15113297 0.2200655 -0.06800308 0.083931856 -0.13459519
0.007286087 -0.17090069 0.036562596 -0.34201518 0.12251489 0.1309239 -0.24954896 -0.03496278
-0.020539932 0.084112704 0.039842803 -0.318431 0.00027951153 0.15465295 0.08477643 -0.048017297
-0.009250401 -0.17448516 -0.25888863 0.08225418 -0.11627996 0.068478495 -0.15983967 0.044897184
-0.06331533 -0.21180682 0.026670793 -0.055904284 0.055110596 0.15509865 -0.019562008 -0.033980623
0.11510169 -0.2136888 0.15534064 -0.015532648 -0.14163785 -0.13715969 0.11309786 0.124660045
0.19360371 0.04959285 0.007438372 -0.1963189 0.09373481 -0.17557262 -0.035777014 -0.08332469
-0.020032415 0.2240871 -0.16715315 0.069175534 -0.0147784 -0.27874336 0.042497642 0.24264278
-0.07213659 0.36573145 -0.063663535 0.16877444 -0.013520459 0.18470956 0.14071311 0.089220606

action_model._continuous_distribution.mu.bias f4 [39]
00000000: 5be6 6cbd fe97 e63c 33be c43d a6c7 963d
00000010: b5ed 97bc feb3 0abe 22ac 2fbe 83ad aabd
00000020: b630 e93d 6e65 0dbe b4f6 87bd 3556 6cbd
00000030: 9b0a 063c a25b e2bd fa92 d53c 2830 983d
00000040: 2bb5 953d 0f38 053d c6f8 5a3d a4ab 28be
00000050: 1d0b 233c cfb5 adbd 8e73 c83b fc06 a13b
00000060: eca1 aa3c 73db b9bc 31e6 903d f6ee d03c
00000070: 38be bd3d 3953 7bbd 8696 08be aff2 e13d
00000080: 71ba 8b3d 40a7 4bbe 67e1 193d c766 253d
00000090: 6fc0 55be c6cf 22bc 6585 18bd
-0.05783687 0.028148647 0.0960659 0.07362299 -0.018545965 -0.13545224 -0.17155507 -0.08333876
0.11386244 -0.13808224 -0.06638852 -0.0576994 0.0081812395 -0.11052634 0.02607106 0.0743106
0.07309946 0.032524165 0.053459905 -0.16471726 0.00995138 -0.08481943 0.006117291 0.0049141627
0.020829163 -0.02268765 0.070751555 0.02550457 0.09264797 -0.061358664 -0.1333867 0.11032616
0.0682267 -0.1988802 0.037568476 0.04038122 -0.20874189 -0.009937232 -0.03723659

action_model._discrete_distribution.branches.0.weight f4 [1, 64]
00000000: 3830 043a cb9a a1bc aef3 99bc f7d6 94bc
00000010: a202 083c 87f8 beb9 f02d 033b 2f8f 67bc
00000020: da99 e03a 181f b0bb c782 e6ba b896 1d3c
00000030: cb7e a3b8 9251 69bc 732e 2bbb 65f0 85bb
00000040: a914 96bb ad35 73bc 6a95 443c d3af a33c
00000050: 6333 d6ba 6745 a03b 00b3 5b3c 48f2 a0bb
00000060: b7cd 623c 2122 8fbc b1a8 94bc 1d00 fa3b
00000070: 700c 773a e3d1 473b caf0 0d3c 5122 113b
00000080: 5d59 853c 17be 223c fdfe 8fbc 5894 eebb
00000090: 1ba1 603a 45ef 62bc 3849 5fbc d209 aebc
000000a0: f02c 683c 67fd 94bb d0f8 38bb 4078 1eba
000000b0: 8a2e 9c3c f00d 9a3c 188f 083c c2a2 4eba
000000c0: d260 4dbc 7fef 87ba 4f9b f83c 53ef e13c
000000d0: 27f7 3e3b 0693 38bc b7fa 7e3b f9bd 19bc
000000e0: 9ce1 37bc a303 f63a b2da 263b a2d4 83bc
000000f0: 6200 c33c 4b34 a13b 634c 34bc e7e1 813c
0.00050425855 -0.019727131 -0.018792953 -0.01816891 0.008301409 -0.0003642479 0.0020016395 -0.014133259
0.0017135695 -0.0053748004 -0.0017586582 0.009618454 -7.796063e-05 -0.014240639 -0.0026120215 -0.004087495
-0.0045800996 -0.01484434 0.011998514 0.0199813 -0.0016342219 0.004891086 0.013409376 -0.0049116947
0.013842992 -0.017472329 -0.018146845 0.007629408 0.00094241556 0.0030490092 0.008663366 0.0022145698
0.016277963 0.009933016 -0.017577643 -0.0072808675 0.00085689285 -0.013850992 -0.013628297 -0.021244917
0.01417087 -0.0045468095 -0.0028224476 -0.00060451403 0.01906516 0.018805474 0.008334897 -0.0007882529
-0.012535291 -0.0010371058 0.030347494 0.027579939 0.0029139013 -0.011265522 0.0038906762 -0.009383672
-0.011223223 0.0018769394 0.0025459942 -0.016092602 0.023803893 0.004919564 -0.01100454 0.015854789
