Assets/Ai/newAgent-25348854.onnx (onnx, 935464 bytes, 15 tensors)

network_body.observation_encoder.processors.0.normalizer.running_mean f4 [55]
3.0340502 3.1184282 0.97922176 0.0 4.736943 4.3648524 4.362976 4.923368
0.547008 0.68601 0.6407223 0.5781043 4.4490733 2.9578648 5.28951 3.4265306
-0.013835213 0.00050148263 -0.0018117212 -0.0070841094 0.0005067798 0.0034234433 -0.011270855 0.00251892
-0.002761124 0.007123267 1.1172992e-05 0.0015841116 -0.013435627 0.00041558756 -0.0019072781 -0.0027629044
-0.00062371924 0.0019204844 0.01157187 0.0001897178 -0.004035915 0.006428513 -0.00028741817 -0.0068374085
0.00575163 0.00075583876 -0.00090706046 0.006188762 0.00031164737 0.0011036114 -0.081291504 -0.00077556365
0.0044492297 -0.022581592 7.5279227e-06 0.008030075 -0.012302165 -0.0005363655 0.0076454733
00000000: e12d 4240 5494 4740 47ae 7a3f 0000 0000
00000010: 0995 9740 dfac 8b40 809d 8b40 3b8c 9d40
00000020: b708 0c3f 5a9e 2f3f 6006 243f a5fe 133f
00000030: cf5e 8e40 a84d 3d40 aa43 a940 474c 5b40
00000040: 17ad 62bc ee75 033a 4777 edba d121 e8bb
00000050: 6bd9 043a d95b 603b 64a9 38bc 7714 253b
00000060: f9f3 34bb 4b6a e93b a373 3b37 f7a1 cf3a
00000070: 1b21 5cbc 38e3 d939 a2fd f9ba d811 35bb
00000080: 1781 23ba c3b8 fb3a f197 3d3c fcee 4639
00000090: b53f 84bb 47a6 d23b 9db0 96b9 570c e0bb
000000a0: 2b78 bc3b 7b23 463a ccc7 6dba 19cb ca3b
000000b0: 9a64 a339 0ea7 903a 297c a6bd 324f 4bba
000000c0: d8ca 913b 08fd b8bc 5d98 fc36 9390 033c
000000d0: 058f 49bc e19a 0cba e186 fa3b

network_body._body_endoder.seq_layers.0.weight f4 [256, 55]
-0.15440322 0.16817117 0.18298464 0.07329483 -0.031149924 -0.052242786 0.010843369 0.078388944
-0.042196933 0.18583694 0.066754155 -0.12144064 0.45561936 -0.04249654 0.07137591 0.08450525
-0.02107612 -0.11646881 0.21965303 0.030470219 0.08459893 0.13739769 -0.3610275 -0.10463957
-0.14227879 -0.023971353 0.08421366 -0.1666167 0.15871902 -0.05726259 0.055711493 -0.060023263
0.0022400937 -0.05876366 0.0043188073 0.116392955 -0.0009414511 -0.03215362 0.080970965 0.106107876
0.103474006 0.12558167 0.082863435 -0.16054896 -0.021255549 0.064979225 0.20396122 -0.09988468
0.14621745 -0.164268 -0.060029563 0.18386757 0.24762343 0.078777425 -0.07805923 -0.22188973
0.09541318 -0.06948508 0.11421365 -0.046987973 -0.07774137 0.024581585 -0.04470713 -0.09128248
-0.14887989 0.41346112 -0.07565535 0.12365223 -0.11256155 0.15882443 -0.20346756 -0.34561697
-0.07222693 -0.031713873 -0.079736054 -0.0024872392 0.29878172 -0.08678241 -0.17867616 0.19512534
0.2106538 0.13943683 0.15091929 0.05774589 0.10307332 0.13732512 0.20768617 0.05711006
0.077777535 0.04726293 0.15794337 -0.11006526 -0.08241476 0.52399635 -0.110117644 0.08143449
-0.19902842 0.29169953 0.09287408 -0.109902546 -0.09775299 -0.3150425 -0.005999776 0.015237168
0.3050688 -0.13780862 -0.005856669 -0.079969734 -0.00916006 0.09123881 0.021670181 0.21215448
0.085182086 0.01592802 -0.078575864 0.055788748 -0.09920777 -0.0861814 0.04699214 -0.461264
0.069201715 -0.14712831 -0.2942009 0.028819032 0.04158962 -0.048379697 0.30519867 0.29090047
0.26922542 -0.043808065 0.040271007 0.2963216 -0.13909276 -0.047198832 -0.017831769 0.04110697
0.11908047 0.06304265 -0.079270616 -0.11809431 0.0784109 -0.24500938 -0.37678334 0.08105826
0.16792956 -0.16019288 -0.17139395 0.20930526 -0.35849684 -0.026055299 0.17564236 -0.16159132
0.028592039 0.23348486 -0.35764518 0.03244876 0.09152125 -0.14122188 0.1658598 0.00091255124
-0.21786995 -0.2407475 -0.12554051 -0.23735666 -0.16900118 -0.15100655 -0.1377192 -0.15239595
0.18311426 -0.13893494 0.15954493 0.30004573 0.107219666 -0.09306395 0.009174879 0.041183203
-0.11559808 0.060733013 0.2037395 -0.104299285 0.18073878 -0.042396657 0.0018953207 0.23275957
-0.2664823 0.070428215 -0.3263741 0.035402074 0.025468962 0.06642462 0.12754819 -0.13836814
-0.23427 0.21350646 0.017836994 -0.03340036 -0.26915574 -0.19834475 -0.19222078 0.19499291
0.11855542 0.23138362 -0.125353 -0.28561914 0.1954562 0.051968142 0.058556363 -0.106089
0.10620369 -0.1197181 -0.117221914 0.099195465 0.0021627892 0.16747728 -0.011945032 0.02326912
-0.046946753 0.040170185 -0.22952063 0.3614482 -0.1252947 -0.17795084 -0.1266978 0.20191616
-0.001215919 -0.12362313 0.003299446 0.20127203 0.0659179 0.21503177 -0.25842285 0.1984271
-0.15879843 -0.11700308 -0.05097645 -0.12561412 -0.045160495 0.021192512 -0.075827606 -0.008466906
-0.037101947 0.111124516 -0.30839705 0.1094571 -0.07867892 0.049840942 0.044109967 0.013507311
0.16211991 0.10825108 0.19009867 0.025327059 -0.41899827 -0.19671781 0.011297646 -0.026806027
00000000: e11b 1ebe 1035 2c3e 5360 3b3e 9a1b 963d
00000010: 202e ffbc 88fc 55bd 63a8 313c 628a a03d
00000020: b1d6 2cbd 0a4c 3e3e 67b6 883d dfb5 f8bd
00000030: f146 e93e da10 2ebd 882d 923d 1711 ad3d
00000040: d4a7 acbc 3387 eebd b9ec 603e ae9c f93c
00000050: 3442 ad3d fbb1 0c3e 99d8 b8be 454d d6bd
00000060: 88b1 11be 925f c4bc 3678 ac3d 919d 2abe
00000070: 3d87 223e 2d8c 6abd bc31 643d f4da 75bd
00000080: 89ce 123b 2ab2 70bd c884 8d3b 6e5f ee3d
00000090: b7cb 76ba 84b3 03bd 1bd4 a53d 164f d93d
000000a0: 2eea d33d 7b98 003e 4eb4 a93d f266 24be
000000b0: 1e20 aebc d413 853d 36db 503e 5790 ccbd
000000c0: 07ba 153e df35 28be 8fe1 75bd c847 3c3e
000000d0: ff90 7d3e 0f56 a13d 85dd 9fbd 1037 63be
000000e0: fc67 c33d 324e 8ebd d9e8 e93d 7676 40bd
000000f0: de36 9fbd 525f c93c d31e 37bd 4ff2 babd
00000100: f873 18be 2db1 d33e 31f1 9abd 613d fd3d
00000110: ac86 e6bd dfa2 223e cd59 50be b5f4 b0be
00000120: b6eb 93bd 68e6 01bd a84c a3bd f300 23bb
00000130: ebf9 983e faba b1bd e2f6 36be f0ce 473e
00000140: a1b5 573e 87c8 0e3e 968a 1a3e f486 6c3d
00000150: 1b18 d33d f59e 0c3e afab 543e 3dec 693d
00000160: d449 9f3d c696 413d e8bb 213e e569 e1bd
00000170: 12c9 a8bd a024 063f 5c85 e1bd 20c7 a63d
00000180: 1bce 4bbe a459 953e c434 be3d 9614 e1bd
00000190: b832 c8bd 404d a1be c599 c4bb 51a5 793c
000001a0: fa31 9c3e b41d 0dbe 4de9 bfbb 2cc7 a3bd
000001b0: 1414 16bc 6adb ba3d aa85 b13c 063f 593e
000001c0: f273 ae3d 7b7b 823c 62ec a0bd be82 643d
000001d0: 712d cbbd e07f b0bd d57a 403d cc2a ecbe
000001e0: a1b9 8d3d cea8 16be 80a1 96be e415 ec3c
000001f0: e159 2a3d ca29 46bd 0043 9c3e e8f0 943e
00000200: ead7 893e 1670 33bd 36f3 243d 77b7 973e
00000210: 556e 0ebe 9053 41bd ee13 92bc c85f 283d
00000220: 76e0 f33d 811c 813d a258 a2bd 6edb f1bd
00000230: e595 a03d bde3 7abe bfe9 c0be df01 a63d
00000240: baf5 2b3e 9a09 24be e581 2fbe 1e54 563e
00000250: e68c b7be ec71 d5bc 97db 333e 3278 25be
00000260: da39 ea3c a816 6f3e 451d b7be fee8 043d
00000270: 7e6f bb3d 789c 10be 27d7 293e 4738 6f3a
00000280: 4d19 5fbe 8386 76be b18d 00be a00d 73be
00000290: a50e 2dbe 76a1 1abe 4306 0dbe af0d 1cbe
000002a0: 4e82 3b3e f644 0ebe bf5f 233e 989f 993e
000002b0: fc95 db3d 5098 bebd 3b52 163c b8af 283d
000002c0: b0be ecbd 2ec3 783d 16a1 503e dd9a d5bd
000002d0: 9613 393e 1ea8 2dbd 696c f83a 8658 6e3e
000002e0: 5e70 88be ab3c 903d 821a a7be c401 113d
000002f0: 49a4 d03c a209 883d fe9b 023e 61b0 0dbe
00000300: 7ae4 6fbe 70a1 5a3e e31e 923c d1ce 08bd
00000310: c8ce 89be e31a 4bbe 86d5 44be 39ac 473e
00000320: 2fcd f23d d4ef 6c3e 895c 00be ac3c 92be
00000330: ac25 483e 8cdc 543d ccd8 6f3d 3145 d9bd
00000340: 5281 d93d c32e f5bd 0b12 f0bd fe26 cb3d
00000350: 95bd 0d3b 2a7f 2b3e 18b5 43bc e29e be3c
00000360: 3d4b 40bd 7e89 243d 7507 6bbe bd0f b93e
00000370: 414d 00be bf38 36be 11bd 01be 1cc3 4e3e
00000380: 795f 9fba 202e fdbd 853b 583b 411a 4e3e
00000390: f7ff 863d 4a31 5c3e 0050 84be 7930 4b3e
000003a0: 0e9c 22be 509f efbd afcc 50bd fda0 00be
000003b0: 36fa 38bd eb9b ad3c 814b 9bbd c7b8 0abc
000003c0: 36f8 17bd 4095 e33d 38e6 9dbe 0b2b e03d
000003d0: 6a22 a1bd 0426 4c3d a7ac 343d c54d 5d3c
000003e0: c302 263e beb2 dd3d 3aa9 423e b17a cf3c
000003f0: f186 d6be 6570 49be c319 393c 5098 dbbc

network_body._body_endoder.seq_layers.0.bias f4 [256]
-0.04807635 0.00040490285 -0.009222991 -0.03956487 0.0044049984 -0.055424068 0.030268446 -0.032090176
0.0025261098 -0.006345882 0.028989932 -0.012691509 -0.015303375 0.014268824 0.007858856 -0.019223988
0.020118982 -0.0015045098 0.008296257 0.025904797 0.028385032 -0.052634794 0.041557897 -0.04225275
0.015183551 0.009330571 0.016708983 0.0025944249 0.0105902525 -0.01656784 -0.0126535455 -0.018295467
-0.0050644972 -0.009213794 -0.025155723 0.016395943 -0.019782834 0.009761769 -0.011156877 -0.016426258
0.01321351 0.008686453 0.024580222 0.01907772 0.013271347 0.028554993 -0.040968027 -0.004492825
0.021685239 0.009111145 -0.060468853 0.0056589087 -0.00064227084 -0.024841867 -0.0018928512 -0.0011113705
-0.016692678 0.060296018 -0.022290336 -0.019082597 -0.043938223 -0.03214272 -0.03646977 -0.030454883
0.00041310152 -0.0063273776 0.011041717 0.013309167 0.009961603 -0.012487483 0.0016486376 -0.0126403
0.06249737 -0.024374502 -0.013765074 0.004239456 -0.029320551 0.019872662 -0.019859564 0.043484606
0.020836735 -0.0726424 -0.009341689 -0.04697588 0.013924566 0.032888178 -0.049984194 -0.012675143
0.015521365 0.050561484 0.03762151 -0.014079766 0.035318714 -0.024675192 0.016663028 0.0017077222
-0.008952483 0.022626203 -0.01729531 0.036845755 0.03750343 0.056751 0.025834482 -0.039787196
-0.01964833 -0.035725877 0.009851051 0.07635965 -0.080347925 0.012283962 0.0050605205 -0.04983989
0.023272054 -0.02714265 -0.052042685 -0.015051794 -0.042040456 0.015754052 -0.005356556 -0.033411898
-0.024255933 -0.010461109 -0.033374377 -0.042777047 -0.013160371 -0.04006637 0.022601336 -0.01670939
0.03454933 0.024336565 -0.037149172 -0.010913393 -0.018596018 -0.02226773 0.0064100767 0.052075285
-0.011165923 -0.015543798 0.0047276765 -0.00010590127 0.01575734 -0.021542571 -0.007848634 0.004704187
-0.051263716 -0.019273214 -0.029546963 0.020807413 -0.0024436705 -0.04289876 -0.04958065 -0.0036147002
-0.0051299175 0.022434283 0.008004048 0.011185784 -0.00781116 -0.039820503 0.018297592 -0.037367363
0.04909498 0.044790853 -0.020296218 0.0044914824 -0.009358629 -0.0132551845 -0.006671654 -0.018582214
0.0048012743 -0.011037675 -0.06844271 -0.0008207353 -0.034905486 -0.021364115 -0.016077468 0.04303183
-0.05675829 0.0069723595 -0.00056752935 -0.053247795 -0.04944525 0.018875126 0.02826575 0.022452053
0.021504547 -0.03684447 0.014193378 -0.030521259 0.051474344 0.034985475 -0.044789787 -0.027742727
0.024574572 -0.02040203 0.015226106 0.016628986 -0.0029887955 -0.047136728 -0.052997503 0.04590743
0.015481634 0.0599146 -0.057982642 -0.0330124 0.03197573 0.003341782 0.014401836 0.030125206
0.018976128 -0.009944209 -0.017551582 0.0265314 0.009506257 -0.017569533 -0.012407491 0.025581656
0.019331623 0.008927102 -0.009856376 0.016772704 0.008595551 -0.015757278 -0.068941094 0.023359792
0.03458127 0.0057237437 -0.023022406 -0.031343233 -0.02034827 0.019806782 -0.015059983 0.01503046
-0.020445095 -0.007865885 -0.012240508 -0.032843094 -0.030110108 0.017715719 0.011755904 -0.009684442
-0.055768203 0.036442813 -0.046694383 -0.007306185 0.03310968 -0.016870363 0.015237119 -0.01800469
0.0154800275 -0.06150692 0.050452124 0.01713183 -0.025755763 0.034508053 -0.0014110322 0.019000404
00000000: b5eb 44bd 2449 d439 071c 17bc c60e 22bd
00000010: ce57 903b 5904 63bd 88f5 f73c fd70 03bd
00000020: 178d 253b 1ef1 cfbb 4b7c ed3c 0cf0 4fbc
00000030: 02bb 7abc c9c7 693c 6ec2 003c a07b 9dbc
00000040: 90d0 a43c f932 c5ba 06ed 073c 4c36 d43c
00000050: ba87 e83c 9597 57bd 9d38 2a3d 3811 2dbd
00000060: 6ec4 783c 40df 183c 47e1 883c 3a07 2a3b
00000070: bd82 2d3c 47b9 87bc d150 4fbc 60e0 95bc
00000080: 15f4 a5bb 74f5 16bc 6013 cebc c950 863c
00000090: 9c0f a2bc d4ef 1f3c 55cb 36bc 5c90 86bc
000000a0: 7a7d 583c a051 0e3c 765c c93c e148 9c3c
000000b0: 1070 593c 29ec e93c 17ce 27bd 8c38 93bb
000000c0: 3ea5 b13c e946 153c 30ae 77bd 5e6e b93b
000000d0: 115e 28ba 2c81 cbbc 8c19 f8ba 68ab 91ba
000000e0: 15bf 88bc f5f8 763d 399a b6bc 1b53 9cbc
000000f0: 91f8 33bd 16a8 03bd 5361 15bd 857c f9bc
00000100: 8c95 d839 e455 cfbb 51e8 343c b10e 5a3c
00000110: fe35 233c 4d98 4cbc 1917 d83a 4319 4fbc
00000120: 3efd 7f3d 09ad c7bc e886 61bc 22eb 8a3b
00000130: a731 f0bc fecb a23c 86b0 a2bc ea1c 323d
00000140: cdb1 aa3c 8ac5 94bd e20d 19bc c869 40bd
00000150: dd23 643c c1b5 063d 3abc 4cbd 67ab 4fbc
00000160: 534d 7e3c 8f19 4f3d 0319 1a3d d2ae 66bc
00000170: 5baa 103d a123 cabc e780 883c a6d5 df3a
00000180: 6fad 12bc 965a b93c e5ae 8dbc 93eb 163d
00000190: 329d 193d bd73 683d d6a2 d33c e6f7 22bd
000001a0: 89f5 a0bc 4c55 12bd 4d66 213c 7362 9c3d
000001b0: 748d a4bd ac42 493c b9d2 a53b ea24 4cbd
000001c0: 09a5 be3c 435a debc b62a 55bd cd9b 76bc
000001d0: 9d32 2cbd a40e 813c 0c86 afbb eada 08bd
000001e0: 61b4 c6bc 1265 2bbc 92b3 08bd fc36 2fbd
000001f0: 999e 57bc a21c 24bd 7026 b93c 21e2 88bc
00000200: 9983 0d3d 7a5d c73c bb29 18bd 17ce 32bc
00000210: ad56 98bc d16a b6bc 9f0b d23b e54c 553d
00000220: 47f1 36bc 6aab 7ebc a0ea 9a3b 5017 deb8
00000230: 8915 813c 0c7a b0bc 8f97 00bc 9525 9a3b
00000240: e7f9 51bd dce2 9dbc 790c f2bc 4f74 aa3c
00000250: fd25 20bb 9cb6 2fbd 1415 4bbd 9be4 6cbb
00000260: de18 a8bb 1ac8 b73c 6923 033c 9444 373c
00000270: c2f4 ffbb d31a 23bd d5e4 953c 850e 19bd
00000280: d117 493d 9d76 373d 4144 a6bc 492d 933b
00000290: ef54 19bc 462c 59bc e49d dabb ba39 98bc
000002a0: 0254 9d3b 5dd7 34bc b12b 8cbd 9d26 57ba
000002b0: 0ef9 0ebd cc03 afbc e5b4 83bc 2542 303d
000002c0: 617b 68bd 6478 e43b 40c6 14ba 5c1a 5abd
000002d0: 1a87 4abd 02a0 9a3c 938d e73c 5eed b73c
000002e0: 4e2a b03c 3aea 16bd 588b 683c b807 fabc
000002f0: c3d6 523d ee4c 0f3d 7f75 37bd b744 e3bc
00000300: 9d50 c93c 2822 a7bc eb76 793c 8339 883c
00000310: abdf 43bb 7112 41bd e913 59bd 6e09 3c3d
00000320: aea6 7d3c 0369 753d 357f 6dbd 0338 07bd
00000330: fcf8 023d cc01 5b3b aef5 6b3c 23c9 f63c
00000340: d373 9b3c 09ed 22bc 56c8 8fbc 6158 d93c
00000350: 22c0 1b3c fbed 8fbc ca48 4bbc 9f90 d13c
00000360: 5a5d 9e3c fb42 123c a37c 21bc e966 893c
00000370: 5bd4 0c3c 6815 81bc fd30 8dbd 095d bf3c
00000380: 17a5 0d3d 3e8e bb3b 7c99 bcbc c361 00bd
00000390: 6ab1 a6bc d541 a23c 26be 76bc 5242 763c
000003a0: 797c a7bc eadf 00bc 698c 48bc 7b86 06bd
000003b0: 79a9 f6bc 8e20 913c d69b 403c 7eab 1ebc
000003c0: 336d 64bd 0f45 153d 9c42 3fbd b968 efbb
000003d0: 049e 073d b733 8abc 1ca5 793c 927e 93bc
000003e0: f19f 7d3c aeee 7bbd e3a6 4e3d 0d58 8c3c
000003f0: c0fd d2bc 5158 0d3d 62f2 b8ba bca6 9b3c

network_body._body_endoder.seq_layers.2.weight f4 [256, 256]
-0.015432956 -0.09782119 0.023824295 -0.1778229 0.12973168 -0.13505459 -0.08125361 -0.08450494
0.094059154 -0.030560974 -0.13931641 0.034587987 0.0028133052 -0.027574137 0.003941626 -0.106806844
-0.060621887 -0.06763424 0.1795428 -0.12901814 -0.14321086 -0.029476944 -0.11205434 0.09121735
-0.006925287 -0.03538229 0.06650656 0.14575979 0.09917177 0.038606443 -0.09708263 0.08566627
0.09866562 0.030786866 0.0022687018 0.21335165 -0.09022522 0.06619137 -0.068873495 -0.08844328
-0.0073692785 -0.08928594 0.0011251932 0.011820693 -0.18687889 -0.121638484 0.19710399 -0.07136776
0.003485418 -0.088183 0.069757216 0.055599038 -0.013470608 0.15613545 -0.062519364 -0.20293802
-0.064962864 0.044156812 0.13282368 0.15369026 0.16527708 0.09328527 0.01082941 0.17346603
0.06838143 -0.12556663 0.0104955705 0.06735976 -0.16913219 -0.11046956 0.017286588 -0.123453684
0.061813608 0.047028802 0.17327833 0.031797405 -0.10447133 -0.2904209 -0.070009366 0.14752103
-0.07563593 -0.031694442 0.11458094 -0.09362348 0.07526331 -0.18741742 0.046406843 0.08300446
0.00019401882 -0.036949135 -0.05984288 -0.0066093532 -0.087481484 0.033746578 0.15521976 0.045079343
0.10017637 0.16893384 0.09612618 0.03894567 0.035751175 0.06369855 -0.07502918 -0.12462896
0.052017197 0.03488283 0.12877199 0.19050075 -0.1412601 -0.0102326 0.11589862 0.018136304
0.074719675 0.10222554 0.1840077 -0.08510923 0.00057459925 0.0034011337 -0.12984167 0.028855752
-0.102596514 0.027331866 0.071095236 0.06202071 0.062373657 0.09815887 -0.08046045 0.011878215
-0.03603825 0.04678163 -0.032908734 0.11771217 -0.16465716 0.0627454 -0.022263937 0.07551482
-0.029703993 0.02748101 -0.083709285 -0.053102534 0.010010296 0.059632514 0.004055687 0.019946989
-0.08402689 -0.030168144 0.020469971 -0.09325586 -0.04112162 0.02220503 -0.1804985 -0.13716787
-0.009309538 0.13985716 -0.0435581 -0.066500746 -0.008682885 -0.008757817 0.016100151 0.10770924
0.14917615 -0.027492968 -0.026578043 0.13042274 0.19447541 -0.027481237 0.051566634 -0.012471523
0.09170839 0.036670007 -0.11774035 0.2121952 -0.004084742 -0.07485485 -0.0648679 0.048228722
0.14897075 0.010496381 0.037877765 0.2097094 0.027794804 0.09231971 -0.023974786 0.012289855
-0.09488238 0.059112974 -0.08832563 -0.067406796 -0.08277686 0.30656832 -0.13458078 -0.037836738
0.20843242 -0.12592971 0.02331748 -0.09319491 -0.2932076 0.045305382 -0.012346457 -0.02987165
-0.052999526 -0.019440595 -0.10681472 0.14336462 -0.011813263 -0.06510459 -0.0777363 0.025141243
-0.028844282 0.12290235 0.16299528 0.008180264 0.019659212 0.02233762 0.044184174 0.13496347
0.23843454 0.25945437 -0.0019413577 -0.058923226 -0.2303756 -0.0667293 0.09235879 -0.0011514118
-0.051832076 0.11582505 0.104293816 -0.03113218 0.0067951833 0.024382042 0.04302627 0.10667463
-0.008469157 0.13472599 -0.11083994 -0.17906688 -0.06413805 0.046923947 -0.17817514 -0.077572696
0.12936367 -0.061805982 0.0070658815 -0.030581223 0.0056167357 -0.14320442 -0.040583655 0.05209306
-0.09647994 0.005535906 -0.06624752 -0.07092446 0.02927907 -0.006087894 -0.06609851 0.008412886
00000000: 82da 7cbc 7a56 c8bd 2b2b c33c 3517 36be
00000010: 62d8 043e c04b 0abe 4b68 a6bd ed10 adbd
00000020: 16a2 c03d 025b fabc f6a8 0ebe 22ac 0d3d
00000030: 6e5f 383b 28e3 e1bc c128 813b 8cbd dabd
00000040: a84e 78bd d283 8abd 11da 373e 551d 04be
00000050: dea5 12be a279 f1bc bf7c e5bd 29d0 ba3d
00000060: 85ed e2bb 05ed 10bd 9734 883d 0e42 153e
00000070: 921a cb3d ca21 1e3d 42d3 c6bd cc71 af3d
00000080: 3311 ca3d bd34 fc3c 80ae 143b db78 5a3e
00000090: 00c8 b8bd 578f 873d 8c0d 8dbd c021 b5bd
000000a0: fd79 f1bb 8cdb b6bd 387b 933a 94ab 413c
000000b0: 2e5d 3fbe 991d f9bd a1d5 493e 4329 92bd
000000c0: 9c6b 643b 4a99 b4bd dfdc 8e3d d1bb 633d
000000d0: d3b3 5cbc f9e1 1f3e 270a 80bd fcce 4fbe
000000e0: 400b 85bd c6dd 343d ee02 083e fb60 1d3e
000000f0: 653e 293e 590c bf3d d66d 313c 14a1 313e
00000100: 900b 8c3d 8a94 00be 9df5 2b3c eaf3 893d
00000110: fd30 2dbe dd3d e2bd 9a9c 8d3c 49d5 fcbd
00000120: 4430 7d3d 46a1 403d e06f 313e ff3d 023d
00000130: 11f5 d5bd 0cb2 94be 1261 8fbd c10f 173e
00000140: 03e7 9abd 08d2 01bd 69a9 ea3d abbd bfbd
00000150: a623 9a3d 5aea 3fbe 1a15 3e3d 3efe a93d
00000160: 8871 4b39 fa57 17bd cf1d 75bd 4693 d8bb
00000170: 7e29 b3bd da39 0a3d eef1 1e3e 1ea5 383d
00000180: 4529 cd3d fefc 2c3e cddd c43d 7f85 1f3d
00000190: d36f 123d 6374 823d e6a8 99bd 783d ffbd
000001a0: fc0f 553d 4ce1 0e3d cedc 033e a112 433e
000001b0: 7da6 10be a3a6 27bc 415c ed3d 9692 943c
000001c0: a106 993d a05b d13d 846c 3c3e bf4d aebd
000001d0: b4a0 163a 8ee5 5e3b 37f5 04be e662 ec3c
000001e0: 1f1e d2bd 14e7 df3c 619a 913d 6e09 7e3d
000001f0: 857b 7f3d 8507 c93d 73c8 a4bd d89c 423c
00000200: d89c 13bd 189e 3f3d 4fcb 06bd 1413 f13d
00000210: e39b 28be a980 803d dc62 b6bc 84a7 9a3d
00000220: ca55 f3bc db1f e13c c66f abbd 0b82 59bd
00000230: 3902 243c 3941 743d 92e5 843b de67 a33c
00000240: 4a16 acbd 2f23 f7bc a4b0 a73c eefc bebd
00000250: 256f 28bd 53e7 b53c 99d4 38be bc75 0cbe
00000260: 0887 18bc b736 0f3e fa69 32bd 8b31 88bd
00000270: a942 0ebc f27c 0fbc 77e4 833c a996 dc3d
00000280: a2c1 183e ef38 e1bc 32ba d9bc 8a8d 053e
00000290: 9024 473e 5520 e1bc 8937 533d 5c55 4cbc
000002a0: 9cd1 bb3d 4a33 163d da21 f1bd b349 593e
000002b0: 4dd9 85bb 804d 99bd 76d9 84bd 7b8b 453d
000002c0: ca8b 183e 03f9 2b3c b725 1b3d 10be 563e
000002d0: eeb1 e33c 1e12 bd3d c566 c4bc 635b 493c
000002e0: b151 c2bd 7220 723d 11e4 b4bd 930c 8abd
000002f0: ea86 a9bd 86f6 9c3e 8bcf 09be b2fa 1abd
00000300: 4f6f 553e b8f3 00be 4d04 bf3c f9dc bebd
00000310: 4e1f 96be 2392 393d cb48 4abc 64b5 f4bc
00000320: 0816 59bd e241 9fbc adc1 dabd 2dce 123e
00000330: 6b8c 41bc 8e55 85bd 3634 9fbd 02f5 cd3c
00000340: d84a ecbc 3ab4 fb3d 3ce8 263e 8406 063c
00000350: 5b0c a13c 62fd b63c 77fa 343d dd33 0a3e
00000360: 2f28 743e 34d7 843e 2875 feba 7b59 71bd
00000370: 95e7 6bbe 5fa9 88bd 9b26 bd3d f8ea 96ba
00000380: df4d 54bd af35 ed3d ff97 d53d ea08 ffbc
00000390: 21aa de3b d9bc c73c 503c 303d 3a78 da3d
000003a0: 38c2 0abc 9cf5 093e 0d00 e3bd 4f5d 37be
000003b0: cf5a 83bd 5333 403d 8b73 36be 6fde 9ebd
000003c0: e977 043e 4528 7dbd e988 e73b 7985 fabc
000003d0: 980c b83b 2ea4 12be 0c3b 26bd 885f 553d
000003e0: 4697 c5bd 8c66 b53b c8ac 87bd d840 91bd
000003f0: a9da ef3c f57c c7bb a85e 87bd 34d6 093c

network_body._body_endoder.seq_layers.2.bias f4 [256]
0.0125596095 -0.047971386 -0.012215177 0.0031545283 -0.019172851 0.027260594 -0.0408552 -0.010902719
0.0021904102 0.065695874 0.013856163 0.009056258 -0.006367627 0.027407885 0.014361069 -0.002914667
-0.013919906 -0.006649986 0.0071441885 -0.019002315 0.0004151822 -0.022512019 -0.0327036 -0.027712397
-0.010983893 0.0034840168 0.0039025815 0.007042032 0.00375974 -0.013228364 0.011669439 0.0027470363
0.001320223 -0.021294024 0.053289954 0.0053889733 0.016902424 0.00904854 -0.007821657 0.025886247
-0.007331053 -0.028813137 -0.036031265 -0.011273582 0.0033608454 -0.043646537 0.005873039 0.020112392
-0.0053387475 0.026233831 0.017026758 0.056515798 -0.013809179 -0.00977227 0.0060570887 -0.023111437
-0.0051315376 0.0008791609 0.012112273 0.0119899865 -0.0014614844 0.00019612019 -0.02444205 -0.048731893
0.0107367905 0.012146548 -0.014144772 -0.009396935 0.027786639 0.0064631244 0.0041130274 -0.031575248
-0.02999543 -0.025059197 -0.010399449 -0.0024734566 -0.0028263822 -0.016876588 0.0019750013 -0.01917734
0.032079328 -0.00093084114 -0.011073435 0.016225966 -0.010712961 -0.0029793757 -0.028364401 0.016188713
0.0036588865 -0.041124694 0.025802996 0.03755441 0.032374445 -0.011563496 -0.017971184 0.0023843127
-0.006480886 -0.01051252 -0.031914387 -0.03244412 -0.007728506 0.020945542 -0.025013873 0.03283361
-0.058261804 0.0118692415 -0.014762409 -0.002205406 -0.0016207186 0.012001116 -0.018983183 -0.029882738
0.004459492 -0.02292707 -0.0042312676 -0.024133796 -0.0030663384 0.0077085164 -0.030953474 0.053423222
-0.015151676 -0.018875316 -0.0068702283 -0.012564371 0.012019915 0.008011691 0.009453423 0.008807962
0.009896991 0.007946736 0.016763609 -0.016140213 -0.020180758 -0.010688249 0.0014510754 -0.00070791907
0.01893332 0.0113522895 0.029901598 -0.009832352 0.0020550876 0.010405716 -0.0015162904 0.04343105
0.030127713 0.011749958 0.009389038 0.012920588 -0.02129715 -0.015915424 0.019705148 0.019041535
-0.04744085 -0.019369267 0.005943365 0.01210059 -0.03889134 0.0067629996 -0.029401835 -0.01797758
0.022715706 -0.01626362 -0.018423328 -0.002946692 -0.016418185 0.01983952 -0.013622635 -0.007518392
-0.025536649 0.012817329 -0.0034369044 0.02823997 0.010354466 0.03739338 0.0065927138 -0.016105548
-0.024708869 0.00421137 -0.0018007953 -0.0044877883 0.0035794636 -0.043513786 0.021254946 0.063435875
-0.021717869 0.019906392 0.012840726 -0.0051567205 0.02966618 0.042165805 -0.03738163 -0.06793392
-0.03448621 0.01914675 0.028531615 0.013269703 0.00091664837 -0.006026772 -0.030535556 -0.004758951
-0.014971847 -0.00979896 -0.014721004 -0.024118511 -0.0032453076 -0.0015258086 -0.030607225 -0.014520559
0.07382138 0.018307727 0.013620184 0.0034010285 0.0063951192 0.021917438 -0.019516109 0.0068425457
-0.020777538 0.013921997 -0.0013230824 -0.019243252 0.015140017 -0.016875872 0.024395626 0.02803578
0.00171462 -0.01817409 0.006803733 -0.03174107 -0.03553545 0.00941435 0.0013454324 -0.005341914
-0.022406625 -0.025624646 -0.00045150693 0.0015097654 0.00042109663 -0.055432916 -0.022498464 -0.018327061
-0.0027600203 0.0060213194 0.023197081 0.013152344 -0.00041688478 0.0009200938 -0.0055910787 -0.00825734
0.023473844 0.004605846 -0.04368456 0.009211691 0.024066495 0.00867936 0.019264419 -0.0011528165
00000000: d2c6 4d3c a57d 44bd 2a22 48bc 34bc 4e3b
00000010: 6210 9dbc 9c51 df3c c857 27bd 51a1 32bc
00000020: fc8c 0f3b 8f8b 863d f604 633c b360 143c
00000030: 87a7 d0bb 8086 e03c b04a 6b3c ff03 3fbb
00000040: 5110 64bc 20e8 d9bb cc19 ea3b beaa 9bbc
00000050: d0ac d939 206b b8bc 36f4 05bd 1c05 e3bc
00000060: c9f5 33bc 1a54 643b 74c2 7f3b d9c0 e63b
00000070: f865 763b c8bb 58bc 2d31 3f3c 9f07 343b
00000080: 550b ad3a ce70 aebc 9146 5a3d fc95 b03b
00000090: f476 8a3c 5440 143c 6826 00bc 650f d43c
000000a0: 5439 f0bb 8709 ecbc 8595 13bd d4b4 38bc
000000b0: a141 5c3b b6c6 32bd 9f72 c03b bec2 a43c
000000c0: a9f0 aebb 55e8 d63c b37b 8b3c 1c7d 673d
000000d0: e53f 62bc df1b 20bc 8b7a c63b 3254 bdbc
000000e0: 7526 a8bb 7d77 663a 8e72 463c a671 443c
000000f0: 478f bfba 9da5 4d39 b23a c8bc 189b 47bd
00000100: 5de9 2f3c 5102 473c 79bf 67bc 9af5 19bc
00000110: cea0 e33c 9ec8 d33b 93c6 863b 0c55 01bd
00000120: fab8 f5bc f248 cdbc 7362 2abc b719 22bb
00000130: d33a 39bb c540 8abc 066f 013b cc19 9dbc
00000140: 9d65 033d b103 74ba 5a6d 35bc 51ec 843c
00000150: 6a85 2fbc a141 43bb 765c e8bc 319e 843c
00000160: eec9 6f3b 5e72 28bd ce60 d33c a7d2 193d
00000170: 119b 043d d174 3dbc 4e38 93bc 2142 1c3b
00000180: 9d5d d4bb b43c 2cbc a9b8 02bd 20e4 04bd
00000190: 683f fdbb fc95 ab3c e5e9 ccbc 897c 063d
000001a0: eea3 6ebd 3577 423c 08de 71bc 9388 10bb
000001b0: 4b6e d4ba 54a0 443c 9f82 9bbc a5cc f4bc
000001c0: ee20 923b 8dd1 bbbc 72a6 8abb 3db4 c5bc
000001d0: 9ff4 48bb b997 fc3b 2492 fdbc 4fd2 5a3d
000001e0: bc3e 78bc 68a0 9abc a71f e1bb cbda 4dbc
000001f0: 2def 443c 7843 033c 88e2 1a3c 454f 103c
00000200: fd26 223c 0733 023c d653 893c 7b38 84bc
00000210: 1e52 a5bc c41d 2fbc 0332 be3a a593 39ba
00000220: 0d1a 9b3c f4fe 393c 32f4 f43c e017 21bc
00000230: a6ae 063b bc7c 2a3c 43be c6ba c2e4 313d
00000240: 65ce f63c e582 403c 7bd4 193c e0b0 533c
00000250: 5c77 aebc 1061 82bc b16c a13c fefc 9b3c
00000260: 5651 42bd 4cac 9ebc 8fc0 c23b 8e41 463c
00000270: 874c 1fbd 279c dd3b 1edc f0bc b845 93bc
00000280: 4a16 ba3c 493b 85bc 85ec 96bc 4a1d 41bb
00000290: 6e7f 86bc 7d86 a23c 7931 5fbc d85c f6bb
000002a0: 3c32 d1bc c6ff 513c b03d 61bb 8257 e73c
000002b0: c7a5 293c cd29 193d b107 d83b c8ef 83bc
000002c0: 416a cabc 88ff 893b aa08 ecba 4c0e 93bb
000002d0: 6f95 6a3b 833b 32bd da1e ae3c abea 813d
000002e0: ace9 b1bc bb12 a33c e961 523c b5f9 a8bb
000002f0: 7d06 f33c 0db6 2c3d 7b1d 19bd f020 8bbd
00000300: 6a41 0dbd a5d9 9c3c 22bb e93c 2b69 593c
00000310: 3b4b 703a 3a7c c5bb b425 fabc f9f0 9bbb
00000320: 7a4c 75bc d18b 20bc 5e30 71bc 2f94 c5bc
00000330: 3aaf 54bb a4fd c7ba 01bc fabc a4e7 6dbc
00000340: aa2f 973d 16fa 953c 3127 5f3c cae3 5e3b
00000350: 268e d13b 338c b33c 3fe0 9fbc 6f37 e03b
00000360: a835 aabc 1619 643c 476b adba 06a4 9dbc
00000370: d50d 783c 453f 8abc 56d9 c73c 4bab e53c
00000380: 1abd e03a d4e1 94bc d9f1 de3b ed02 02bd
00000390: 9f8d 11bd a53e 1a3c 3859 b03a 390b afbb
000003a0: 198e b7bc c7ea d1bc 3cb8 ecb9 52e3 c53a
000003b0: a2c6 dc39 a00d 63bd b34e b8bc a222 96bc
000003c0: 75e1 34bb 7d4e c53b ce07 be3c ee7c 573c
000003d0: 5491 dab9 7332 713a 5e35 b7bb cb49 07bc
000003e0: 384c c03c a3ec 963b 95ee 32bd a2ec 163c
000003f0: 1927 c53c e033 0e3c 6ad0 9d3c 1a1a 97ba

network_body._body_endoder.seq_layers.4.weight f4 [256, 256]
0.058567274 -0.0760293 0.08656669 0.122881986 -0.20515095 0.044868674 -0.030319005 0.064654715
0.14213455 -0.045501158 -0.08350974 0.09300736 0.05610568 -0.13322626 -0.0048159985 -0.056247167
-0.19233875 0.014044524 0.06432047 -0.1814332 -0.07226751 -0.054749437 0.04818051 0.06294539
-0.22092488 0.05765358 -0.0398878 0.1663124 0.06634081 -0.010935119 0.21222024 -0.003573732
-0.1595031 -0.13256682 -0.018889766 0.16142045 -0.08608881 -0.20162939 0.015747443 -0.1153786
0.07749094 -0.14805959 -0.14232191 0.055988338 -0.03661247 0.09144866 -0.08637319 -0.0161971
0.007619747 -0.02172805 0.09953636 0.14335027 -0.023028601 0.09209864 -0.07061625 -0.12741078
-0.047102757 -0.19443545 0.047638163 0.036596965 0.06363698 0.0057593747 -0.028548395 -0.08698323
0.09839422 0.0934041 0.088031895 -0.2381104 -0.0042448808 0.017071703 -0.06698049 -0.20026901
-0.122633316 0.0865553 0.1665806 -0.17244244 -0.13486344 0.03345515 -0.017381702 0.07424973
0.05379004 0.11409542 0.13342747 0.11434166 -0.15605098 0.06694499 -0.0035760126 0.08018634
0.07795013 0.009481081 0.058141973 0.07986515 -0.01039135 -0.15906613 -0.077325776 -0.0150751015
0.057228945 0.049331482 0.05707602 -0.05760524 0.02080838 0.11599638 0.112098664 0.06500157
0.041891087 0.0054198513 -0.04923329 -0.053863477 0.0035595344 0.14162406 -0.010972711 0.17223689
-0.1255047 0.07199953 -0.011131505 -0.023122368 -0.13252042 -0.011731379 -0.08250497 -0.03794035
0.035522077 0.15557024 0.11091007 -0.002547139 0.08759432 -0.07875955 0.002975863 -0.120151065
0.09023012 -0.07549965 0.04895362 0.10361344 -0.08648396 -0.048822153 -0.17735839 0.2606665
0.21528915 -0.040666375 -0.13509955 0.12512296 -0.09680467 -0.06868272 0.07357284 0.085659586
0.18278359 0.08558546 0.033648536 0.013827891 -0.17124501 -0.021984432 0.078398995 0.012976751
0.06591611 0.03521686 -0.001914943 -0.015925262 -0.0041164313 -0.07182196 0.22128373 0.01808356
0.19556317 0.086000934 -0.049799792 -0.09279825 -0.0034049877 0.14856364 0.060582686 0.028707974
-0.07158781 0.008020269 -0.006996309 -0.010230814 0.08945975 0.0547226 -0.07380432 -0.023244858
-0.0071179788 0.09670263 0.12220409 0.0026964198 -0.00515877 -0.010196382 0.07986421 -0.08666062
0.032380506 0.17796546 -0.12734741 0.07029706 0.03961082 -0.12324616 0.008101952 -0.19208246
0.001649884 0.123390034 0.062484045 0.16031651 -0.0014760264 -0.030381612 0.10094151 0.012811933
-0.061748322 0.12144922 0.21434967 -0.07544578 0.030488648 0.0056689586 0.0496199 -0.004372565
0.06422321 -0.14542001 -0.023740856 0.05008153 0.12945019 0.054200664 0.15417145 0.11727464
0.029527174 -0.04049569 -0.023560124 0.07130567 0.064885035 -0.028894478 0.2643064 -0.023713412
0.09803124 0.046114326 -0.09338217 -0.09609888 0.07795195 -0.023827385 -0.13050513 -0.074888684
-0.00014917534 -0.00529095 0.023461802 0.077839315 0.08094219 0.037731763 0.15043037 0.08511394
-0.15913682 0.017896146 -0.121422574 -0.16721793 0.06518382 0.06687104 -0.044809524 0.015309951
0.040320463 -0.09782409 0.004347607 0.038664125 0.021762606 0.15048967 0.017409911 0.18912269
00000000: 3de4 6f3d 40b5 9bbd e049 b13d 8da9 fb3d
00000010: 1713 52be 37c8 373d 905f f8bc b169 843d
00000020: b88b 113e 6c5f 3abd 2807 abbd a57a be3d
00000030: 12cf 653d 776c 08be 86cf 9dbb 6e63 66bd
00000040: 73f4 44be 011b 663c 73ba 833d a0c9 39be
00000050: fd00 94bd f240 60bd ed58 453d 83e9 803d
00000060: 223a 62be 2926 6c3d 6461 23bd cc4d 2a3e
00000070: b1dd 873d 3729 33bc 4350 593e 4635 6abb
00000080: c854 23be 99bf 07be b6be 9abc 674b 253e
00000090: 544f b0bd ef77 4ebe c800 813c 9e4b ecbd
000000a0: 92b3 9e3d ef9c 17be d6bc 11be 0754 653d
000000b0: f5f6 15bd 6f49 bb3d 6de4 b0bd c8af 84bc
000000c0: 12af f93b 06ff b1bc b8d9 cb3d 6aca 123e
000000d0: 7aa6 bcbc 369e bc3d 419f 90bd f977 02be
000000e0: d2ee 40bd 161a 47be 3c20 433d b3e6 153d
000000f0: 1b54 823d 23b9 bc3b 53de e9bc 4424 b2bd
00000100: e982 c93d a64a bf3d 114a b43d 36d3 73be
00000110: a418 8bbb f5d9 8b3c 112d 89bd 5213 4dbe
00000120: 2d27 fbbd e843 b13d 1b94 2a3e c094 30be
00000130: a419 0abe 4408 093d 1264 8ebc 3e10 983d
00000140: f252 5c3d dcaa e93d 36a1 083e f62b ea3d
00000150: d4cb 1fbe 741a 893d 895b 6abb bc38 a43d
00000160: 51a4 9f3d 8956 1b3c 4726 6e3d 5790 a33d
00000170: 7b40 2abc 3be2 22be fa5c 9ebd 8ffd 76bc
00000180: e668 6a3d cf0f 4a3d 8bc8 693d 79f3 6bbd
00000190: 5676 aa3c 838f ed3d fc93 e53d 8b1f 853d
000001a0: fd95 2b3d 0299 b13b d9a8 49bd f39f 5cbd
000001b0: 1447 693b e605 113e e3c6 33bc de5e 303e
000001c0: 4e84 00be 7d74 933d ea60 36bc 1f6b bdbc
000001d0: 6fb3 07be f834 40bc 5ef8 a8bd 5767 1bbd
000001e0: 997f 113d ce4d 1f3e d224 e33d e7ed 26bb
000001f0: a764 b33d b04c a1bd b206 433b c311 f6bd
00000200: 92ca b83d 8f9f 9abd 9783 483d 4933 d43d
00000210: 811e b1bd bdf9 47bd 709d 35be 1476 853e
00000220: c274 5c3e c991 26bd 8957 0abe 3c20 003e
00000230: 8741 c6bd 87a9 8cbd 5bad 963d 4b6e af3d
00000240: 9f2b 3b3e 6e47 af3d 0cd3 093d 618e 623c
00000250: da5a 2fbe b218 b4bc a78f a03d 709c 543c
00000260: 07ff 863d 8e3f 103d d3fe faba b275 82bc
00000270: 21e3 86bb 6417 93bd 3498 623e f923 943c
00000280: b641 483e 4221 b03d defa 4bbd 020d bebd
00000290: 3726 5fbb 1121 183e 8d25 783d fc2c eb3c
000002a0: a19c 92bd 7267 033c 4b41 e5bb 259f 27bc
000002b0: ac36 b73d ce24 603d b826 97bd 006c bebc
000002c0: ef3d e9bb 070c c63d 2346 fa3d 6bb6 303b
000002d0: e60a a9bb ba0e 27bc d98f a33d 207b b1bd
000002e0: 6ca1 043d 943c 363e 5c67 02be e8f7 8f3d
000002f0: f53e 223d 7c68 fcbd 0dbe 043c 44b1 44be
00000300: ec40 d83a eab3 fc3d 45ef 7f3d 032a 243e
00000310: 3a77 c1ba dce2 f8bc 6cba ce3d 24e9 513c
00000320: cfeb 7cbd 5eba f83d 7b7e 5b3e 5183 9abd
00000330: 54c3 f93c acc2 b93b 3c3e 4b3d bc47 8fbb
00000340: 7587 833d fce8 14be 2f7c c2bc 4a22 4d3d
00000350: 978e 043e 8401 5e3d 1fdf 1d3e b02d f03d
00000360: f9e2 f13c cfde 25bd 2901 c1bc b508 923d
00000370: 72e2 843d 1db4 ecbc 2b53 873e a142 c2bc
00000380: 9ac4 c83d 60e2 3c3d 273f bfbd 7dcf c4bd
00000390: 46a5 9f3d a631 c3bc 23a3 05be 3d5f 99bd
000003a0: f36b 1cb9 b55f adbb f732 c03c 386a 9f3d
000003b0: 05c5 a53d 9f8c 1a3d 6b0a 1a3e 3850 ae3d
000003c0: c3f4 22be f09a 923c 66ac f8bd 2d3b 2bbe
000003d0: 187f 853d aff3 883d 318a 37bd 97d6 7a3c
000003e0: 1227 253d ff57 c8bd 5f76 8e3b 465e 1e3d
000003f0: 7e47 b23c f719 1a3e 3b9f 8e3c 61a9 413e

network_body._body_endoder.seq_layers.4.bias f4 [256]
0.027829358 -0.020124381 0.039527647 -0.020667732 -0.0064063747 -0.014042129 0.023222324 0.013919581
-0.008155324 -0.010301534 0.0507093 -0.021717602 0.0075600496 0.027449787 0.017201511 -0.03383191
0.009375381 -0.010634163 0.0069670333 -0.04143159 -0.0014081952 -0.04529203 0.036138806 0.024280714
0.010921407 0.013715494 -0.032782093 -0.021239689 -0.011068306 0.003521987 0.022532487 0.031186836
-0.022142727 -0.004482427 0.052919783 0.051442537 0.012318032 0.03607854 -0.012945851 -0.038401797
-0.033998787 -0.021869376 0.006904611 0.022598162 -0.003720586 -0.0021756738 0.01222123 0.03250052
-0.01829212 -0.041198567 -0.025532464 -0.025493216 0.035553083 -0.05728134 -0.019969301 0.04034245
0.027478976 -0.028298056 0.016009282 0.04677611 0.020697715 -0.028586993 -0.031435087 0.045874417
-0.014027112 0.031084653 0.053557925 0.016505523 -0.027077822 0.008826683 0.0018048491 0.03773597
-0.029808255 0.022401491 -0.051801097 -0.0074717975 -0.05595753 -0.0020425043 -0.01477789 -0.023602597
0.039983593 -0.017084012 -0.011912948 0.020821664 0.035045993 -0.026556162 0.06439212 -0.004032306
-0.020830926 -0.039893925 0.027853133 0.010315831 0.04258068 0.019673243 -0.03289019 0.0001993728
0.006058683 0.0046156766 -0.025150865 0.01493274 -0.003178507 0.013742983 0.018272512 -0.009429747
0.010064 0.019326635 0.043395873 0.024981968 -0.04740422 -0.004443827 0.035224278 -0.008287721
-0.01383736 0.03511499 -0.0007803958 -0.007510539 0.0077271103 -0.010181221 0.022978183 0.035074398
0.03653218 0.007272002 0.050753072 0.01139517 0.0045652837 0.010075424 -0.05068052 0.024837827
0.0110957995 0.012807137 -0.0370057 -0.014344743 0.009590282 0.019301068 -0.0021466224 0.050157566
-0.014605664 0.012026863 -0.009895474 0.0017519206 0.012659859 0.009730881 0.06232952 0.01923006
0.033624865 -0.016552093 0.011511558 -0.023691274 0.009951889 0.0015065118 0.008214479 0.010397087
-0.017381564 -0.024500648 0.04573883 0.0033057202 0.02875908 0.04749517 0.0344292 0.06880329
0.01792381 0.03952529 0.017161138 0.0022549995 -0.059558816 -0.051101953 0.030858226 -0.03981543
-0.0037882193 0.022233862 -0.011140519 0.022895949 -0.013924968 -0.013218632 0.027673872 -0.012328924
-0.009910084 0.00679532 -0.007709167 -0.02781682 -0.008558249 0.050225817 -0.0071474034 0.041195072
0.04325523 0.014842966 0.04579656 0.00824922 -0.007936471 0.00059743115 -0.069340825 -0.009583072
-0.031316396 -0.025979599 0.005862084 -0.012443746 -0.0005276256 0.032202926 0.0066311113 -0.023524977
-0.008151722 0.0155002875 -0.04251739 -0.011168529 -0.010931794 0.010674882 0.049332753 0.00607686
-0.006519999 -0.021842405 -0.01954658 0.0016551465 0.04760509 0.045131113 0.029487848 -0.005382389
-0.050766047 -0.014583893 0.017001152 0.003519283 0.004121687 -0.023609897 0.0042526294 -0.03369305
0.0141396355 -0.03412073 0.02389873 0.03482024 0.0069837966 0.014190039 -0.03896987 0.009983489
-0.016284559 0.037122555 0.018674392 -0.012547028 -0.020824611 0.02981618 -0.027334291 9.553916e-05
0.018380104 0.024242464 -0.040268518 0.010419827 -0.024818962 -0.007857602 -0.010074709 0.02380628
0.018758235 0.035712603 0.013435274 0.0056904303 -0.03447431 0.03501867 0.016475363 0.014623503
00000000: 65fa e33c e3db a4bc bee7 213d 604f a9bc
00000010: 91ec d1bb f510 66bc be3c be3c f40e 643c
00000020: e89d 05bc c4c7 28bc 8eb4 4f3d 1de9 b1bc
00000030: 4bba f73b 60de e03c 2fea 8c3c 5493 0abd
00000040: 339b 193c ea3a 2ebc b64b e43b 2cb4 29bd
00000050: 3193 b8ba 2384 39bd 4906 143d 59e8 c63c
00000060: b3ef 323c f4b6 603c 8446 06bd dbfe adbc
00000070: d757 35bc 23d1 663b 0d96 b83c 897b ff3c
00000080: aa64 b5bc 53e1 92bb 6ac2 583d 69b5 523d
00000090: 92d1 493c 17c7 133d d61a 54bc 344b 1dbd
000000a0: 5042 0bbd 6827 b3bc 1340 e23b c81f b93c
000000b0: 13d5 73bb c095 0ebb 8e3b 483c 441f 053d
000000c0: 5bd9 95bc d4bf 28bd 7529 d1bc 26d7 d0bc
000000d0: 1ca0 113d d79f 6abd a996 a3bc 203e 253d
000000e0: 971b e13c 53d1 e7bc e625 833c 4e98 3f3d
000000f0: 418e a93c 452f eabc 14c2 00bd d0e6 3b3d
00000100: f9d1 65bc 3ea5 fe3c 8e5f 5b3d 9736 873c
00000110: 4fd2 ddbc cb9d 103c b090 ec3a 0891 1a3d
00000120: 7130 f4bc 5583 b73c 632d 54bd fbd5 f4bb
00000130: b933 65bd 89db 05bb f71e 72bc 3c5a c1bc
00000140: d6c5 233d c5f3 8bbc 872e 43bc 3292 aa3c
00000150: 638c 0f3d 4f8c d9bc 04e0 833d 6f21 84bb
00000160: 9ea5 aabc d067 23bd 412c e43c bb03 293c
00000170: 1469 2e3d c829 a13c ddb7 06bd ba0e 5139
00000180: eb87 c63b 1a3f 973b 3009 cebc 73a8 743c
00000190: 804e 50bb 402a 613c 3cb0 953c 3a7f 1abc
000001a0: 7ae3 243c e452 9e3c dfbf 313d fca6 cc3c
000001b0: ed2a 42bd 869d 91bb 5547 103d 39c9 07bc
000001c0: 18b6 62bc bcd4 0f3d 7a93 4cba f81a f6bb
000001d0: b333 fd3b 23cf 26bc be3c bc3c 2caa 0f3d
000001e0: c4a2 153d f949 ee3b 74e2 4f3d cfb2 3a3c
000001f0: 6098 953b 6413 253c 6096 4fbd b378 cb3c
00000200: 28cb 353c 07d5 513c 4a93 17bd 3706 6bbc
00000210: 8f20 1d3c 461d 9e3c 59ae 0cbb 0572 4d3d
00000220: 984c 6fbc 520c 453c a020 22bc b3a0 e53a
00000230: 4c6b 4f3c 466e 1f3c 3d4d 7f3d 5c88 9d3c
00000240: 3aba 093d 4198 87bc f99a 3c3c 3414 c2bc
00000250: 3f0d 233c 2676 c53a 0696 063c 8b58 2a3c
00000260: c863 8ebc 95b5 c8bc a458 3b3d c8a4 583b
00000270: 2a98 eb3c 4c8a 423d a205 0d3d bde8 8c3d
00000280: f4d4 923c 45e5 213d 8495 8c3c 9dc8 133b
00000290: f2f3 73bd 4850 51bd 64ca fc3c 8115 23bd
000002a0: c643 78bb ca23 b63c b986 36bc 4990 bb3c
000002b0: 8d25 64bc f692 58bc 51b4 e23c 41ff 49bc
000002c0: e85d 22bc 47ab de3b 2e9d fcbb 1ae0 e3bc
000002d0: e637 0cbc 96b9 4d3d c434 eabb 2abc 283d
000002e0: 652c 313d e92f 733c 2c95 3b3d bd27 073c
000002f0: f907 02bc ed9c 1c3a 9002 8ebd 5102 1dbc
00000300: 9f45 00bd 2bd3 d4bc ba16 c03b dbe0 4bbc
00000310: 5b50 0aba 37e7 033d cb49 d93b 74b7 c0bc
00000320: cd8e 05bc ebf4 7d3c b726 2ebd 35fc 36bc
00000330: 441b 33bc b3e5 2e3c 2411 4a3d 6520 c73b
00000340: b7a5 d5bb d8ee b2bc 2620 a0bc 80f1 d83a
00000350: 8efd 423d 67db 383d 8090 f13c c05e b0bb
00000360: 0ff0 4fbd 48f1 6ebc 0046 8b3c c5a3 663b
00000370: 370f 873b 8b69 c1bc a459 8b3b b901 0abd
00000380: eea9 673c 2ec2 0bbd 45c7 c33c ab9f 0e3d
00000390: 55d8 e43b 567d 683c df9e 1fbd ca91 233c
000003a0: 3267 85bc d20d 183d 0afb 983c 0d92 4dbc
000003b0: 6098 aabc 1041 f43c 2aec dfbc 325c c838
000003c0: df91 963c 2298 c63c 9af0 24bd ecb7 2a3c
000003d0: 2351 cbbc 2cbd 00bc 6410 25bc 6305 c33c
000003e0: dfaa 993c 6147 123d a01f 5c3c ca76 ba3b
000003f0: ef34 0dbd bd6f 0f3d 57f7 863c 6b97 6f3c

action_model._continuous_distribution.log_sigma f4 [1, 39]
0.7752247 0.35807076 0.34566703 0.6279194 -0.74931663 0.4080307 -0.85068756 0.6173427
0.11915738 -0.5558774 0.77601683 0.34743485 -1.0742595 0.5184055 -1.1936703 -0.54659384
0.59177184 -0.51434714 -0.20081857 1.0928453 -0.18913275 -0.52584076 0.97649 -0.6149961
-0.32597947 -0.3506465 -0.83344257 -0.74522996 0.5866746 -1.782694 -0.45490265 0.79440814
0.83809596 -0.8195971 0.93381375 0.5799027 -0.33876586 0.42367274 0.4874259
00000000: 2075 463f 0d55 b73e 45fb b03e 53bf 203f
00000010: 37d3 3fbf 66e9 d03e a9c6 59bf 2c0a 1e3f
00000020: c908 f43d fb4d 0ebf 0aa9 463f fbe2 b13e
00000030: 5681 89bf 39b6 043f 30ca 98bf 93ed 0bbf
00000040: 5c7e 173f 41ac 03bf 62a3 4dbe 5be2 8b3f
00000050: 04ac 41be 809d 06bf 40fb 793f 6270 1dbf
00000060: c8e6 a6be f087 b3be 7e5c 55bf 64c7 3ebf
00000070: 4e30 163f 512f e4bf 00e9 e8be 555e 4b3f
00000080: 758d 563f 1ed1 51bf 6b0e 6f3f 8174 143f
00000090: b872 adbe a2eb d83e e38f f93e

action_model._continuous_distribution.mu.weight f4 [39, 64]
0.1727093 -0.013219119 0.019527055 -0.15439531 0.12920904 -0.07708924 0.08387492 0.078269936
-0.043651562 -0.11345112 -0.098448396 -0.13395947 -0.18230683 -0.046073206 0.12856214 -0.07285259
0.2394304 0.117984556 -0.19453463 -0.1034518 -0.09748125 0.06892145 0.07763931 -0.0289988
-0.25444964 -0.24938263 0.16445555 -0.03586065 0.016635643 -0.03418494 0.13506861 -0.07385868
0.056061752 0.018136712 -0.08275485 -0.039176237 -0.15418899 -0.09035501 -0.11570619 -0.24935557
0.14834483 0.20493275 -0.047457196 -0.1135628 -0.21420272 -0.0049341656 -0.1841663 0.13756773
-0.015345684 0.25371003 0.21509144 -0.057417907 0.018086152 -0.05552389 0.18252468 0.31506285
-0.021598523 -0.097769216 0.16893126 0.10429062 0.08364877 0.14277725 -0.089258716 -0.041995335
-0.10855983 0.061128248 -6.910012e-05 0.101637885 0.110909164 0.11145133 -0.076175034 -0.07718603
0.030358983 0.09226857 -0.109527886 0.022986067 -0.025416786 -0.08284875 0.23919953 -0.06862137
0.14720061 0.012932 0.098990865 -0.14316364 0.014433381 0.18621637 -0.09142025 0.15019125
-0.042910736 0.16925941 -0.09191264 -0.14864488 0.099631004 -0.1641621 0.13398516 0.07710211
0.15812278 0.059981156 0.11085957 0.09006598 0.19403964 -0.20298839 0.02554183 -0.23566847
0.0073139435 -0.27531376 0.15032722 0.052987326 0.09258153 -0.1331377 0.13346842 0.17985287
-0.08515647 0.078248695 0.14032401 -0.12694186 0.14015448 -0.013271845 -0.28782362 0.051012423
0.07444627 -0.19524729 0.004626896 0.00885679 -0.09155837 -0.11369489 0.041953273 0.06480799
0.123137176 0.008385913 -0.20785034 -0.16094038 0.09461661 0.04164745 -0.16122246 -0.01410632
-0.046564557 -0.17103545 -0.067605376 -0.026457423 -0.08040808 0.022393534 -0.14214502 0.23087832
-0.07920541 -0.094934456 -0.113276795 -0.16466305 0.07216855 -0.11021662 -0.029083746 0.03155953
-0.11254011 -0.13057433 0.087235466 0.16641831 -0.031994324 0.22520171 0.06939708 0.2822421
0.01959103 -0.13764916 0.015441461 -0.010569054 0.001061814 0.08213066 -0.12273454 0.17426835
-0.14784078 -0.05676342 -0.18480398 -0.1093638 -0.16632731 0.09220838 0.13493414 -0.080683075
-0.08286562 -0.1893279 0.2046754 0.10336979 -0.062419783 -0.0644178 0.15563159 0.17474593
0.051922914 0.00746386 0.16435947 0.02230596 -0.16747282 0.064195365 0.08758344 0.16900665
0.26315847 -0.0200151 -0.1851682 -0.11871496 0.018747043 -0.052475486 0.13515387 -0.06851008
0.06538406 -0.10914389 0.10681814 0.04973377 -0.033354986 -0.15143456 -0.122459225 0.18774329
-0.2026076 -0.09370942 0.03939076 0.08972082 0.042267617 -0.29130018 0.033906356 -0.123047374
0.18827099 -0.1899653 -0.14159165 -0.009907425 -0.045039773 -0.018349368 0.009310658 0.026365751
-0.009192017 -0.116196424 -0.20768356 -0.1103157 -0.02174604 0.23317376 0.027181886 -0.1622284
0.34395415 0.03903166 -0.21201164 0.06560452 -0.27283642 0.09355739 -0.17862575 0.14376204
0.16434488 0.21505402 -0.14192887 0.194266 -0.1345631 0.22602774 0.12931147 0.10178192
0.14513333 0.08574965 0.12317032 0.227485 0.21949247 0.054837406 -0.06941414 0.30491647
00000000: b5da 303e 0195 58bc 34f7 9f3c ce19 1ebe
00000010: 604f 043e f7e0 9dbd 9dc6 ab3d fd4b a03d
00000020: fbcb 32bd 1059 e8bd 509f c9bd ac2c 09be
00000030: a4ae 3abe 42b7 3cbd cba5 033e bd33 95bd
00000040: 3e2d 753e e3a1 f13d 1634 47be 8ade d3bd
00000050: 40a4 c7bd b026 8d3d 5c01 9f3d e48e edbc
00000060: 3947 82be 295e 7fbe 0967 283e 9ee2 12bd
00000070: 7947 883c 8205 0cbd 6d4f 0a3e 3843 97bd
00000080: 02a1 653d 7193 943c 607b a9bd 4377 20bd
00000090: b8e3 1dbe 0c0c b9bd 5ef7 ecbd 1157 7fbe
000000a0: b5e7 173e e4d9 513e 7a62 42bd 9d93 e8bd
000000b0: f557 5bbe c8ae a1bb 1796 3cbe 8ede 0c3e
000000c0: 776c 7bbc 48e6 813e ee40 5c3e 0a2f 6bbd
000000d0: 6929 943c 056d 63bd c0e7 3a3e eb4f a13e
000000e0: 63ef b0bc 3a3b c8bd 51fc 2c3e 5296 d53d
000000f0: 0c50 ab3d 3334 123e 46cd b6bd 4d03 2cbd
00000100: 9e54 debd 9d61 7a3d d8e9 90b8 8627 d03d
00000110: 5824 e33d 9840 e43d a801 9cbd b613 9ebd
00000120: 67b3 f83c 4ef7 bc3d 2850 e0bd 474d bc3c
00000130: dd36 d0bc 9bac a9bd b9f0 743e 5c89 8cbd
00000140: c2bb 163e bde0 533c b9bb ca3d 7d99 12be
00000150: fd79 6c3c 81af 3e3e 8a3a bbbd bccb 193e
00000160: 2bc3 2fbd 5752 2d3e b23c bcbd 5d36 18be
00000170: 570b cc3d 1c1a 28be 6833 093e b6e7 9d3d
00000180: f0ea 213e cdae 753d 580a e33d 8374 b83d
00000190: 54b2 463e 30dc 4fbe 1a3d d13c 1353 71be
000001a0: cea9 ef3b edf5 8cbe 61ef 193e 3d09 593d
000001b0: 639b bd3d 4055 08be f2ab 083e 5a2b 383e
000001c0: 8466 aebd da40 a03d 19b1 0f3e 0cfd 01be
000001d0: a884 0f3e 2772 59bc 9e5d 93be 67f2 503d
000001e0: 4977 983d e8ee 47be 389d 973b 121c 113c
000001f0: f482 bbbd ded8 e8bd 32d7 2b3d 0dba 843d
00000200: 582f fc3d 1265 093c b8d6 54be 8ecd 24be
00000210: 5ac6 c13d 8496 2a3d 8017 25be 321e 67bc
00000220: 7aba 3ebd eb23 2fbe b074 8abd 3dbd d8bc
00000230: feac a4bd a572 b73c 778e 11be 5e6b 6c3e
00000240: 7236 a2bd ff6c c2bd aafd e7bd 6e9d 28be
00000250: 1bcd 933d 40b9 e1bd 0941 eebc 9144 013d
00000260: 6e7b e6bd 47b5 05be 82a8 b23d 9069 2a3e
00000270: 7b0c 03bd 479b 663e 0e20 8e3d 0982 903e
00000280: 5e7d a03c e7f3 0cbe 2efe 7c3c d329 2dbc
00000290: 912c 8b3a 1f34 a83d 3f5c fbbd 6773 323e
000002a0: 9363 17be c380 68bd 413d 3dbe 21fa dfbd
000002b0: b551 2abe bfd7 bc3d 2d2c 0a3e 2b3d a5bd
000002c0: 73b5 a9bd 2cdf 41be 6e96 513e 8ab3 d33d
000002d0: e3ab 7fbd 7bed 83bd e35d 1f3e 99f0 323e
000002e0: 1fad 543d 6593 f43b d94d 283e fdba b63c
000002f0: ff7d 2bbe dc78 833d f25e b33d 1410 2d3e
00000300: b5bc 863e b5f6 a3bc bc9c 3dbe d420 f3bd
00000310: 6693 993c 89f0 56bd c765 0a3e 034f 8cbd
00000320: 14e8 853d d586 dfbd 78c3 da3d a3b5 4b3d
00000330: 3d9f 08bd a911 1bbe e7cb fabd c73f 403e
00000340: 5e78 4fbe b9ea bfbd 3558 213d 8dbf b73d
00000350: cf20 2d3d 4c25 95be 64e1 0a3d 4300 fcbd
00000360: 1cca 403e 4386 42be 67fd 10be c152 22bc
00000370: a07b 38bd 6a51 96bc bb8b 183c fdfc d73c
00000380: 1d9a 16bc 64f8 edbd 00ab 54be 33ed e1bd
00000390: c024 b2bc 1ac5 6e3e 8cac de3c 341f 26be
000003a0: c21a b03e a9df 1f3d 9419 59be aa5b 863d
000003b0: 37b1 8bbe 049b bf3d abe9 36be 5b36 133e
000003c0: 064a 283e 1f37 5c3e cd55 11be abed 463e
000003d0: e9ca 09be d173 673e 3a6a 043e 0a73 d03d
000003e0: d59d 143e 839d af3d b940 fc3d d4f1 683e
000003f0: a2c2 603e 309d 603d 0029 8ebd 031e 9c3e

action_model._continuous_distribution.mu.bias f4 [39]
-0.08943305 -0.01789736 -0.061902866 -0.085147865 -0.02587208 -0.04828943 0.023013838 0.14086431
-0.03926786 -0.027192522 0.0062421155 0.012709592 -0.036311697 0.05612366 -0.013495344 -0.04421893
-0.011823329 0.013253308 0.004963978 -0.09493662 -0.07499006 0.027810926 0.059652943 -0.04476591
-0.020612435 -0.018587418 -0.009492624 -0.017982284 -0.09585603 0.025402613 -0.07699035 0.036779236
0.10588149 -0.0009347668 0.07092354 0.1749387 -0.1015234 -0.010541343 -0.00019266926
00000000: ad28 b7bd 7c9d 92bc dc8d 7dbd 0162 aebd
00000010: aff1 d3bc 23cb 45bd 8487 bc3c bc3e 103e
00000020: 56d7 20bd dac2 debc a98a cc3b e43b 503c
00000030: 93bb 14bd ece1 653d 931b 5dbc e91e 35bd
00000040: a3b6 41bc 6724 593c dea8 a23b 216e c2bd
00000050: 6394 99bd bdd3 e33c a556 743d 755c 37bd
00000060: 69db a8bc a444 98bc f386 1bbc 954f 93bc
00000070: 2b50 c4bd 2419 d03c 1ead 9dbd d3a5 163d
00000080: 65d8 d83d 230b 75ba 5c40 913d 2123 333e
00000090: 80eb cfbd 99b5 2cbc 4307 4ab9

action_model._discrete_distribution.branches.0.weight f4 [1, 64]
0.0024654332 -0.0014321181 -0.010060783 -0.004764236 -0.014997683 -0.01849312 0.012735145 0.01311591
-0.009892709 -0.00400822 0.025844693 -0.024833592 0.013134803 -0.0017162461 0.0039837784 -0.0016711357
0.0020742218 -0.024050318 0.0017294573 0.005119556 0.0044503543 0.010692738 0.017968839 9.060374e-05
0.013480464 -0.0022494493 -0.010746984 -0.008184331 -0.009884249 0.006831652 0.0006454861 -0.015284753
-0.008744495 -0.01036583 -0.0054696496 -0.005354787 -0.024129672 -0.006163726 -0.0065661035 -0.0107692545
-0.012579853 -0.0039325934 -0.020523323 -0.024723398 0.002491826 -0.0033621676 -0.0023794367 0.012274674
-0.009581162 -0.013819352 0.028042138 -0.008982301 0.0069551305 -0.0029718108 -0.016533641 0.0026057912
-0.028350944 -0.01771512 -0.0071577476 0.0030889641 -0.01583988 -0.004728756 -0.014760338 -0.0051384396
00000000: 1b93 213b e9b5 bbba fbd5 24bc 4f1d 9cbb
00000010: d8b8 75bc e27e 97bc 12a7 503c 1de4 563c
00000020: 0715 22bc 6357 83bb 40b8 d33c d16f cbbc
00000030: 5b33 573c aaf3 e0ba 5b8a 823b 020a dbba
00000040: abef 073b 2c05 c5bc f5ae e23a f3c1 a73b
00000050: 47d4 913b 9830 2f3c 6333 933c 8302 be38
00000060: 2add 5c3c 7f6b 13bb 1e14 30bc 9217 06bc
00000070: 8cf1 21bc 0ddc df3b d735 293a e76c 7abc
00000080: 1245 0fbc 71d5 29bc bf3a b3bb 3677 afbb
00000090: 97ab c5bc 15f9 c9bb 7828 d7bb 8771 30bc
000000a0: ba1b 4ebc fcdc 80bb 8720 a8bc b988 cabc
000000b0: e74d 233b d057 5cbb 53f0 1bbb b71b 493c
000000c0: 4efa 1cbc 906a 62bc a0b8 e53c 802a 13bc
000000d0: dde7 e33b b6c2 42bb 8f71 87bc ecc5 2a3b
000000e0: 3d40 e8bc 4d1f 91bc 8a8b eabb 3870 4a3b
000000f0: a3c2 81bc aef3 9abb 58d5 71bc 5b60 a8bb
