Assets/Ai/newAgent-29399978.onnx (onnx, 935464 bytes, 15 tensors)

network_body.observation_encoder.processors.0.normalizer.running_mean f4 [55]
00000000: 3450 b940 a2b5 dd40 83d3 d13f 0000 0000
00000010: 736a 7a40 871d fa3f ff25 9040 81aa 1540
00000020: 6068 4b3f 4b63 d43f 565d ef3e 8beb af3f
00000030: 08fc 8540 cfac 813f c10e 8640 80ab 8e3f
00000040: 2688 1a3d c49e a23a 99cc 2fbc bb5c 033d
00000050: 1a12 e13b 60e7 d4bb 718d 06bd 0a33 86bb
00000060: 0d5f edbb 2b99 163d c70f 1abb b12f 113c
00000070: 482b b4bc 35a4 c3ba f973 acbc 9746 d23b
00000080: 4dce 0cbb 8a44 4c3c 0d8e 593c e43f b1bb
00000090: b737 273c aa01 313d 22eb c4bb 8f40 67ba
000000a0: 060d 5f3c b64d 9d3b 57fe 0d3c 2f7f 75bc
000000b0: d8e0 9cbb 8dc7 c2bb b591 c1bd 9b45 a03b
000000c0: 58b2 203c f533 5dbb e995 a7ba 5fe8 b33c
000000d0: f8fe 17bc e8ac 83bb 0186 16bc
5.7910404 6.928422 1.6392673 0.0 3.9127471 1.9540261 4.504638 2.3385317
0.7945614 1.6592802 0.46750897 1.3743757 4.1870155 1.0130862 4.189301 1.1146088
0.037727498 0.0012406935 -0.010729932 0.032070857 0.006868613 -0.0064973086 -0.032849733 -0.00409544
-0.007243997 0.036767166 -0.002350794 0.008861468 -0.021993294 -0.0014926257 -0.021051394 0.0064171064
-0.002148527 0.012467513 0.013278496 -0.0054092277 0.010206155 0.043214478 -0.0060094753 -0.00088215707
0.013613945 0.0048005236 0.008666596 -0.014983936 -0.0047875457 -0.0059441985 -0.094516195 0.00489111
0.009808145 -0.0033752893 -0.0012785766 0.02196139 -0.009277098 -0.0040184148 -0.009187222

network_body._body_endoder.seq_layers.0.weight f4 [256, 55]
00000000: ed0c 00be 0c9d 2dbd fabe 243e 4acf 983d
00000010: 9495 773d 2d2d 06be e078 243e 0367 29be
00000020: de7f 81be 58ee dcbd 3a2c 85be 4f0a 0cbd
00000030: 79eb 1abe 2d43 2cbe 951b d73d fa0e a6bd
00000040: a8e8 77bd cb2d 2f3c 4223 8dbd 1c78 23be
00000050: 86ba 3dbd 7ac9 823e 308f ea3d 8230 32bd
00000060: 0869 8cbe 3bfa 343e 28fe 173e cabb 8a3e
00000070: 0b0e 34bd 78a5 383e d5de d83d 64fa d43d
00000080: 6b6c 82be 74b6 ae3d 6dcb d03c 5294 8f3d
00000090: e884 80bd 80b8 20be 4425 bdbe 28c1 5a3c
000000a0: 97a6 7bbe 9ba4 153e a97f a1bc f166 b43d
000000b0: 09ba 893e d14a 053d 7494 3dbe 3244 fabb
000000c0: b924 45be 6ee0 67be f1a1 eebd 7058 51be
000000d0: 8be4 f2bd 6e4a 6c3d cb95 68bd 33a3 fc3d
000000e0: 008c 2bbe 2d77 993b 95b5 54be c700 2a3d
000000f0: 8dce fc3c 5560 af3e e1e6 51be e1b6 573e
00000100: efda a53d f01d fabd 8845 113e 6ec8 0abe
00000110: d996 00bd 3b92 cdbd 767d c5bd 6b38 e83d
00000120: 60db 7b3d 1b7e d1bd 3287 953d b50c d53d
00000130: 7b4a 6bbd ef6d aabc 37a2 32be e18e 6abd
00000140: 3a50 a9bc 9819 51bd bfe7 05bd 4c6d acbe
00000150: e68e 323e 80ff 48bc 0adc 203e 65b7 073e
00000160: ca06 1dbc 4e6d 6abe 0498 323e feeb 4dbe
00000170: e027 84bd 740e 1d3e 1e91 4fbe 1c48 97bd
00000180: ee45 a6bd cff3 5bbe 92e3 833d f923 463e
00000190: 90a7 8a3d 76cb 66bd 2abd ba3d 8bd0 54be
000001a0: d904 8b3d 1534 ea3d deef 013e bebc 003e
000001b0: 3c96 b3bb c46d 9e3e 03a2 8ebc 1522 9cba
000001c0: 2f23 913e f95f 8bbd 7be5 883d b91a 733e
000001d0: 453a a23d bb07 96bd 2f63 1ebe 06c3 11be
000001e0: a064 063e 7b77 07be bee2 ec3d bdd8 06be
000001f0: 7d10 38be eaaa 02be cc09 a5be e016 9d3d
00000200: 475a 45bd 4bf7 abbb c218 61be d64f 13bd
00000210: 29ed 20be 0898 35be 7bd3 d7bd 1153 13be
00000220: 82d5 61bc 6564 e93d ded2 69be 2ea6 49be
00000230: b474 613d 67ee 093d a559 dd3e 6e83 8dbc
00000240: fbf4 473e 5dc4 d2bc e6ec 873d a54f f3bd
00000250: 2954 663d 2973 f53d dee1 8c3e 013a 383d
00000260: b932 573e 37b8 0dbe 2377 1bbe c29f 90be
00000270: 93aa c8bd 3db5 bdbd aa5a 36be e63d c73d
00000280: 9a28 93bc 4d41 883b 0777 043e 2b8f e9bd
00000290: bfd2 513d 2155 953e f839 d8bd 9c2a 92be
000002a0: e115 fa3d 4802 033d 0ad8 933d 78c1 673c
000002b0: d1f4 903c e724 84bd 4b3b cd3b 1419 963d
000002c0: bd4e 3f3e c510 4e3e 9500 6d3e a58a 80be
000002d0: f17d 9b3d 0b2b 073e 95af 073e a661 413e
000002e0: 2437 10be be8f cd3c 2d58 6d3d 7190 93be
000002f0: 5f3f f2bc 4947 2dbe ce44 ab3c 377e 2d3e
00000300: 061d d9bd bb36 43bc 7844 543e 1600 9ebb
00000310: eee0 3fbe 0fb8 023e c623 a53c d6c6 9b3d
00000320: 49c1 1ebe 90c2 a4bd 3400 90bd 5187 dd3d
00000330: 8eac 193c 5144 b73e e0cf cc3d 7e68 d93d
00000340: 1728 e4bc 5798 95bd 6613 6e3e 5ac6 1c3c
00000350: 0189 763e fc99 063e 6520 383e 0c00 d3bc
00000360: 4d0b 09bc c47f b8bd eb2d 383e 866e 893d
00000370: cd3e 93bc 5720 213a 2616 363d b297 3abd
00000380: 5f4f 153e 8e6d 83bc 2a2c b93d 410b 3e3d
00000390: 535c 46be 7f31 183d ddfb 38be 5d71 1cbe
000003a0: 3ee8 633d 30f5 80bd e656 e6bb 9ad9 543e
000003b0: 970a eb3d aab7 cd3d 7da3 ffbc ded7 4ebd
000003c0: 2e42 893e 4284 c13b 9829 803d ad72 adbd
000003d0: 82c9 cf3d 2f79 093e 8d69 01be 6e67 783e
000003e0: 60d0 803e 064d 5b3e f303 2fbd db79 103d
000003f0: c888 27be 9d77 9a3d 5a95 5e3d 26f9 57bd
-0.12504931 -0.0423861 0.16088477 0.07461412 0.060445383 -0.1310317 0.16061735 -0.16543202
-0.25292867 -0.10787648 -0.26010305 -0.03418952 -0.15128888 -0.168225 0.10503308 -0.08108325
-0.060524613 0.01069207 -0.068914905 -0.15963787 -0.04632046 0.2554434 0.11453092 -0.043503292
-0.27423882 0.1767358 0.14843047 0.27096397 -0.043958705 0.18031871 0.10589377 0.10399321
-0.2547334 0.08530894 0.025487626 0.07010712 -0.0627535 -0.15695381 -0.36942494 0.013351716
-0.24575268 0.14613573 -0.019714193 0.08808697 0.26899746 0.032542054 -0.18513662 -0.007637524
-0.1925229 -0.22644207 -0.116519816 -0.20443892 -0.11859997 0.05768817 -0.05678348 0.12335815
-0.16752625 0.0046833963 -0.20772393 0.041504648 0.03086021 0.34253183 -0.2049823 0.21065857
0.08098399 -0.122127414 0.1418668 -0.1355302 -0.03139386 -0.10037657 -0.096430704 0.11338886
0.06148851 -0.10229131 0.07301177 0.10402814 -0.057444077 -0.020804374 -0.17444693 -0.057265166
-0.020668138 -0.0510498 -0.032691713 -0.33677137 0.17437324 -0.012267947 0.15708938 0.13253553
-0.009584138 -0.22893259 0.17440802 -0.20109555 -0.06452918 0.15337545 -0.20270202 -0.07386801
-0.08118807 -0.21479724 0.0643989 0.1934966 0.06770241 -0.05634638 0.091181114 -0.20782678
0.06788034 0.11435715 0.12689158 0.12572 -0.005480556 0.3094312 -0.017411238 -0.0011912013
0.28347155 -0.06805415 0.06684395 0.23740663 0.0792127 -0.07325693 -0.15467523 -0.14234552
0.13124323 -0.13229172 0.11566685 -0.13168617 -0.1797504 -0.12760511 -0.32234037 0.07670379
-0.0481818 -0.0052479855 -0.219821 -0.03596481 -0.1571547 -0.17733777 -0.105383836 -0.14387156
-0.013783814 0.11396102 -0.22834346 -0.19692299 0.055042937 0.033674624 0.43232456 -0.017274585
0.19527046 -0.025728399 0.06636982 -0.11880425 0.056232605 0.11984856 0.27516073 0.04497719
0.21015443 -0.13839804 -0.15182166 -0.28246886 -0.097981595 -0.09263084 -0.17808023 0.09728603
-0.017963696 0.004158175 0.1293603 -0.1140426 0.051226374 0.2916651 -0.10557932 -0.28548133
0.12211204 0.031984597 0.072189406 0.014145248 0.017694863 -0.06452351 0.006263172 0.07329002
0.1868238 0.20123585 0.23144753 -0.25105777 0.07592381 0.13200013 0.13250573 0.18884906
-0.14083534 0.025092956 0.05794542 -0.28821138 -0.029571233 -0.16921724 0.020906832 0.16942678
-0.10601239 -0.011914904 0.20729244 -0.0048217876 -0.18738148 0.12765525 0.02015866 0.07606284
-0.1550342 -0.08044922 -0.07031289 0.10816825 0.009379519 0.3579431 0.100005865 0.106156334
-0.027851148 -0.07304447 0.23249587 0.009568775 0.240757 0.13144678 0.17981108 -0.025756858
-0.008364511 -0.09008744 0.17986266 0.06710534 -0.017974282 0.00061464816 0.044454716 -0.045554824
0.14581059 -0.01604345 0.09041627 0.04639745 -0.19371156 0.03715658 -0.18064828 -0.1527762
0.055641405 -0.06296766 -0.007029402 0.20786133 0.11476629 0.10044797 -0.031205887 -0.050498836
0.26808304 0.005905659 0.062579334 -0.08469138 0.101458564 0.13425134 -0.1263792 0.24258205
0.25158978 0.21416101 -0.042728376 0.03527246 -0.16360772 0.07542346 0.05434165 -0.05272784

network_body._body_endoder.seq_layers.0.bias f4 [256]
00000000: 5c0d 24bc d847 933c 3000 debc fe0a eeb9
00000010: a95d 17bd e671 1d3d 4c66 c7bb 77ac fc3c
00000020: b923 b03c b030 123d a688 50bc f17a e2bc
00000030: 089f 883c b9d1 1bbb 421a 14bd 0ebe 913c
00000040: 477d 303d b396 c9bc c8d8 0bbb 5ef5 aebc
00000050: 99d4 df3b 468f 1abd 32dc a63c c40d b5bb
00000060: 9d1c 313b 2d9e b9ba da54 113d 63c1 ad3b
00000070: 88aa 3d3c e579 b13d 992a fc3c 338c 413d
00000080: 002a 9e3d 3bf8 283b 91b9 81bc 9f0f c83d
00000090: f53c a23d 697e 4e3c cbc2 68bd b777 863b
000000a0: aa55 0ebd f662 3cbd 4a6e e43a 3fdc 6c3c
000000b0: 8283 293d 7507 203d c31f d13c 7fe7 433d
000000c0: a574 bd3c f7dc 223d 224a c8ba ebe2 2f3d
000000d0: b007 093d 7ca8 88bc 5ef1 793c 634a 27bd
000000e0: 7d9b d6bc cf00 19bd 54c1 bebc 199e 173c
000000f0: f2d3 213c ae7f 5e3b eadd efbc ae59 c93b
00000100: 11f4 743c 3148 543d 5aed 3ebd 0ece 493d
00000110: a14f a1bc 9b54 57bb 65e8 3d3d 9733 843c
00000120: e7e5 a4bb f6b9 13bd c5c0 393d 9252 31bc
00000130: 9dc1 b73c 835c 4dbd 29c5 163c c60c 233c
00000140: ebf4 5a3c 6a8b e23c ddbc bc3c e7cb 09bd
00000150: 3539 f03c a20a 1e3d 27bd 27bd 70ef 8cbc
00000160: 64a2 d33c a0d3 4a3d a969 b63c df22 6f3c
00000170: f00e 583d 2d2a 93bb acd7 513c 5bf8 85bb
00000180: a290 4b3c 550f 45bd e32d 703d ef17 31bd
00000190: f893 e0bc 0a23 63bc 2016 8bbd 2cef dbbb
000001a0: 2782 493d af52 a0bc c08c 233d 5ad6 2abd
000001b0: 9d76 86bc 3e52 313c 047d 9f3d 5041 c339
000001c0: 2afa 293c 934f 023d 3bee 39bc a91d 853c
000001d0: be57 56bc 37be 91bd 87c3 923c dfe1 f9bc
000001e0: d515 713c ec79 93bd d379 c7bb b14c 433d
000001f0: 8b21 353d cf64 10bd 1aa7 983d 2e61 79bd
00000200: ae05 673d 2f49 e73b 75c8 cf3b 8b4b 773d
00000210: 3672 7b3c ffc7 89bc 58d0 213d 95d9 22bd
00000220: 6bef 37bd 35ec 8b3c f0c3 adbc 1acd fc3b
00000230: 6f49 5d3d 1a3d 03bd 8b97 6a3d 1e1b 563d
00000240: f949 52bc e8ed febc e517 a0bc 16d6 58bd
00000250: 65f8 0d3d d506 c7bc 4d73 9c3c 04d4 fcbc
00000260: 034b aeb9 a0c4 a5bc acf7 473d cbb4 89ba
00000270: 5dd5 9c3d f641 79bd 1225 c73b 6935 cfbc
00000280: 283b fcbc 9bfa 843d cd0a cc3c b57e ec3c
00000290: 5824 e23c 1ab7 30bb 83f0 0a3d c8c5 01bd
000002a0: 8e3f 29bd 459f 43bc 5ecc 52bd c4cf 15bb
000002b0: 362d 0cbc 3733 30bd e517 8abc 11f5 a3bc
000002c0: f507 913c 535d ed3c fd26 6abc 7f08 053c
000002d0: be8a 8abc c736 eb3d 1f29 513c 6158 a43a
000002e0: b6ac adbd 7deb fdbc d069 85bb 9531 82bd
000002f0: 2666 f33c b5c7 cc3c bb38 3fbb 9e8f 4fbd
00000300: d674 9ebd 17f0 a83d 0bd7 cbbb 803f 2bbd
00000310: 58cd 13bd b72e de3c bc1b 883c c013 05bc
00000320: 333e 31bb aa62 bd3c 8134 1e3d e028 82b9
00000330: f42f af3d d189 353c ebe0 28bd e730 f1bb
00000340: 7274 c23d ddb9 a8bc 95ac ba3d 0f6b 493d
00000350: bf47 06bd e06f acbb 153a ac3c e41e 8eb9
00000360: ff7b b73d 36b8 a13c 7cd6 8e3b c7d3 ab3b
00000370: 3196 503c 9af5 c23d 343b 1d3d ea31 303d
00000380: 5f72 253b 626d 5a3c 4333 89bb 964d 3d3d
00000390: cbc1 1f3d b5be aabc 4796 44bd 5ab7 86bd
000003a0: 49f1 1dbc 6abd 803c b68c b83c 6774 55bc
000003b0: c0a6 51bc bed7 043d 36fc 39bd cb22 cfbc
000003c0: e62a 0f3d e4bc d8bc 3110 1c3d eace 60bc
000003d0: 6d69 8fba 3782 d7ba 67cd e73a b631 013d
000003e0: 9501 1ebd 48b2 b4bc 2237 293c 6bab b9bd
000003f0: 8058 1539 4288 98bc 4bf7 5e3c e4fd 0cbc
-0.010012951 0.017978594 -0.027099699 -0.00045403087 -0.036954556 0.0384387 -0.006085193 0.030843956
0.021501409 0.035690963 -0.012727892 -0.027646514 0.016677395 -0.0023776127 -0.036157854 0.01779082
0.043088224 -0.024607992 -0.0021338928 -0.021357235 0.0068307635 -0.037734292 0.02036867 -0.0055253226
0.0027025111 -0.001416152 0.03548131 0.0053025945 0.011576302 0.08665828 0.03078203 0.047252845
0.077228546 0.0025782723 -0.015835555 0.097686045 0.07921783 0.012603381 -0.056826394 0.0041036266
-0.034749664 -0.045992814 0.0017427888 0.014456808 0.04138518 0.03906961 0.02552784 0.047828194
0.02312691 0.03976151 -0.0015280882 0.042941015 0.033454597 -0.016681902 0.0152553 -0.040842425
-0.02619719 -0.037354287 -0.023285545 0.009254002 0.009877192 0.0033950615 -0.029280622 0.006144724
0.014950768 0.05182666 -0.046613075 0.049268775 -0.01969129 -0.0032856825 0.046364207 0.016137881
-0.0050322893 -0.036066018 0.045349855 -0.010822909 0.02243119 -0.050137054 0.00920228 0.009951776
0.013364057 0.027654368 0.023039276 -0.033641722 0.029324153 0.03858436 -0.040951874 -0.017204016
0.02583427 0.049518228 0.02226718 0.014595716 0.05274862 -0.0044911117 0.012807768 -0.004088444
0.01242462 -0.048110325 0.05863751 -0.043235715 -0.027414307 -0.013863334 -0.067913294 -0.006711861
0.04919639 -0.019570677 0.03992915 -0.041708328 -0.016413981 0.010822831 0.07787517 0.0003724196
0.010374585 0.03181417 -0.0113483025 0.016249495 -0.013082443 -0.07116359 0.0179155 -0.030503212
0.014714678 -0.07200989 -0.0060875206 0.04768056 0.044221442 -0.03525239 0.07453747 -0.060883693
0.0564019 0.0070582847 0.006341035 0.060374778 0.015347054 -0.016818998 0.039505333 -0.039758284
-0.04490606 0.017080406 -0.021211594 0.0077148797 0.05402511 -0.032040693 0.05727343 0.052271955
-0.012835019 -0.031119302 -0.019542644 -0.052938543 0.034660716 -0.02429525 0.019097948 -0.030862816
-0.00033243754 -0.02023536 0.048820183 -0.0010506151 0.07657883 -0.06085392 0.006077417 -0.025294023
-0.030789927 0.06493112 0.024907494 0.028869012 0.02760522 -0.0026964606 0.033920776 -0.03168276
-0.041320376 -0.011939828 -0.05146443 -0.0022859434 -0.008555701 -0.043017592 -0.016857097 -0.020014318
0.01770399 0.028975165 -0.014291522 0.008119701 -0.01691186 0.11485057 0.012766152 0.0012538546
-0.084802076 -0.030996079 -0.0040714517 -0.06357113 0.029711794 0.024997571 -0.00291781 -0.050674073
-0.077371284 0.082489185 -0.0062207035 -0.041808605 -0.036084503 0.027121885 0.016614787 -0.008122385
-0.002704513 0.023118336 0.03862429 -0.00024825986 0.08554068 0.011080221 -0.041230123 -0.007360566
0.094948664 -0.020596439 0.09114949 0.049174365 -0.032783266 -0.00526236 0.02102379 -0.00027107366
0.08959197 0.019741159 0.0043590646 0.0052437517 0.012731121 0.09519501 0.03838654 0.04301635
0.0025245172 0.013331743 -0.004187019 0.04621657 0.039003175 -0.02084289 -0.04799488 -0.0657794
-0.009640046 0.01571532 0.022528034 -0.013028241 -0.012796104 0.03243231 -0.045406543 -0.025285145
0.03495302 -0.026457258 0.03810138 -0.013721207 -0.0010941454 -0.0016442005 0.0017685116 0.03154155
-0.038575727 -0.022057667 0.010328086 -0.090658985 0.00014242716 -0.01861966 0.013608764 -0.008605454

network_body._body_endoder.seq_layers.2.weight f4 [256, 256]
00000000: 086d 573c a2f3 62bd 33df a8bd 2d16 123e
00000010: b849 373c a0cb abbd b6cf b33c 5c64 f63b
00000020: 479f 30bc 46e4 cabd e9b8 3f3c f006 123e
00000030: 75c3 6cbe ac51 5cbd 661f 6dbd d00f 7dbd
00000040: 74c4 cabc 55f3 96bd 0a34 28be 633e 4b3c
00000050: 49f6 a23d 2e74 873d 50a4 a7bc 87cb 3ebd
00000060: 9259 99bd e697 eb3d 2a6b b1bc 514d afbd
00000070: e415 2c3e 2f44 dfbd 2bb7 383d 3933 973b
00000080: 939d a73d a58e 203b 2e3e 4f3c ef0f 92bd
00000090: 6ba2 c5bd d8a5 503d a8ee b63d 677f 49bd
000000a0: 3b39 64bc 33de d13d b156 93bd 3e8e 8abc
000000b0: 497c 6dbd 0e5f 893b 125f d0bc a6ae d8bd
000000c0: a673 edbd 43b8 a23c 39cc 6fbd 5e61 e13d
000000d0: 5d9a 7a3d 9629 8ebc f2e1 89bd bbb4 6d3d
000000e0: 9cd9 2c3c 4530 543c 3adb a23c ac5a 8a3d
000000f0: fe4e 6ebd b75f adbb a849 103d 0570 89bd
00000100: 406d c1bc 6df0 a43d c198 35be c363 87bc
00000110: 217b 84bd 414e d5bc 6dd3 903d f722 3dbc
00000120: 6891 9b3c af0c 90bc ee2c a53b 9f9c a0bb
00000130: bfa9 763d b03a 03bd ead8 b1bd d3e7 0b3e
00000140: 382b b23a 2ca3 bfbc a534 583d 85b2 653c
00000150: 36e7 33be a699 b33d 8916 023d 1050 04be
00000160: a5f8 6d3d ced0 343e 0be1 b33d 6139 f43d
00000170: 0f5c 1d3c 2f8e 8cbd c2cb 84bd d347 823d
00000180: ea1e 69be 81f1 523d f3ba dd3d 096f d33d
00000190: 4390 4b3d ddd1 973d d63c 8dbd c4a8 4dbd
000001a0: 9df8 5b3d ff11 21be 8e9d bc3c 451e 3d3d
000001b0: ce5e 14be 90f7 9ebc 3468 64be 2dd0 a4bd
000001c0: 3bb7 6dbd deac 3e3b dad3 2a3e 5a47 213b
000001d0: b68f 1c3d 6f42 363e 3564 0cbe d7b6 86bd
000001e0: 78b1 19be 2b17 0ebe 98e4 90bb a09b 553e
000001f0: fcf4 b23b 1d8b 91bd 4645 253c 5da7 f8bd
00000200: d50d 4cbe 66b6 a7bd 7057 16bd 0c0a d7bd
00000210: 6777 b3bc ee94 e33d c493 203c a99d 56bd
00000220: 6c19 8cbd 2b74 973d 8254 893b 6ade 753d
00000230: de96 1ebd 962d c13c 6d58 803d 619f abbd
00000240: a738 c5bd 0864 fd3c b517 ae3c d457 983c
00000250: 8486 3dbd c6c0 6a3d b249 403d c9c0 0abe
00000260: dc86 21bd a520 ae3d ce27 143e 3797 b83c
00000270: 9413 a63d ff91 8fbd f45e 99bd ab94 5fbd
00000280: 85a9 e6bb 138f 81be aeea c8bd c007 a73d
00000290: d0d2 05be b072 d9bd 23f0 353d d102 4b3d
000002a0: c1fb 58bc 63de 083d cb06 233c 742c d0bb
000002b0: e4cd c13d 496e f63d a8d7 7abd 8193 2dbe
000002c0: 4b8c 0fbd d030 d73d 2469 f6bd 5b62 8fbd
000002d0: 5322 e83c 7649 8b3c 07ff 7f3d 1862 1a3e
000002e0: 5880 5fbd 05cf 093e 9e04 953d b78a 6abd
000002f0: bc4b 043e 5e24 83bc d4d6 293d 7c4a 3a3d
00000300: a29b b2b9 5f72 263d 979b 043d 5e61 113d
00000310: ed60 4a3e c54b 12bd 187c 143e 4bdb 2abd
00000320: d4f6 0e3e ed7d 6a3d 09fc 26bd 7a32 01bb
00000330: 5931 92bd 931b 813d a85a 023e ab9c 713e
00000340: 9b78 5f3d 44dc 193d eb3a b2bc 9b35 44bd
00000350: 3a20 363d 3c14 80bd a884 d9bd a17a 92bd
00000360: 94b5 6dbd f0ca 8dbc 126b 1d3d 4f40 473d
00000370: e236 8cbd 6d94 6c3d fc5c 4e3e cc05 c0bd
00000380: 2130 f0bb 2f12 88bc f977 02be 82b2 c8bd
00000390: dfba 613e bb3f bf3d 40f8 023d 6191 943c
000003a0: 768d 9d3d 01ca 38ba ff9d aabd 0797 54be
000003b0: a30f 273d bab9 09bc e240 bbbc 0074 08be
000003c0: bdf0 3e3d fb30 383d 8636 b13c 66f2 ba3d
000003d0: ed28 19bd 9893 64bd afa3 0ebe 877e 923d
000003e0: a0a5 65bd 3750 cd3d 876c ad3d 9ec0 8b3c
000003f0: eb0b 0c3d 81da b83d 5339 0dbc 01cb fdbb
0.013148554 -0.055408128 -0.08245697 0.14266272 0.0111870095 -0.08388448 0.02194963 0.007519288
-0.010780162 -0.09906821 0.011701801 0.14260459 -0.23121436 -0.053788826 -0.057891272 -0.061782658
-0.02475188 -0.07370631 -0.16426101 0.012405011 0.079571314 0.066139564 -0.020464092 -0.046580818
-0.07487787 0.11503582 -0.021657545 -0.08559669 0.16805226 -0.10901677 0.045096558 0.0046142605
0.08184352 0.0024499085 0.012649102 -0.07131945 -0.096501194 0.05093941 0.08932239 -0.049193766
-0.01392966 0.10247459 -0.071942694 -0.01691353 -0.057979856 0.0041922396 -0.025435958 -0.105801865
-0.11594324 0.019863253 -0.05854437 0.110048994 0.06118237 -0.017353814 -0.06732549 0.058033686
0.010549929 0.0129509615 0.019879926 0.067555755 -0.0581808 -0.005290951 0.035226494 -0.06710819
-0.023611665 0.0805367 -0.17734052 -0.016527062 -0.064687975 -0.026038291 0.07071576 -0.011543981
0.018990234 -0.017584173 0.0050407564 -0.004901483 0.060220476 -0.03203839 -0.08683951 0.13662653
0.0013593202 -0.023393236 0.05278458 0.014019613 -0.17568669 0.087695405 0.031759772 -0.12921166
0.058098454 0.17657778 0.08783158 0.11925007 0.009604468 -0.06863057 -0.06484176 0.06361356
-0.22765699 0.051499847 0.10826673 0.10323913 0.049698126 0.07413075 -0.06896369 -0.050209776
0.053703893 -0.15729521 0.023024347 0.046171445 -0.1448929 -0.019405156 -0.22305375 -0.08047519
-0.05803607 0.0029094736 0.16682377 0.002460918 0.03822299 0.1779878 -0.13710101 -0.06577843
-0.15009105 -0.13876025 -0.0044217817 0.20860147 0.0054613333 -0.07106612 0.010087317 -0.12141297
-0.19927152 -0.081890866 -0.03670448 -0.10499963 -0.021907521 0.111123905 0.009800855 -0.05239645
-0.06840786 0.07395204 0.0041909823 0.060026564 -0.038718097 0.023581307 0.06266866 -0.083800085
-0.09629946 0.030931488 0.021251539 0.018596567 -0.046270862 0.05731275 0.04694528 -0.13550104
-0.039435253 0.0850232 0.1446831 0.022533042 0.08109203 -0.070102684 -0.07488814 -0.05458514
-0.0070392513 -0.2530447 -0.098103866 0.08155775 -0.130687 -0.10617578 0.044418465 0.049563233
-0.013243617 0.03341521 0.00995035 -0.0063529555 0.09463099 0.12032754 -0.061240822 -0.169508
-0.035045903 0.10507357 -0.12031773 -0.07001182 0.02833668 0.017002802 0.062499072 0.15076482
-0.054565758 0.13457878 0.07276271 -0.057261195 0.12919515 -0.016008552 0.04146464 0.04548119
-0.0003406676 0.040636417 0.032374945 0.035493247 0.19763537 -0.03571679 0.14500463 -0.04171304
0.13961345 0.057249 -0.040767703 -0.0019713924 -0.071383186 0.063040875 0.12729895 0.2359492
0.054558378 0.037563577 -0.02175661 -0.047902685 0.044464327 -0.062538594 -0.10621005 -0.07152296
-0.058034495 -0.017308682 0.03843219 0.048645314 -0.068464056 0.057758737 0.20152658 -0.09376106
-0.007329956 -0.016610233 -0.12741078 -0.09799673 0.22043942 0.093383275 0.03197503 0.018135728
0.07692997 -0.0007049144 -0.083309166 -0.20760737 0.040786397 -0.008406097 -0.022858087 -0.133255
0.046616305 0.044968586 0.021632444 0.09128265 -0.037392545 -0.05580482 -0.13929628 0.071530394
-0.056066155 0.100250654 0.084679656 0.01705962 0.034191053 0.09026051 -0.008619624 -0.007745147

network_body._body_endoder.seq_layers.2.bias f4 [256]
00000000: 6bd7 58bc d179 c73c d55c e83b 74ce aebc
00000010: 9e0f 52bb e902 b0bc 56d7 babc 3919 313a
00000020: caeb 08bd 69a3 debc add4 ffbb 8d87 0c3d
00000030: 6557 193d 7dad 60bb eaa3 25bc 963c 94bc
00000040: da49 413d 648b 463c 9b65 63bc d79a 9cbc
00000050: 615d 08bb 3e73 393b 8464 1e3d 4706 ea3b
00000060: 7812 e43c 700f 5d3c 1719 3dbd 5eea 92bc
00000070: 4689 2c3d 92f4 b0bc b969 433d 25ca e63b
00000080: 63df 33bc 2fe5 bcbc 1278 14bc a7ea dc3b
00000090: dd1c e1bc 474d e43a 06c3 aebc b215 0b3b
000000a0: 1bdb ad3b 1b73 bc3c 2eee e7b9 445a 6dbc
000000b0: 8ffc 40bb 4de4 063c c297 ed3c f5e9 d23c
000000c0: bb6d 5d3c ad54 783c 3f25 033d d799 30bd
000000d0: 0807 f53b 3c4c 2fbc 020f f1bc 70aa 22bc
000000e0: bc97 acbc 0289 25bd 7341 cabc 11ae 86bc
000000f0: b947 fdbb 6378 68bc bd45 483c 5f1b b73b
00000100: fc2f 2bbd 0de6 19bc 36fd 8e3c d2f8 91bc
00000110: 6011 77b9 9687 5d3c 8bb7 e2bb a958 64bd
00000120: e3fa 233d 1815 5fbb 3036 8dbb 6372 f23b
00000130: 4808 a33c dad8 293d 6f4a 543d 3177 0fbc
00000140: a3e6 5fbd 009e 4e3b 63d6 f0bc 0b1a e8bc
00000150: 44b8 dfbb 7c30 aa3c be11 8f3b d4ab 963b
00000160: 7909 bf3c fc5a 0fbd 01e3 ce3c 13a6 4dbd
00000170: 8f83 87bd 1055 39bc 91ea b5bc 0077 02bd
00000180: 766e 323c 59b7 66bc d775 c3bb cf03 6c3b
00000190: 1689 2bbc 6da5 a83d 273a 093b d64d f2bc
000001a0: 9a7d 5bbd b759 a33c a738 193d 2343 9dbc
000001b0: fd3b 843b d53a 043c 700c 403d b01b 483c
000001c0: 6ac1 fdbc be7a 3e3c 0edb ee3c a632 513b
000001d0: 119f 683c 39e0 b9bb 628a e63c c3e4 013c
000001e0: 0aac ebba 7bc5 c23a de4e a53c b0f1 39bd
000001f0: 993e 353b b88e 0f3c b594 2abb 06b9 44bd
00000200: 12fb 05bd 40c6 223d 40eb 353c becd f93b
00000210: fc40 2c3d 6236 6b3b e71a eaba b60b af3c
00000220: f753 d4bc 8a3e 003d 98b7 dfbc 562b 8abc
00000230: 59ca 4a3d 02aa 273d 6506 bbbc 4be1 2cbd
00000240: 3560 a6bb f9c8 6abc b06b a43c bd01 823a
00000250: 5b84 243d 3d3e 7d3b 85be 02bc cdc4 303d
00000260: 5e58 c2b8 59ff 6b3c aff6 03bd 3897 2f3d
00000270: 1b08 173c 1688 ab3c 6211 8e3c cf15 84bc
00000280: d2cd 85bc 7522 17bc ee57 443c b613 ccbb
00000290: 83db f73c b670 05bb e06b aa3b 5257 ca3c
000002a0: 6287 603c 0034 30bd 1092 d5ba edad 25bd
000002b0: 173a 533c 8dd9 9dbc f123 0d3d b44c 303d
000002c0: c281 a9bb 61c2 5a3c e727 1c3d c9fd 31bc
000002d0: da0c 113d 1fab a93c f319 a23b fe45 b8bc
000002e0: 9076 393d e193 60bc 0fb4 34bb 3757 a4bc
000002f0: 1813 1e3d fa3a 9abb bb42 a8bb abdd 63bc
00000300: 4e9b d9bc 87fe 493c 3523 af3c 0acd 4cbc
00000310: 4cb8 71bc b397 85b9 913a 00bd adde 2cbd
00000320: 0a07 113c 58a0 08bd 716d 0d3d 9059 f73c
00000330: f7aa e73c 8e2b e1bc a737 883c d5e7 1f3d
00000340: e058 b8b8 b5ae e9bb 8871 7abd b736 40bd
00000350: eea5 c6bc 378e c4b6 9396 fdba 127e 23bc
00000360: 50ea 9ab9 383b 53bc 3c51 4e3b b553 c73c
00000370: ab2c 353c 60ee 60bc b691 8f3c 607a e9bc
00000380: c71d 2cbc 749a 9fbb f418 23bd 3ea9 553c
00000390: 8563 e4ba 9993 0fbd 011d 513b 0c76 9a3c
000003a0: bea4 913b 2ec0 4b3c ef87 983c d621 133c
000003b0: 9caa 52bc 476f 98bc 42f7 953c 0bb4 363c
000003c0: 7b57 4a3b e826 a5bc 23bf 7739 3da7 20bd
000003d0: f790 9fbb c4fa c5bc 29e8 dd3b 2c60 e5bc
000003e0: b0ce ccbc 1d54 24bd 38bc 47bd 186a f23c
000003f0: b805 44bc b9d1 983c 3713 aa3c 7bc2 a33c
-0.013234953 0.024350079 0.0070911446 -0.021338679 -0.0032052766 -0.021485763 -0.022807758 0.00067557726
-0.03342799 -0.02717753 -0.0078073354 0.03430896 0.03743686 -0.0034283095 -0.010109881 -0.018095296
0.04718957 0.012118194 -0.013879205 -0.019116802 -0.0020807611 0.002829745 0.038670078 0.0071418616
0.027840838 0.01349245 -0.046166506 -0.01793402 0.0421231 -0.021600995 0.047708247 0.0070431405
-0.0109785525 -0.023058502 -0.00906183 0.00674184 -0.027479583 0.001741805 -0.021333229 0.0021222648
0.0053056604 0.023004105 -0.0004423721 -0.014486853 -0.0029447412 0.008233142 0.029003028 0.025746325
0.013514931 0.015156907 0.032017943 -0.043115463 0.007477645 -0.010699328 -0.029426102 -0.009928331
-0.021068446 -0.040413864 -0.024689412 -0.016440423 -0.0077294973 -0.014188859 0.012223658 0.0055879797
-0.04179381 -0.009393227 0.017454725 -0.017818842 -0.00023562228 0.013521096 -0.0069188527 -0.055748615
0.040034186 -0.0034039672 -0.004309438 0.00739889 0.01990141 0.04146657 0.051828798 -0.008756445
-0.05466331 0.003152728 -0.029399103 -0.02833273 -0.006827386 0.020775072 0.0043661287 0.00459812
0.023319947 -0.03499888 0.025254728 -0.05020721 -0.0661689 -0.011311784 -0.022206577 -0.03185177
0.010890594 -0.014081799 -0.0059649753 0.0036013012 -0.010469696 0.082346775 0.0020939203 -0.02957813
-0.05358658 0.01994024 0.037407544 -0.019197052 0.0040354715 0.008070667 0.04688686 0.012213632
-0.030976016 0.011625944 0.029157188 0.0031921058 0.014198081 -0.0056724814 0.028142158 0.007928076
-0.0017980349 0.0014859879 0.020179208 -0.045396507 0.002765572 0.008762054 -0.0026028578 -0.048028015
-0.032710142 0.039739847 0.011103451 0.0076234033 0.04205416 0.003589057 -0.0017860801 0.021367889
-0.025918944 0.031309642 -0.027309224 -0.016866367 0.04950938 0.040933616 -0.022830198 -0.042207044
-0.0050773867 -0.014330142 0.02007088 0.0009918731 0.040165287 0.0038641833 -0.007979994 0.043156434
-9.2671005e-05 0.014404141 -0.032217678 0.042868823 0.009218241 0.020938914 0.017342273 -0.01612368
-0.016333494 -0.009224524 0.011983855 -0.0062279357 0.030256039 -0.002036137 0.005200848 0.02469984
0.013704153 -0.04301834 -0.001629414 -0.04044907 0.012892268 -0.019268775 0.034458105 0.0430419
-0.005172939 0.013352008 0.03812399 -0.01086373 0.035412647 0.02071148 0.004946941 -0.022494312
0.045279086 -0.013707132 -0.0027573144 -0.020061119 0.038592428 -0.0047067376 -0.005134908 -0.01390783
-0.026563313 0.01232875 0.021379093 -0.012500057 -0.014753412 -0.00025480762 -0.031305853 -0.042204548
0.008851776 -0.03335604 0.0345282 0.030194074 0.028279765 -0.027486589 0.0166281 0.03903945
-8.790358e-05 -0.0071314224 -0.061143428 -0.04692718 -0.024249043 -5.857811e-06 -0.0019347243 -0.009978788
-0.00029547745 -0.012892537 0.0031481525 0.024331907 0.011058013 -0.013728708 0.017525535 -0.028500736
-0.010505146 -0.004870707 -0.03981872 0.013040839 -0.0017424679 -0.03505287 0.0031908157 0.018855117
0.0044446876 0.012435956 0.018619506 0.008980235 -0.012858059 -0.018607749 0.018306378 0.011151324
0.0030874896 -0.020160154 0.0002362696 -0.03922199 -0.004869576 -0.024167426 0.0067720604 -0.02799996
-0.0250009 -0.04011928 -0.048763484 0.029591605 -0.011964254 0.018654691 0.020761115 0.019990196

network_body._body_endoder.seq_layers.4.weight f4 [256, 256]
00000000: aab7 69bd da1f fd3d a255 8e3d 4029 073e
00000010: 8895 4ebe 24b9 863b 3e5a a53d 99f0 bcbc
00000020: 52c9 f03d 6cd8 fc3c 928a 81be 60f5 093e
00000030: b024 73bd 8d8d 73bc 5342 ffbc 38e5 29bd
00000040: f8b2 2a3d d2ec 0f3d ed5b 22be 9497 a4bc
00000050: 5ed9 68bd 18b4 31bd 9ee1 fe3c 8454 01bd
00000060: fe14 273e a0e3 13be 45ef 123e 95b5 20bc
00000070: 5545 043d 9a8d cb3c dfc1 f8bc 22fa a73d
00000080: 03fd f5bd 4d77 ed3c 80cb a8bb 69a4 2ebe
00000090: 0413 f43d 08c6 5e3d 4773 3cba 0908 39bd
000000a0: 6a8f 59bd b999 45bd a44b 453d d375 073d
000000b0: 96e3 d73c 879b bd3d 0373 cfbd cfb1 94bd
000000c0: bc8f 1dbd 0164 b73c 315a 1f3d e42b 0d3e
000000d0: ed89 e23d 5800 e13c 4a1b c6bc d454 ad3d
000000e0: 755d 3d3d 1575 c23d 9fec 19be f3ed 703d
000000f0: 4cdf 0dbd 4781 6a3d c7bb e1bd b13c bd3d
00000100: df53 b9bd edc7 173d 422b 8b3d 8ff4 33be
00000110: 2e2b 9bbc b2f6 1fbe 4f61 b73c b7d2 c9bd
00000120: e6b7 90bd 80c0 083b 4efd a4bd aa99 af3c
00000130: 14e9 98bd 9fe2 a13c 1e6e 17bd 933f 993d
00000140: a109 66bc 4c18 82bd a3e6 fd3b 7d62 e43c
00000150: 25db 0bbe b6ef d13d a950 413c d175 403d
00000160: 859e e3bc c82c f83c 1861 84bb 05ec a83d
00000170: a404 b3bd 13a4 13be 0870 e43d 121b 9b3b
00000180: 76fd 14bd 0f26 86bc 361d 1ebe 41cf 583d
00000190: 9f02 f63a fbf3 4c3d e5ec 23bd 35c9 483d
000001a0: de18 883c 0af4 c3bd 9041 2cbe 7300 d7bd
000001b0: a7cc 7cbb 8ed9 923d 5800 20bd 8e0d ddbc
000001c0: 664e dc3c 5444 363c 1afa 82bd 8f04 953c
000001d0: 6909 2dbd f969 e4ba b62b 16be 7556 4fbe
000001e0: 7b51 1ebc a695 413d 1164 483e 1c7a 62bd
000001f0: 377d 193e 4569 07bd 9a68 50bd 835b 9bbd
00000200: 048e ec3b 0df1 173b 1bca 12bd 6410 7b3e
00000210: c675 8ebc 02cf 9a3b cf90 2fbd 828e 31bd
00000220: 1025 b9bd 5ed9 49bd 00d1 4b3d e313 2e3e
00000230: c664 cbbd 1e87 d0bd 424b 0e3e 849a 813d
00000240: eb96 a53d 0614 ff3b bc6e cc3d 2e4e aabd
00000250: fbdc 1bbe a18b 3abd a208 a43d b1f4 33be
00000260: 879d 80bc 582f 41be 4fc8 bb3c a742 4bbd
00000270: 2dce 4abe 44fb bc3d 03ca c13c ceb1 303e
00000280: a186 523e 9191 9cbd 2316 81be c0e9 0a3e
00000290: 12f3 27be d18a c03d f855 b0bd ec23 9e3c
000002a0: 541f 40bc c184 013e 9a92 24be d7f6 79be
000002b0: d17a 34bd 4f90 f6bb c429 28be 1b07 8ebd
000002c0: 3d56 5fbd ac39 32bb cc34 403c da39 003e
000002d0: d8d5 22bd b4d7 e9bd 3ec6 97ba ed7d 8fbb
000002e0: f77b 813d cc21 f3bc 4869 3cbe c821 01bd
000002f0: a56d d93d fbb9 cd3d 3cf1 053d 0821 503c
00000300: 3ea9 583d 32e8 523e bdce 3ebd bc53 e23d
00000310: a4b8 f1bc 63ea 203c 839c fdba f0fd 883c
00000320: a22b 213e 17e6 e1bc e601 81be 46c4 483d
00000330: 47db babd 9bdf afbd bb1d 143e a7fd f9bd
00000340: 65c9 07be d979 1a3d b221 f73d 7671 9bbc
00000350: 52e8 ac3d b027 2e3d f2f2 89bd 9705 ad3c
00000360: 84f4 e23d dcc9 a43c 393c c03d 217e 813d
00000370: 050c 75bd 86ff 6d3d 0e8e 3abd b3b7 28be
00000380: 0b9a e8bd ed28 a2bd aad6 e93d 647d f53d
00000390: fda9 53bd 10b6 3cbe 7caf 14bd 07d4 2e3e
000003a0: 7004 8d3d 8544 ccbd 597a ad3c c6d6 72be
000003b0: d17f 1d3d 1416 1f3e 0a42 3a3e d459 973c
000003c0: fb44 3f3d 47a8 0abe 1486 32be 5427 463d
000003d0: 1dd1 1cbd e596 c6bd c370 443d 035d 54bd
000003e0: b9d0 e23d 44c4 eabd 0ce3 2ebe f8c0 903d
000003f0: b9bb f4bd a615 0fbd 6b30 57bd a05e e33d
-0.05705992 0.12359591 0.06949927 0.1319933 -0.20174229 0.004111426 0.08073853 -0.023063945
0.11757149 0.030864917 -0.25301033 0.1347251 -0.05936116 -0.014865291 -0.031159556 -0.041478366
0.041674584 0.03513796 -0.1585538 -0.02009181 -0.056847923 -0.04338464 0.031113442 -0.03157474
0.16316602 -0.14442301 0.14349087 -0.0098089175 0.032292683 0.024847794 -0.030365882 0.08202006
-0.12011149 0.028987551 -0.005151212 -0.17054905 0.119176894 0.054388076 -0.00071888085 -0.04517368
-0.053115286 -0.048242304 0.04816784 0.03307135 0.026353639 0.0925818 -0.101293586 -0.07260477
-0.038467154 0.022386553 0.038904373 0.13786274 0.110614635 0.027465984 -0.024182934 0.08463445
0.046231706 0.09494988 -0.1503167 0.058820676 -0.03463678 0.057252195 -0.11022144 0.092400916
-0.090492 0.0370559 0.0679536 -0.1757376 -0.018941488 -0.1562145 0.022385268 -0.09854644
-0.07066326 0.0020866692 -0.080561265 0.021435577 -0.07466331 0.019761382 -0.03697025 0.07482829
-0.014040382 -0.063522905 0.0077484413 0.027878994 -0.13657816 0.10250799 0.011799016 0.04698736
-0.027785549 0.03029479 -0.004039895 0.08248142 -0.087411195 -0.14418058 0.11154181 0.0047334516
-0.03637453 -0.01637557 -0.1544083 0.052932028 0.0018769092 0.050037365 -0.040020842 0.04902001
0.01661342 -0.09568031 -0.16821885 -0.104981326 -0.003857413 0.071704015 -0.039062828 -0.026984002
0.026892852 0.011124689 -0.06395359 0.01819065 -0.042245302 -0.0017426602 -0.14665112 -0.20247824
-0.009662981 0.047261856 0.19569422 -0.055292234 0.14989172 -0.033059377 -0.050881006 -0.07585814
0.007219078 0.002318445 -0.035837274 0.24517971 -0.017390143 0.0047243843 -0.04286271 -0.043348797
-0.09040272 -0.049279563 0.049759865 0.16999774 -0.099313304 -0.101820216 0.13895896 0.063283
0.08085426 0.0077843694 0.099820584 -0.08315693 -0.15221016 -0.045543317 0.08009459 -0.17573811
-0.015700115 -0.18865716 0.022922663 -0.04962411 -0.19805212 0.092276126 0.023655897 0.17255327
0.2055917 -0.07644952 -0.252122 0.13565731 -0.16401318 0.09401477 -0.08610147 0.019304238
-0.011726219 0.12648298 -0.16071549 -0.24410568 -0.04406244 -0.007524527 -0.16422182 -0.06934949
-0.054525603 -0.002719502 0.011731338 0.12522069 -0.03975472 -0.11418095 -0.0011579467 -0.004379025
0.063224725 -0.029679202 -0.18399537 -0.031526357 0.10616616 0.100452386 0.032700762 0.012703188
0.052895777 0.20596388 -0.04658388 0.11051127 -0.029506989 0.009821507 -0.0019349012 0.01672265
0.15739301 -0.027575536 -0.2519676 0.049015306 -0.09123855 -0.08587571 0.14464466 -0.122065835
-0.1326042 0.03771386 0.12066974 -0.018975 0.08442749 0.042518318 -0.06735791 0.02112083
0.11081794 0.020115785 0.093864866 0.06322885 -0.059825916 0.058105014 -0.04554563 -0.16476326
-0.11357506 -0.07917962 0.11417897 0.11986807 -0.051675785 -0.18428826 -0.036300167 0.1707307
0.06885612 -0.099740066 0.021176504 -0.23714742 0.038451973 0.15535766 0.18189254 0.01847545
0.046696644 -0.13540755 -0.17433959 0.04837735 -0.038285363 -0.096967496 0.0479591 -0.051846515
0.11074967 -0.11463216 -0.17078799 0.07068056 -0.11949868 -0.034932755 -0.05253641 0.11102033

network_body._body_endoder.seq_layers.4.bias f4 [256]
00000000: a255 a3bb 3c50 753c cef6 33bd 91cc e73c
00000010: 4813 d73c 0941 b739 8efe 2cbc 66ae 433c
00000020: 6c2e 53bc 6ae3 ee3a 5248 62bc 631d 42bb
00000030: 2f51 e13b 57c3 3b3c 4f40 1abd a1e8 583c
00000040: 299d 6f3d a37b d23c fba0 1abb 4fdb 1d3d
00000050: 0027 dd3c 49db 223c e930 bcbc de6c 1c3d
00000060: 99fe 143c 08a3 243c 862c 0abc be6e 4b3b
00000070: f9be ccba bf29 bb3c 301e 643c 9f96 2abc
00000080: 3622 273c ec8e 0b3c d0f1 6e3c 0d68 cbbc
00000090: 930f 4fbd 5dfc 4c3d 44c6 e8bc 3be2 cb3b
000000a0: d746 4b3c aa3c ca3c d0c5 a23c a3eb 16bd
000000b0: 151b da3c 01de 99ba 76c0 5f3d d17b e93c
000000c0: a0e3 193b 42b3 653c 85e6 ab3c 9dd0 363c
000000d0: 7c7a 59bc fac3 b6bc 7520 a5bb ee0d 253c
000000e0: dfb3 c2bc 055f df3b 448e 3e3a accd 493b
000000f0: b4f6 863b 2014 a23b 7c6a c23c 510c b7bb
00000100: bb0c 01bc 5d64 0d3c 2b7d e8bb a702 3b3c
00000110: d381 22bc 4bbf c63b 8e60 29bc 2e4e 5e3d
00000120: aaed ff3c 329b 803c dc6b 473d 0d59 f23b
00000130: 5715 4e3d 7b2d 18bd c988 b43c 4096 013c
00000140: 0161 bd3c df70 08bb 428a 873c dc17 523c
00000150: 5cca 50bd fcbe 523d 378b 653b 14ce 333d
00000160: f211 6b3b 4155 693d 251e b6bd 62c1 863b
00000170: 17a1 743d 15e9 1fbc 4f7b de3c f8a1 16bd
00000180: 42ff 113d d8a5 5c3c 4f46 883c 6fc2 2abd
00000190: ecf8 4e3c 0ed9 f03b 7ea9 f33c b543 b8bc
000001a0: 34e1 c03c 394a fdbc 60ba 86bc 7d5f 993b
000001b0: 1008 d33c 90cd 9e3b dfee b13c 077d 5e3c
000001c0: 41c3 433c f93f a93c 14ba b43c 8988 83bc
000001d0: 6e59 0d3d 7c4d 8e3c 4b17 1f3c ace5 cbbc
000001e0: 5910 5c3c e81f 0abd 1237 bebc 3695 8c3d
000001f0: f724 9bbc f11d 32bc d002 d1bb c4ff edbc
00000200: 8ae6 7f3b e102 053d b5c0 703c f5d6 1e3c
00000210: acf7 433d 1c49 7e3b 9e3f 2b3d e609 873d
00000220: f1ad 323d 4c8b 893c bf21 e93c 2cdf 283d
00000230: cbee d93c c0f6 84bc 15eb 013d 08d7 0ebd
00000240: 7606 90bc 732f 823c 4e83 ed3b 1fc1 ec3c
00000250: ce73 03bd 46b8 003d be14 183c c688 f53c
00000260: 4c45 b33c 18b3 6eb8 2a8a b3bc 71fd 31bd
00000270: 6506 853c 9ff7 223c 95a4 1e3c e627 d3bc
00000280: aa29 81bb edd6 2abd 7dcb ab3d 7ffe 7c39
00000290: 1674 c9ba 9b52 bb3c dcd9 dbbc 2480 013c
000002a0: e99c 4bbc 69f3 e3bc 2a49 2d3b df66 e93c
000002b0: 465d 89bc bb6d 263b 987c 9b3c 4504 8e3c
000002c0: 186f 5a3c 5983 8e3d 4f93 0036 14d2 7cbc
000002d0: 5817 3f3d 62b5 d0bc d035 a33c f09f b83c
000002e0: e1f8 063d 11de 01bd 1c32 8c3c ec31 87bc
000002f0: be69 83bb c285 223c d3f5 fabc f316 03bc
00000300: c01a e93b 4102 15bc 2feb 9ebc 911e fe3c
00000310: acc0 233d b6d3 1b3c a0e1 41bb 0091 abbc
00000320: b3ef 1dbc 9403 15bc 3796 893c f0ed 0c3c
00000330: ff05 f53c fd94 4c3c 0f6c 4cbb d4c4 3a3d
00000340: f664 2c3d 7336 d4bb 7716 843c 751d 223b
00000350: 8725 40bc 40ea f43c 6c1c 443c 3b52 bcbd
00000360: 498c 6b3c e32d c9bc 9556 173c 09e1 413c
00000370: 69c2 a83c d52f 473c 5102 c33c 82c1 073c
00000380: 8af0 35bd 4c6a 303c 5cff 5c3d d230 36bc
00000390: 8740 84bc 293a 313c d369 d93c 1757 103b
000003a0: b1ab a3bc 9ae3 c33c 9df4 0ebd 2253 0abd
000003b0: 09fa 303d 6f3d 43ba 3d74 e7bc 3ac8 343d
000003c0: 3c3c 473c 31a1 21bc 1f7f a63c f1ad fd3c
000003d0: b81b 81bb a5d7 113d 5a4a 00bd 0056 1b3c
000003e0: f659 e1bc 9af8 f93c 5102 2c3c 9ad4 5e3c
000003f0: 60d9 be3c 673a ddbb 6e61 e03c 5895 00bb
-0.0049845735 0.014972743 -0.043936543 0.028295787 0.026254311 0.00034952935 -0.010558737 0.011943435
-0.012889486 0.0018225734 -0.013811188 -0.0029619567 0.006876133 0.011460147 -0.037658986 0.013239057
0.05849949 0.02569372 -0.0023594487 0.038539227 0.026996136 0.009939977 -0.02297254 0.03818976
0.009093904 0.010048635 -0.008433467 0.003104135 -0.0015620879 0.022847055 0.013923213 -0.010411887
0.010201028 0.008517962 0.01458402 -0.024829889 -0.050551962 0.05004536 -0.028414853 0.006222037
0.012407026 0.02468713 0.019869715 -0.036845814 0.026624242 -0.0011739136 0.054626904 0.028501423
0.0023481622 0.014019789 0.020983944 0.011158136 -0.013273831 -0.022310246 -0.0050392696 0.010074122
-0.02376741 0.006816747 0.0007269124 0.0030792756 0.004118765 0.0049462467 0.023732416 -0.005586185
-0.00787657 0.0086298855 -0.0070949993 0.011414207 -0.009918648 0.0060652844 -0.010337962 0.054273777
0.031241257 0.015699003 0.048686847 0.0073958696 0.05031332 -0.03715275 0.02203788 0.007909358
0.023117544 -0.002081923 0.016545419 0.012823071 -0.050974235 0.05145167 0.0035025605 0.043897703
0.003586885 0.05696607 -0.08892468 0.0041124085 0.05972394 -0.009760161 0.027158407 -0.03677556
0.035643823 0.013467275 0.016635088 -0.041689333 0.01263259 0.0073500937 0.029743906 -0.022493223
0.023544885 -0.030919181 -0.016446292 0.0046805725 0.02576068 0.0048462823 0.021720348 0.0135796135
0.011948408 0.020660387 0.022061385 -0.016056316 0.034509115 0.017370932 0.009710143 -0.02488979
0.013431632 -0.033721834 -0.023219619 0.06864397 -0.018938525 -0.010871396 -0.006378509 -0.029052623
0.0039047324 0.03247345 0.014694382 0.009694804 0.04784362 0.00388009 0.041808717 0.06593685
0.043622915 0.016790055 0.028458474 0.04122846 0.026603123 -0.01623094 0.031718332 -0.03487304
-0.017581206 0.015891766 0.0072483188 0.028900681 -0.03209286 0.031425737 0.009282289 0.029972445
0.02188363 -5.6910416e-05 -0.021916468 -0.04345459 0.0162384 0.009946733 0.009682794 -0.025775861
-0.0039417343 -0.041708875 0.08388422 0.000241274 -0.0015369679 0.022866538 -0.026837282 0.007904086
-0.012427547 -0.027826028 0.0026441314 0.028491436 -0.016768109 0.0025394994 0.01898031 0.01733602
0.013332151 0.06958646 1.9159231e-06 -0.015430946 0.04665312 -0.025477115 0.01992312 0.022537202
0.032952193 -0.03170592 0.017113738 -0.016503297 -0.004010408 0.009919586 -0.030634796 -0.008001077
0.0071137846 -0.009094776 -0.019399254 0.031020435 0.039978668 0.009510925 -0.0029583946 -0.020943165
-0.009639668 -0.009095091 0.01679526 0.008601651 0.029910086 0.012486693 -0.0031192338 0.045597866
0.04208847 -0.0064762174 0.016123993 0.0024736796 -0.011727697 0.029896855 0.011969667 -0.09195372
0.014376708 -0.024558013 0.009236951 0.011833438 0.020600514 0.0121574 0.023804815 0.008285882
-0.04441885 0.010767531 0.053954467 -0.011120038 -0.01614405 0.010817089 0.026539719 0.0022024566
-0.01997933 0.02391224 -0.03490125 -0.033770688 0.043207202 -0.0007447814 -0.028253669 0.044136263
0.012160357 -0.009865091 0.020324288 0.03096673 -0.003940072 0.035606045 -0.031320907 0.009480953
-0.027508717 0.03051405 0.010498599 0.013600493 0.023297012 -0.006751347 0.027390208 -0.0019620266

action_model._continuous_distribution.log_sigma f4 [1, 39]
00000000: 9f58 4ebc a810 9b3f c2b1 923f 51c0 883e
00000010: 530c 9c3e 9480 783f acaf 40bf 7fae 993f
00000020: 4188 923f 3023 03be 762f 813f 6f6b 573f
00000030: 8a82 a3be df80 413f 51f5 a3bf b3f4 35be
00000040: 0fe5 4b3f 7a7c 7bbf a93f 3c3e 60da 8f3f
00000050: 27bf e5be fe29 c5be 9a0d 743f 4445 74be
00000060: 96df c4be 31cf 683f f508 4ebf f1cb 41bf
00000070: 95e1 d63e c94f 95bf c907 90be c7e0 743f
00000080: e96b 953f 4f9a 303e 0645 e93e a9b6 b73e
00000090: 5194 7dbe e8db 653f 790b ae3e
-0.012594371 1.2114458 1.1460497 0.26709226 0.30478153 0.97071195 -0.75268054 1.2006377
1.1447831 -0.12806392 1.0092609 0.84148306 -0.3193553 0.75587267 -1.280924 -0.17769127
0.7964639 -0.9823681 0.1838366 1.1238518 -0.448724 -0.385086 0.95333254 -0.23854548
-0.38451833 0.9094115 -0.8048242 -0.75701815 0.4196898 -1.1664973 -0.2813094 0.95655483
1.1673557 0.17246364 0.45560473 0.35881546 -0.2476361 0.89788675 0.33993128

action_model._continuous_distribution.mu.weight f4 [39, 64]
00000000: 2b18 2d3e fb09 31bc 3598 dabd 7d7b 46be
00000010: c919 0f3e deb9 b23d 7707 0dbe f72f 0f3e
00000020: 8cdc b7bd bcd9 923e 1d17 20bd 3b2d 133e
00000030: 2e39 003e c81a 7abe 7879 adbd 291d 053d
00000040: 7c04 05be 5ed3 93be b22d 023d 9fed 143e
00000050: b225 383e 5cc1 8a3e 3ac0 ea3c 36fd 0a3e
00000060: b6ba 3e3d 6511 013e 9c08 8ebe 8e43 053e
00000070: bcd2 4b3e aef1 c3bd fc5b bcbe b743 39be
00000080: 9862 4d3e f78d 063e 8f40 2dbd 5195 3c3e
00000090: 4306 c83d 6eb0 c5bb 5cec 5a3d 6045 a5bd
000000a0: ba55 f9bd 3682 dc3d 7000 4cbc eed7 55be
000000b0: eb82 50be f00b 383d 0cf2 103d 6a3c 3abc
000000c0: 48ca dbbd e9ea 313e 9899 6b3d 0c5d 753e
000000d0: fe0b 9abe 8498 2c3e 5cdd aebd 2253 733d
000000e0: 9256 18bd 4cef 15bb 2718 653e 17a7 1dbe
000000f0: b4d6 47be 15ce 403e 01de 59be be92 0d3e
00000100: 7899 f5bb 31dd 573c 80f2 02bd 1d38 413e
00000110: 4398 fdbc 66c3 22be c78c 113d 9d13 7b3d
00000120: 3399 953e afd9 36be 6198 193e 572f f7bc
00000130: 3a22 81bc 4eec 7c3c 3c4a 373d 372e 243e
00000140: c24e ed3d ee16 a7bd 328d 03bd 7af7 573e
00000150: 6508 c53d 27ad 513d a988 a7be 0716 c23d
00000160: 8d55 96bd 84e8 c03b 78ae e8bc 2a5d 1cbe
00000170: ea60 06be 10f3 053c a3d9 7ebd 059e ffbd
00000180: 297e 33be 613b 3c3e 425d d2bd 9a9f 493e
00000190: c094 4a3e f91f 9ebb 6225 d03c 85f0 ecbb
000001a0: e485 8ebc 1dc1 4a3e 170b 693d c21b a03c
000001b0: f076 9abd f273 87bd f77b 47be f165 95bd
000001c0: 9e07 70be 8c93 b6bb ef00 49bd 934d 213e
000001d0: c9fa e8bd f084 963c ed9c 883d d148 b4bd
000001e0: 2f28 b1bd a8a9 34be 1d95 3a3c 5dbb 08be
000001f0: 5964 af3c 5bc1 bbbd c004 88bd d670 cfbc
00000200: 2cf3 bfbc 5f13 643d a5f8 e03c 7560 04be
00000210: a8aa 84bd 0741 363d b2d7 783d f544 d8bd
00000220: 9866 673e f417 a03d 1f61 21bd cc8d b13d
00000230: fbe1 11be 48a3 843e 0445 b63d 0447 21be
00000240: 1e75 7e3e 917d 9d3c 77a4 e7bd a3fc 54be
00000250: c4f7 083d b10d 3cbc 0070 27be 7099 53be
00000260: 9fa4 f2bd 9f1f c2bd 5f6d 85bc ea95 03bd
00000270: d016 a73d d853 323e 3f81 bc3d 0877 94bd
00000280: f763 b3bd 8ab3 92bc 3265 933d 98c3 5739
00000290: d246 9e3d 3fb1 a7bc b27e 15be 9bab 4dbd
000002a0: 4e66 4cbc 7b70 e8bc bd30 39be 81d5 883c
000002b0: 6caa a53d 684d 8a3e 6ded 90bd 35cc b23c
000002c0: 2147 a03d bb65 39bd 3f06 103e 92db a5bd
000002d0: 2d4d 47bc 4455 e43c 5ff1 13be 0381 19be
000002e0: c5e5 363e c0dd b53d b420 2bbe d928 dcbd
000002f0: 68d9 00bd 2ee8 7ebd 1b59 103d 73b7 a23d
00000300: c221 8f3d 5d46 213e 1cd4 5bbe 003e 0fbe
00000310: e001 923e 13a4 343e 9111 7dbd cb3d 063d
00000320: 2743 c1bd 6fe5 693e bc80 e33d 34bc b93d
00000330: c6a7 ba3d a86f a0be c7ca 91be 3510 853e
00000340: 3a88 43be b3c8 69be 138e b2bb fb1f 2a3e
00000350: 6f09 b43d 7f51 423e 8c40 443e 0b85 0c3e
00000360: 4152 91bd 6ed5 1a3e ab02 27be 3da5 56be
00000370: 6cc1 ec3c b282 a7bc ccd4 56be 313a 80bc
00000380: 31b5 363d 2355 3539 5d99 2b3d 9c3d 1d3e
00000390: 90d1 e93d a882 de3d ffb9 323e f848 f03d
000003a0: e788 1abe 8ddd ea3d f260 d5bc 32a8 c0bd
000003b0: cc4e 4cbe fda4 33be 663e d83d 2cd7 b8bd
000003c0: 5039 87bd eddd 123e 1a18 4e3d cc9a 0f3e
000003d0: 73f6 113d d919 ce3d 1a5e a6bd 9745 bfbd
000003e0: ba91 45be 061b c13d 78b5 823d d832 19be
000003f0: ac00 86be 1cbc 353e 118f c4bd 89e2 6f3e
0.1690375 -0.010805602 -0.106735624 -0.19383045 0.1397468 0.087268576 -0.13772379 0.13983141
-0.08977613 0.28681743 -0.039084543 0.14372723 0.12521812 -0.24424279 -0.08470434 0.032498512
-0.12989992 -0.28872198 0.03178186 0.1454377 0.1798313 0.27100646 0.028656114 0.13573155
0.04656478 0.12604292 -0.27740943 0.13014051 0.19904608 -0.09567581 -0.36788929 -0.18092237
0.20057142 0.13140093 -0.042297896 0.18416335 0.09766819 -0.006032995 0.053448066 -0.08069873
-0.12174554 0.10767023 -0.012451276 -0.20883152 -0.20362441 0.04493326 0.035387084 -0.011366943
-0.107319415 0.17374767 0.057519525 0.23961276 -0.30087274 0.16855055 -0.08538315 0.059405454
-0.037191935 -0.0022878228 0.22372495 -0.15395771 -0.19515496 0.18828614 -0.21276094 0.13825509
-0.0074951015 0.013175295 -0.031969547 0.18869062 -0.030956393 -0.15894851 0.035534646 0.061298
0.29218444 -0.17856477 0.14999534 -0.03017394 -0.01576339 0.015437199 0.04474853 0.16033255
0.115872875 -0.0815867 -0.032117076 0.21090499 0.09620742 0.05119052 -0.3272145 0.09476858
-0.07340536 0.005887093 -0.028403506 -0.15269914 -0.13122907 0.008175626 -0.062219273 -0.12481312
-0.17528595 0.18382026 -0.10271694 0.1968979 0.19783306 -0.004825589 0.02540845 -0.0072308206
-0.017397828 0.1980023 0.05689534 0.019544486 -0.07542217 -0.06613912 -0.19480883 -0.072948344
-0.23440406 -0.005571788 -0.049073156 0.15752248 -0.113759585 0.018373936 0.06670556 -0.08802951
-0.086502425 -0.17642844 0.01138809 -0.13352723 0.021410154 -0.09167739 -0.06641531 -0.025322359
-0.023431383 0.055682536 0.027462313 -0.1292742 -0.064778626 0.04449561 0.060752578 -0.105600275
0.2259773 0.07817069 -0.039399263 0.08669624 -0.14246361 0.25905824 0.088998824 -0.15749747
0.24849364 0.019224914 -0.11310666 -0.20799498 0.033439413 -0.011477874 -0.16351318 -0.20664
-0.11847805 -0.094786875 -0.016287504 -0.03212539 0.08158648 0.17414796 0.09204339 -0.07249266
-0.08759301 -0.017907877 0.07197036 0.00020576862 0.07728352 -0.02047026 -0.14599112 -0.050212484
-0.012475563 -0.028373947 -0.18084998 0.01670337 0.08089146 0.2701218 -0.070765354 0.02182589
0.07826067 -0.045263033 0.14064883 -0.0809852 -0.012164396 0.027872689 -0.14447545 -0.1499062
0.17861088 0.08880186 -0.16711694 -0.107499786 -0.031457335 -0.062233143 0.035241228 0.079451464
0.06988861 0.15749498 -0.21467632 -0.13988495 0.28517056 0.17640714 -0.06178433 0.032773774
-0.094366364 0.22841428 0.111085385 0.090691 0.091140315 -0.31335187 -0.2847502 0.25988927
-0.19094935 -0.22830467 -0.0054490655 0.16613762 0.08790862 0.18976401 0.19165248 0.13722627
-0.07095767 0.1512048 -0.16309611 -0.20961471 0.028900824 -0.020448063 -0.20979613 -0.015652748
0.04460639 0.00017293221 0.041894305 0.15355533 0.11416924 0.108647645 0.17453764 0.11732668
-0.15091287 0.11468039 -0.026047204 -0.09407081 -0.19951934 -0.17543407 0.105587766 -0.09025416
-0.06602728 0.1434247 0.050315954 0.14023894 0.035635423 0.10063524 -0.08123417 -0.09339445
-0.19293872 0.094289824 0.06382269 -0.14960802 -0.26172388 0.1774754 -0.095976 0.2342626

action_model._continuous_distribution.mu.bias f4 [39]
00000000: 975f db3d 5c42 0d3e 60f0 7cbc 79a6 983b
00000010: 2213 2e3e 48a0 06bd 726d eabd 0b0a 25bd
00000020: f189 d3bc df95 483c 3764 a7bc 9b61 273d
00000030: 6c8e 5bbd 787b f4bd 72d4 86bd d2ea a9bb
00000040: 364b 13bd c4cc b53c 196a f7bd 5a9b f6bd
00000050: 8af8 fd3c 1912 0f3d 0ffd 0abe d1da 013d
00000060: 2ff1 2e3d d69f cf3d 1797 7e3d 4afb 3fbd
00000070: 14c7 aabd de79 aabd 04cf ddbc ae50 a93c
00000080: 5902 5b3d 68be c33d 062f 803c 60d9 5c3d
00000090: e12e 79bd 4b55 133d 0e46 633d
0.10711592 0.13794845 -0.015438169 0.004658517 0.16999486 -0.0328677 -0.11446656 -0.04029278
-0.025822612 0.012242763 -0.020433528 0.04086457 -0.05360262 -0.11937612 -0.065834895 -0.0051854635
-0.0359604 0.022192366 -0.120807834 -0.1204135 0.031002302 0.03492937 -0.13573097 0.03170282
0.04271048 0.10137908 0.06215581 -0.046870507 -0.083387524 -0.083240256 -0.027076252 0.020668354
0.053469036 0.095578015 0.015647423 0.053918242 -0.060835723 0.035970014 0.05548673

action_model._discrete_distribution.branches.0.weight f4 [1, 64]
00000000: eecd 86bb 3aa5 3a3a 8445 a9bb 8f5d d13a
00000010: 4201 d6bb 62d3 d3ba 9b58 3e3c df82 88bc
00000020: 1f5f ab3b fd9a 463c 8337 84bc bd84 803c
00000030: 4804 52bc b8da 79bc da33 96b8 e36f b1bb
00000040: bf3d 5dbb 2d7a e93a cdc2 cbbc 1fb6 db3a
00000050: d73a d73c c6f5 85bc 1732 82bb 5dbf 5a3b
00000060: 2f48 103a df27 8f3a a793 683b ca74 c4bc
00000070: 5216 afbb 654f 1a3b b488 a9ba c39d 193b
00000080: 0362 6e3b b30c 853b 7015 603c 4ea5 473c
00000090: c827 cbbc ff9b 9cbc f05c 80bb 2e93 8dbb
000000a0: d7a5 69ba 9d86 6abc fdf6 fb3c 71cb 363c
000000b0: 9585 353c 27e9 82bb c65d 3bbc cc18 15bc
000000c0: edfa 86bc 965b 15bc bb7f b7bb 73e2 d13b
000000d0: ad5e fc3c 05a1 a0bc 1f49 5cbc 8005 0cbc
000000e0: 3f01 80bc 37b1 18bc 8b85 1039 77f9 ce3b
000000f0: 92c7 53bb 6be2 d13b 911a a73b 7ab7 e9bc
-0.004113904 0.00071199576 -0.0051657576 0.0015973317 -0.0065309117 -0.001616102 0.011617805 -0.016663967
0.005229845 0.012121913 -0.016139751 0.015688295 -0.012818404 -0.0152499005 -7.1622155e-05 -0.0054149493
-0.0033758727 0.00178129 -0.024873162 0.001676265 0.026273174 -0.016352545 -0.0039732563 0.0033378222
0.000550392 0.0010921917 0.0035488398 -0.02398147 -0.005343237 0.0023545858 -0.0012934417 0.002343998
0.0036374338 0.0040603518 0.013676986 0.012185408 -0.024799243 -0.019117353 -0.003917329 -0.0043205237
-0.00089129567 -0.014314321 0.030757422 0.011156903 0.011079212 -0.003995079 -0.011435932 -0.00910015
-0.016477073 -0.009116074 -0.0055999435 0.0064051687 0.030806864 -0.01960803 -0.013445168 -0.008546233
-0.015625594 -0.009319595 0.00013782659 0.0063163596 -0.0032314998 0.006405165 0.0050996025 -0.028529871
